Model/epoch50/Model_7/model7.ckpt (torch_old, 286080 bytes, 464 tensors)

exp_avg f4 [72]
000000 08 13 97 3a ac 47 8f 3b 42 6e 39 3b 88 66 b0 3a
       0.0011526057 0.0043725576 0.0028294479 0.0013458291
000010 6a 8f 17 3b 0a b3 b0 b9 ed e9 46 bb 03 4c 17 bc
       0.0023126253 -0.0003370273 -0.0030351833 -0.009234431
000020 91 cf 22 3a 6f ed 0f 3c b6 11 d3 ba 1b 2a 9c 3b
       0.00062107394 0.008784636 -0.0016103301 0.0047657616
000030 c2 89 6f 3c 69 af 1d 3a 23 12 bf 3b 19 18 72 3b
       0.014620246 0.0006015213 0.0058310195 0.0036940633
000040 1f 9a 5d 3b be a3 19 3b e3 f5 bf 3a 8b 1f 9d 39
       0.0033813787 0.0023443545 0.0014645424 0.00029968875
000050 05 d9 8b bb ce 24 e3 3b 48 6e 56 3b 25 dc 44 3b
       -0.004267814 0.0069318777 0.0032719541 0.0030038443
000060 30 cd 39 3b 62 80 4f bb 43 62 ca 3b d9 25 7b ba
       0.002835106 -0.0031662215 0.0061762645 -0.000958053
000070 58 af c8 ba c7 95 4e 3b ea ae 85 3c 94 fe a4 3b
       -0.0015311046 0.003152238 0.016318757 0.005035231
000080 c5 b1 2b 3c 7a 4f 77 bb 9b 46 85 ba d7 fc b2 ba
       0.010479395 -0.003773658 -0.0010168137 -0.0013655674
000090 e4 a0 b3 ba dc 5d 99 ba 49 46 c5 39 26 f8 52 bc
       -0.0013704565 -0.0011700946 0.00037627135 -0.012876546
0000a0 20 3b e3 38 ef 7a 1d bc 20 b0 57 bc 0b d9 4c bb
       0.000108352164 -0.009611829 -0.01316455 -0.0031257297
0000b0 45 3e 33 bc a2 15 c8 3c 66 62 18 3c 00 98 67 3b
       -0.010940139 0.024424378 0.009300804 0.0035338402
0000c0 42 e5 60 3b 97 8a d7 ba 45 e7 8a 3b 71 8f ad 39
       0.0034316336 -0.0016444501 0.0042389953 0.00033104004
0000d0 ff 43 96 3a c9 d9 85 3a dc b0 7c 3b 04 8d 23 3b
       0.0011464356 0.0010212 0.0038557565 0.0024955878
0000e0 bd 39 f6 b9 dd 95 86 bb 4a 3b cf ba 61 ff 37 bb
       -0.00046963795 -0.0041072206 -0.0015810516 -0.0028075802
0000f0 a1 a2 7e b9 63 ee 70 3a aa e4 ec ba df d4 3c ba
       -0.00024283912 0.0009190796 -0.0018073518 -0.0007203351
000100 0e a9 b0 3a 00 f6 84 ba 94 5c 57 bb 64 96 e8 3a
       0.0013478117 -0.0010144114 -0.0032861577 0.0017745015
000110 dd a3 3b 3b a8 06 be 3b 45 8c 3b 3b c0 95 17 3c
       0.0028631606 0.0057991333 0.0028617543 0.009252012

exp_avg_sq f4 [72]
000000 17 47 bb 3a 95 8a 1e 39 5a 0d f3 3a 61 ca 64 39
       0.0014288154 0.0001511968 0.0018543408 0.00021819166
000010 3b 2b 49 38 81 06 06 39 89 c3 e5 3b 54 5e b1 3c
       4.7962396e-05 0.00012781659 0.007011835 0.021651424
000020 a0 15 c7 3a 78 84 99 3a 43 15 bf 3b e1 c0 86 3a
       0.001518894 0.0011712452 0.005831392 0.0010280871
000030 98 cc f1 3a f2 6e ad 3b ca 80 9d 3a 47 1f 68 3a
       0.0018447815 0.0052927667 0.0012016532 0.00088547583
000040 49 39 2e 39 4a 42 38 3a 7c b0 76 3a 21 a8 c1 38
       0.00016615273 0.0007028921 0.00094104535 9.2342736e-05
000050 4b 0f 21 3a e9 84 e6 3a 05 99 19 3a 81 b4 5e 3a
       0.00061439414 0.0017587218 0.00058592885 0.0008495525
000060 08 82 2d 3b f6 6f 9e 3b a4 10 87 3a 4b e4 c9 3a
       0.002647521 0.004835124 0.0010304642 0.001540312
000070 a3 83 9b 3a 8c 98 77 39 fa 33 4e 3c 2c 22 3c 39
       0.0011864792 0.00023612584 0.012585634 0.00017941807
000080 59 db 00 3c 04 fc 66 3b 44 58 cd 39 41 7a a3 3a
       0.007864797 0.0035245428 0.0003916641 0.0012472348
000090 b1 61 03 39 eb e7 fd 37 d2 ee 2e 39 d1 50 15 3b
       0.00012529526 3.0267945e-05 0.000166829 0.0022783766
0000a0 04 1f 9d 3b ed cb cf 3b f1 9b 44 3c 01 f9 b2 3a
       0.004794957 0.0063414485 0.01200007 0.0013654531
0000b0 92 cb bd 3b e3 80 3d 3c 21 dd ac 3a 59 84 1f 3a
       0.0057920897 0.0115663735 0.001318846 0.000608509
0000c0 4a 19 9c 3a de d2 18 3a f3 bc ba 3a 93 3b b7 38
       0.0011909392 0.00058297615 0.0014246985 8.7372166e-05
0000d0 2c 12 1f 38 43 0b ca 38 b5 ca 63 3b bb ac 8c 3a
       3.7925478e-05 9.634208e-05 0.0034758274 0.001073263
0000e0 08 7e b0 39 ed 95 83 3a 57 b3 d9 38 67 83 c1 39
       0.00033663237 0.0010039188 0.00010380771 0.0003690973
0000f0 49 7b 96 39 55 c6 bc 38 5f a2 15 39 b1 a1 bc 38
       0.00028702084 9.001481e-05 0.00014270235 8.994656e-05
000100 da 30 b3 37 0e c5 11 39 4a c2 aa 3a 64 c9 b6 39
       2.1361211e-05 0.00013901686 0.0013027873 0.00034863793
000110 c7 4c 4d 3b 16 ce 81 3b 6b f1 92 38 24 11 b3 3b
       0.003132628 0.003961335 7.00679e-05 0.00546469

exp_avg f4 [24]
000000 c8 e1 08 3c 50 ac 59 3b 82 d9 3e bc 48 a0 43 3c
       0.008354612 0.0033214279 -0.011648538 0.0119400695
000010 e6 76 ac 3c 7f 55 1a 3c 28 13 24 bb 05 65 58 3c
       0.021052789 0.009419798 -0.0025035832 0.013207679
000020 b2 88 bf 3b 97 d2 2d 3a b8 63 02 3d 97 b8 c9 bb
       0.005845153 0.00066308066 0.03183338 -0.006156038
000030 97 d6 0d bb 4f 56 b7 bc 53 12 df bc e9 9c 18 3d
       -0.0021642798 -0.022380022 -0.027230417 0.037259016
000040 3f 77 c5 3b d4 c0 23 3b 50 bb c0 3b 2f 32 0b bc
       0.006026178 0.002498676 0.0058817044 -0.008495851
000050 d0 41 94 ba 8c dd ca b9 fa 24 b1 3a 13 be 92 3c
       -0.0011311118 -0.00038693508 0.0013515048 0.0179129

exp_avg_sq f4 [24]
000000 e6 0c f7 3a 1f 8d 4e 3a 74 a8 1e 3d 28 6b 93 3b
       0.0018848449 0.0007879305 0.03873487 0.004498858
000010 aa 4a 0e 3c c3 dd 8b 3b 01 d8 18 3a 9e 8b 65 3b
       0.0086847935 0.0042683794 0.0005830527 0.0035025845
000020 81 10 21 3c ce df 9b 3b 8a 87 30 3d 6f ae 4c 3c
       0.009830595 0.004756904 0.04309801 0.01249276
000030 9c 15 21 3a 51 f9 86 3b 3e 04 46 3d 05 4f d5 3c
       0.00061448826 0.0041190763 0.04834389 0.026038656
000040 c6 b5 28 3b 09 a2 0c 3a 55 76 17 3c aa d5 70 3b
       0.002574311 0.00053647213 0.009244521 0.0036748447
000050 a3 07 07 3a c6 fa b7 39 24 e3 9d 3a 54 d4 9b 3c
       0.0005150979 0.0003509132 0.0012045843 0.019022144

exp_avg f4 [12, 12]
000000 2a 80 75 35 0b 0a 8d 38 21 77 27 3a f6 76 05 3b
       9.1456116e-07 6.7252746e-05 0.0006388296 0.0020365096
000010 d1 82 8d 3b 72 de b5 3b 95 55 45 3b 9d 93 af 39
       0.004318573 0.005550199 0.0030110825 0.00033488582
000020 0a 4f df 36 ec 55 29 b8 92 8a e3 b8 c3 8a c3 b8
       6.6551193e-06 -4.037276e-05 -0.00010850014 -9.324171e-05
000030 14 4e f7 b7 8a 5e 92 b9 2a b8 d8 b9 45 9d ce 35
       -2.9481052e-05 -0.00027917727 -0.00041335943 1.5393967e-06
000040 8f 99 a9 b9 37 74 a6 ba 5c c3 88 ba 7e dd 26 b9
       -0.00032348602 -0.001269943 -0.0010434198 -0.00015913506
000050 5a 50 ae 35 9a f1 16 38 a0 ad 89 38 20 fe 63 38
       1.2987396e-06 3.5987796e-05 6.565009e-05 5.435769e-05
000060 00 00 00 00 00 00 00 00 00 00 00 00 00 00 00 00
       0.0 0.0 0.0 0.0
000070 00 00 00 00 00 00 00 00 00 00 00 00 00 00 00 00
       0.0 0.0 0.0 0.0
000080 00 00 00 00 00 00 00 00 00 00 00 00 00 00 00 00
       0.0 0.0 0.0 0.0
000090 19 35 47 b8 40 ed d8 b9 d0 05 55 ba 38 1b 1a ba
       -4.749475e-05 -0.00041375495 -0.00081261713 -0.00058786897
0000a0 0a 6a 0f ba 6b 34 e1 ba 2d 8c ac ba a2 da 86 38
       -0.0005470818 -0.001718176 -0.0013164334 6.4303415e-05
0000b0 4f 59 b3 39 7e 18 26 39 a8 92 59 38 96 11 22 38
       0.0003420808 0.00015840118 5.1873416e-05 3.8640188e-05
0000c0 82 da da 35 c6 a4 1e 37 1d b7 c0 37 26 1e 4e 39
       1.630586e-06 9.455898e-06 2.2973452e-05 0.00019656922
0000d0 6f 71 83 3a 71 90 d6 3a 26 76 9b 3a 0a b2 01 3a
       0.0010028313 0.0016369951 0.0011860773 0.00049474894
0000e0 fe f4 32 38 fb 4f 4c b7 e6 28 02 b8 4c 90 2c b8
       4.2666674e-05 -1.2177969e-05 -3.1032505e-05 -4.1142383e-05
0000f0 ba 20 09 b8 15 c1 8e b9 0c ab 06 ba ec 3f 10 ba
       -3.2693824e-05 -0.00027228208 -0.00051371823 -0.0005502689
000100 4a d9 7a ba 42 53 c0 ba 94 ee b8 ba e4 ca 2f ba
       -0.0009569122 -0.001467325 -0.0014109188 -0.0006705953
000110 56 ed 96 b9 11 17 a9 b8 87 15 5f 37 91 ed b0 37
       -0.0002878706 -8.0628444e-05 1.3296848e-05 2.109146e-05
000120 a2 f3 44 36 71 ec fd 38 0d 07 02 3a 2a e2 50 39
       2.934809e-06 0.00012108021 0.0004960157 0.00019920678
000130 27 6c 01 37 e3 c3 f3 32 1b 92 2c 2d 8b 65 b6 25
       7.71418e-06 2.8378002e-08 9.80951e-12 3.1640775e-16
000140 fb 51 8f 1c 43 13 a7 11 dc 51 10 05 08 00 00 00
       9.484138e-22 2.6359825e-28 6.785883e-36 1.1e-44
000150 34 4e 33 37 6d 9d 03 39 c7 7a 9a 39 2b 54 fd 37
       1.06874395e-05 0.00012551779 0.00029464645 3.0199144e-05
000160 72 e8 6c 38 37 a7 94 3a cc a2 fb 3a 1a 36 bf 3a
       5.6483266e-05 0.0011341338 0.0019198298 0.0014588267
000170 3e 52 e9 39 81 58 7d 38 7d 70 56 b7 96 32 be b7
       0.00044502498 6.0402326e-05 -1.2781585e-05 -2.2673321e-05
000180 5b e8 00 32 18 b6 e2 b5 d9 e4 e2 b8 e7 01 17 ba
       7.503412e-09 -1.6891308e-06 -0.00010819146 -0.00057604763
000190 93 d5 c0 b9 2d 41 e7 b7 fa 40 73 b4 36 68 55 af
       -0.0003678022 -2.7567696e-05 -2.2654777e-07 -1.940926e-10
0001a0 b1 de 96 a8 f7 c1 27 a0 3c 2a 10 96 43 29 3d 8a
       -1.6749922e-14 -1.4209628e-19 -1.1645554e-25 -9.1077795e-33
0001b0 00 00 00 00 00 00 00 00 00 00 00 00 00 00 00 00
       0.0 0.0 0.0 0.0
0001c0 00 00 00 00 00 00 00 00 00 00 00 00 00 00 00 00
       0.0 0.0 0.0 0.0
0001d0 00 00 00 00 00 00 00 00 00 00 00 00 00 00 00 00
       0.0 0.0 0.0 0.0
0001e0 bc 13 54 b8 3c 60 a6 b9 95 e8 bd b9 e6 46 3c ba
       -5.0563118e-05 -0.00031733688 -0.00036222176 -0.00071821955
0001f0 34 c0 95 ba 37 6d 69 bb b5 79 82 bb 52 c4 ee ba
       -0.0011425079 -0.0035618076 -0.0039817938 -0.0018216467
000200 6a aa 76 b9 2f e6 10 b8 a8 f6 bb 37 59 22 65 38
       -0.00023523872 -3.454665e-05 2.2406995e-05 5.4629843e-05
000210 35 0f 42 1b a6 56 a8 24 79 51 5d 2c 99 cf 5e 32
       1.6052218e-22 7.3005174e-17 3.1451215e-12 1.2969303e-08
000220 c8 d0 af 36 88 a5 66 39 03 08 92 3a 8b fa 70 3a
       5.2397118e-06 0.00021996174 0.0011141304 0.0009192607
000230 d3 ab de 38 04 61 5c b8 81 39 b5 b6 8d 78 3f b3
       0.0001061779 -5.254244e-05 -5.4009147e-06 -4.4580293e-08

exp_avg_sq f4 [12, 12]
000000 d3 ca 39 2e 65 2f 2b 34 0c 2b 35 37 f7 de a0 38
       4.2244274e-11 1.5942858e-07 1.0798463e-05 7.670925e-05
000010 40 30 8c 39 92 33 00 3a 46 5c 3c 39 a3 07 30 36
       0.0002673883 0.0004890497 0.00017963452 2.6230489e-06
000020 db 76 91 34 76 d7 35 36 b7 c5 d2 35 3a 3e e5 34
       2.7094833e-07 2.7096517e-06 1.5703762e-06 4.269985e-07
000030 b7 6c 8a 32 7b 5d cd 35 68 9a ae 36 00 00 16 38
       1.6114752e-08 1.5300897e-06 5.2035793e-06 3.5762787e-05
000040 83 45 f0 37 78 7b e1 37 c0 69 94 37 70 d7 da 34
       2.8642598e-05 2.6879585e-05 1.7692219e-05 4.0762416e-07
000050 a2 09 08 32 28 6f ac 34 cb a3 f4 34 e7 c9 3a 34
       7.918432e-09 3.2118373e-07 4.5567717e-07 1.7396052e-07
000060 00 00 00 00 00 00 00 00 00 00 00 00 00 00 00 00
       0.0 0.0 0.0 0.0
000070 00 00 00 00 00 00 00 00 00 00 00 00 00 00 00 00
       0.0 0.0 0.0 0.0
000080 00 00 00 00 00 00 00 00 00 00 00 00 00 00 00 00
       0.0 0.0 0.0 0.0
000090 94 0b eb 32 09 a8 62 36 25 9b 83 37 f6 f2 ee 37
       2.7362866e-08 3.3774434e-06 1.5688662e-05 2.8484948e-05
0000a0 30 87 cf 37 aa 6b 6c 38 68 ff b8 38 73 3d 53 37
       2.4739275e-05 5.6367055e-05 8.821377e-05 1.2590887e-05
0000b0 52 6c 20 37 59 29 4b 36 15 de e9 34 b9 78 ca 33
       9.561963e-06 3.0273425e-06 4.3561218e-07 9.428317e-08
0000c0 48 38 ae 30 50 4f 97 32 37 c5 33 35 5a 58 ce 37
       1.2676162e-09 1.761478e-08 6.696968e-07 2.4598256e-05
0000d0 e2 bb 0f 38 9f 2f e6 37 45 f9 c9 37 7f 73 de 36
       3.4268836e-05 2.7440312e-05 2.4077142e-05 6.629561e-06
0000e0 52 45 d1 35 75 6f 1b 35 f4 37 13 34 4c eb 4b 33
       1.5591888e-06 5.790419e-07 1.3710797e-07 4.7478622e-08
0000f0 45 61 4b 33 98 6c 5a 36 e5 37 67 37 31 fd cf 37
       4.7353087e-08 3.2547741e-06 1.3781687e-05 2.4794224e-05
000100 1f 10 92 38 72 15 ee 38 46 03 cc 38 45 87 b8 37
       6.964825e-05 0.00011352719 9.728088e-05 2.1997499e-05
000110 93 62 f8 35 ee 06 e6 33 ae e3 db 32 f5 90 8b 32
       1.8506129e-06 1.071147e-07 2.5598492e-08 1.6247649e-08
000120 38 9d 8d 30 06 b6 06 36 80 d5 15 38 6c 42 c0 36
       1.0303784e-09 2.0073508e-06 3.5723206e-05 5.7297784e-06
000130 4c b2 0c 32 0f cf e8 29 0d 4f 58 1e 03 9a 60 0f
       8.1896125e-09 1.03387886e-13 1.1451292e-20 1.1073714e-29
000140 9d 03 01 00 00 00 00 00 00 00 00 00 00 00 00 00
       9.3132e-41 0.0 0.0 0.0
000150 c2 e1 c9 32 ed c0 8c 35 ce c2 53 36 75 4b 8b 37
       2.3502142e-08 1.0486962e-06 3.1554841e-06 1.6605229e-05
000160 26 66 58 38 27 a0 f7 37 49 be b5 38 0e 73 80 38
       5.1593546e-05 2.9519271e-05 8.666196e-05 6.124946e-05
000170 11 54 04 37 26 03 a2 34 9a 86 07 33 ee e3 51 32
       7.887386e-06 3.0177142e-07 3.1554556e-08 1.2217226e-08
000180 82 a9 9a 29 d3 38 1b 31 2e 9e c2 35 e9 50 cd 37
       6.868379e-14 2.258777e-09 1.4500163e-06 2.4475581e-05
000190 4f 62 16 37 3f b4 51 33 f5 b7 5d 2c 24 95 1e 22
       8.963586e-06 4.8825537e-08 3.1508106e-12 2.1491947e-18
0001a0 d3 c4 8f 14 e9 72 9e 03 00 00 00 00 00 00 00 00
       1.4516943e-26 9.3127874e-37 0.0 0.0
0001b0 00 00 00 00 00 00 00 00 00 00 00 00 00 00 00 00
       0.0 0.0 0.0 0.0
0001c0 00 00 00 00 00 00 00 00 00 00 00 00 00 00 00 00
       0.0 0.0 0.0 0.0
0001d0 00 00 00 00 00 00 00 00 00 00 00 00 00 00 00 00
       0.0 0.0 0.0 0.0
0001e0 c5 9a e6 33 63 90 73 36 e0 ae 6d 36 37 78 8a 37
       1.0738362e-07 3.6293866e-06 3.5417543e-06 1.6506861e-05
0001f0 08 10 68 38 81 09 b9 39 c5 13 19 39 04 31 8d 37
       5.532804e-05 0.0003529303 0.00014598582 1.6831335e-05
000200 2a 36 aa 34 a9 e7 a2 34 e2 05 cf 34 78 76 21 34
       3.1704377e-07 3.0343406e-07 3.8561035e-07 1.5037392e-07
000210 17 2a 2c 02 64 6a bd 12 b6 22 f0 1f da 77 b5 29
       1.2648643e-37 1.1953804e-27 1.0170138e-19 8.0588056e-14
000220 98 f1 7b 30 01 40 40 35 6f a3 97 37 5b 91 8c 37
       9.1656593e-10 7.161871e-07 1.8076707e-05 1.6756987e-05
000230 67 7c 5e 37 4b 9b 31 36 79 66 e9 32 b0 d7 d6 2c
       1.3261196e-05 2.6465448e-06 2.717137e-08 6.106192e-12

exp_avg f4 [24, 12]
000000 85 ac 36 3a ee 78 74 39 00 00 00 00 da 71 8b 3a
       0.00069684564 0.00023314703 0.0 0.0010638789
000010 39 d4 01 3a 3c 8e 82 3a da 94 e8 35 e7 4c 13 3a
       0.0004952583 0.0009960602 1.7328668e-06 0.00056190643
000020 83 26 74 38 00 00 00 00 4e 7e b3 39 4b eb 3d 39
       5.821e-05 0.0 0.00034235645 0.00018112098
000030 d1 61 ed 39 7f 66 11 39 00 00 00 00 fe 42 39 39
       0.00045277041 0.0001386646 0.0 0.00017667931
000040 36 7e b2 38 5f 1c 3d 39 1d 55 df 35 af 0f 21 39
       8.51121e-05 0.00018035014 1.6639566e-06 0.00015359999
000050 f1 c7 65 38 00 00 00 00 4b 29 5a 38 83 20 76 b7
       5.4784065e-05 0.0 5.2013707e-05 -1.4670312e-05
000060 41 5d aa b9 f9 8d c8 b8 00 00 00 00 a2 0f 26 b9
       -0.00032494406 -9.5631876e-05 0.0 -0.00015836817
000070 3b 6b 9e b8 c9 96 28 b9 66 de b6 b5 d5 07 f7 b8
       -7.554e-05 -0.000160779 -1.3624783e-06 -0.00011779337
000080 50 ed bd b7 00 00 00 00 80 5e ed b7 c3 36 93 36
       -2.2641063e-05 0.0 -2.8296607e-05 4.3873165e-06
000090 df cf 84 3a 14 88 78 39 00 00 00 00 5d 56 78 3a
       0.0010132751 0.00023701816 0.0 0.00094733184
0000a0 3d da c5 39 95 47 48 3a ea be 7d 35 f1 c1 e7 39
       0.00037737368 0.0007640061 9.452766e-07 0.0004420425
0000b0 1d 02 2e 38 00 00 00 00 2f 6a d7 39 04 74 69 38
       4.14868e-05 0.0 0.0004108711 5.5659577e-05
0000c0 e9 58 c6 3a f2 8b ca 39 00 00 00 00 b2 fd 75 3a
       0.0015132698 0.0003863271 0.0 0.0009383812
0000d0 46 7b b4 39 2b 8b 4a 3a a7 74 88 35 b2 71 21 3a
       0.0003442412 0.0007726426 1.016674e-06 0.00061586045
0000e0 91 2e e5 38 00 00 00 00 96 aa f6 39 9c a1 83 b8
       0.000109282446 0.0 0.00047047873 -6.276669e-05
0000f0 8f 47 0f b9 1f c2 93 b8 00 00 00 00 54 1e 4c b9
       -0.000136642 -7.045664e-05 0.0 -0.00019466254
000100 23 95 66 b8 cc 5f 16 b9 cb 32 c0 b5 b2 98 b0 b8
       -5.4975168e-05 -0.00014340802 -1.4319897e-06 -8.420776e-05
000110 2c ee 44 b7 00 00 00 00 08 09 22 b8 e5 d9 49 b7
       -1.1737964e-05 0.0 -3.863222e-05 -1.2031266e-05
000120 92 54 ad bb 5c fa ce ba 00 00 00 00 38 27 b2 bb
       -0.0052896226 -0.0015791166 0.0 -0.005436804
000130 b3 cf 16 bb 28 c4 9c bb ed 8d d6 b6 21 48 3f bb
       -0.0023011982 -0.004784126 -6.3942193e-06 -0.002918728
000140 bc b2 f1 b9 00 00 00 00 10 ee f4 ba 7d 0b 0c ba
       -0.0004610027 0.0 -0.0018686671 -0.0005342288
000150 e8 87 e0 ba ad 26 02 ba 00 00 00 00 35 e7 09 bb
       -0.0017130347 -0.00049648696 0.0 -0.002104235
000160 d5 4c 3f ba 4f 58 d3 ba d4 43 2b 35 81 6a 7b ba
       -0.00072975206 -0.001612434 6.3801167e-07 -0.00095907605
000170 58 e4 0e b8 00 00 00 00 42 a5 72 ba a1 9e f3 b8
       -3.40681e-05 0.0 -0.0009256193 -0.0001161669
000180 85 78 ce 39 49 f5 08 39 00 00 00 00 3a 75 17 ba
       0.00039381176 0.00013061347 0.0 -0.0005777661
000190 7e aa 7c b9 03 72 f3 b9 67 29 a2 34 c2 01 04 b9
       -0.00024096106 -0.00046433517 3.0204976e-07 -0.00012589156
0001a0 bf df 9f 38 00 00 00 00 5e eb 89 b9 d0 98 4c b9
       7.623387e-05 0.0 -0.00026306038 -0.00019511883
0001b0 49 6a a8 b9 85 69 40 b8 00 00 00 00 82 19 71 b8
       -0.00032122646 -4.587464e-05 0.0 -5.7482634e-05
0001c0 a3 35 06 b8 1e 99 81 b8 da 8e ec 34 63 6c 8a b8
       -3.1998043e-05 -6.17972e-05 4.4062364e-07 -6.6005414e-05
0001d0 d9 00 13 b8 00 00 00 00 67 67 97 b8 1f 7a 20 38
       -3.504832e-05 0.0 -7.219501e-05 3.8260707e-05
0001e0 f2 5a 66 3a 79 ea 3a b8 00 00 00 00 7a 78 ce ba
       0.00087873556 -4.4564225e-05 0.0 -0.0015752458
0001f0 7c 8f c9 b9 4e ea 7f ba 08 ff 44 36 ae b6 4c b9
       -0.00038444612 -0.0009762392 2.9354724e-06 -0.0001952301
000200 83 6d e1 38 00 00 00 00 03 91 0c ba 5e 17 c1 b9
       0.00010749234 0.0 -0.00053621846 -0.00036829239
000210 0a 09 83 3b a6 56 b6 3a 00 00 00 00 6f c9 c6 3b
       0.0039988803 0.0013911321 0.0 0.006066493
000220 bc 20 1c 3b d0 a9 a6 3b 6b 31 02 37 e4 a5 3c 3b
       0.0023823222 0.005086161 7.76011e-06 0.0028785402
000230 d1 2c 8c 39 00 00 00 00 c5 26 07 3b 96 37 3f 3a
       0.00026736272 0.0 0.0020622474 0.0007294355
000240 4d 0a 00 3b ac e5 2d 3a 00 00 00 00 92 58 65 3b
       0.001953739 0.000663365 0.0 0.003499542
000250 60 42 a1 3a 86 72 31 3b c4 bb e7 35 6c ec bb 3a
       0.0012303106 0.0027076318 1.7265488e-06 0.0014337427
000260 7d 74 8a 38 00 00 00 00 77 1c af 3a 04 53 cb 39
       6.6020504e-05 0.0 0.0013359924 0.0003878103
000270 16 3c 62 ba 99 4f 68 b9 00 00 00 00 5a db 20 ba
       -0.00086301693 -0.00022154897 0.0 -0.00061362016
000280 ea 6c a2 b9 70 d7 1f ba d3 7b 31 b6 71 14 d2 b9
       -0.00030980195 -0.00060974713 -2.644713e-06 -0.0004006955
000290 3c 28 8c b8 00 00 00 00 3b 94 36 b9 17 29 52 b8
       -6.6832145e-05 0.0 -0.00017412093 -5.010617e-05
0002a0 ab 9c b9 39 47 b2 04 39 00 00 00 00 31 72 21 3a
       0.00035402676 0.00012654914 0.0 0.00061586784
0002b0 5f 44 fa 38 a1 33 cd 39 d3 5e a2 34 76 25 72 39
       0.00011933664 0.00039139114 3.0243845e-07 0.00023092874
0002c0 c3 28 ee b7 00 00 00 00 a3 55 98 39 31 75 9a b6
       -2.8390792e-05 0.0 0.00029055504 -4.6032005e-06
0002d0 4c 38 db 3a df 1a 90 39 00 00 00 00 1e fd b1 b8
       0.0016725152 0.0002748584 0.0 -8.4871645e-05
0002e0 4e 98 00 39 2a cc 09 39 b3 1d 33 36 3c af bc 39
       0.00012263769 0.00013141395 2.6690366e-06 0.00035988714
0002f0 1b d4 15 39 00 00 00 00 1d 68 70 38 1c 59 54 b9
       0.00014288763 0.0 5.7317422e-05 -0.00020251091
000300 a2 2d fe 3a d3 45 22 3a 00 00 00 00 da 9b dc 3a
       0.0019392262 0.0006190214 0.0 0.0016831115
000310 fa b7 2a 3a 51 0f bf 3a c8 75 cc 36 64 9e 7f 3a
       0.00065124 0.0014576708 6.0933853e-06 0.000975108
000320 a9 44 31 39 00 00 00 00 66 9a 0e 3a 87 ed a3 38
       0.00016905613 0.0 0.0005439877 7.8166886e-05
000330 52 84 e2 3b 5f 50 f5 3a 00 00 00 00 a8 1c 8e 3b
       0.0069127465 0.0018715969 0.0 0.004336912
000340 c1 a1 d9 3a e1 23 71 3b ff 7c 41 37 9a 87 3a 3b
       0.0016603993 0.0036795067 1.1532799e-05 0.0028462172
000350 31 2f 03 3a 00 00 00 00 83 83 e3 3a e2 71 4a b9
       0.00050042855 0.0 0.0017357919 -0.00019306646
000360 ac 18 2e b8 66 74 fc b7 00 00 00 00 07 35 69 b9
       -4.150781e-05 -3.0094943e-05 0.0 -0.00022240366
000370 37 db e8 b8 8a 7d 66 b9 ad 6f 8f 35 04 2c cb b8
       -0.00011103454 -0.00021981276 1.0686832e-06 -9.687993e-05
000380 25 95 83 b7 00 00 00 00 76 0a 77 b8 1f f6 76 b8
       -1.5685868e-05 0.0 -5.889913e-05 -5.888019e-05
000390 ef 17 3d 3b ea ca 62 3a 00 00 00 00 22 d8 30 3b
       0.0028853377 0.00086514524 0.0 0.0026984294
0003a0 cf 2c 81 3a db ce 0d 3b 55 60 f0 34 30 b8 b9 3a
       0.0009855273 0.0021638188 4.4773574e-07 0.0014169272
0003b0 5c da 58 39 00 00 00 00 cf 0f 90 3a 96 0d a5 38
       0.0002068071 0.0 0.001099104 7.870344e-05
0003c0 d3 a9 a8 3a bb 51 fc 39 00 00 00 00 df f8 05 3b
       0.0012867994 0.0004812608 0.0 0.0020442528
0003d0 d7 6f 53 3a da 6f e4 3a f1 13 3b 35 d5 09 84 3a
       0.00080656767 0.0017428354 6.9691947e-07 0.0010073731
0003e0 99 b5 d6 38 00 00 00 00 5b 8e 3b 3a 51 ef 86 39
       0.000102381404 0.0 0.00071546965 0.00025736776
0003f0 e4 2c a3 ba 47 23 89 b9 00 00 00 00 7b 2e 88 ba
       -0.0012449292 -0.0002615696 0.0 -0.0010389829

exp_avg_sq f4 [24, 12]
000000 c6 98 d1 38 4e 74 cf 36 00 00 00 00 73 bb bc 37
       9.994353e-05 6.1826204e-06 0.0 2.2498634e-05
000010 07 03 af 36 28 ab af 37 97 29 c9 2f 02 54 54 37
       5.215759e-06 2.0941327e-05 3.6591238e-10 1.2655744e-05
000020 f1 e3 0d 35 00 00 00 00 9a c0 4c 36 b9 8a 33 35
       5.285829e-07 0.0 3.0510478e-06 6.6884564e-07
000030 c3 6e 91 37 f4 ae 09 36 00 00 00 00 fb 4c 4d 36
       1.7336924e-05 2.0516427e-06 0.0 3.059219e-06
000040 90 f1 a6 34 50 83 09 36 c5 ea 34 30 d1 f0 c1 35
       3.109567e-07 2.0491025e-06 6.5817246e-10 1.4449707e-06
000050 70 70 ad 34 00 00 00 00 c2 b5 b2 33 09 37 05 34
       3.230557e-07 0.0 8.3218325e-08 1.2406612e-07
000060 16 0f 49 36 c2 39 3c 34 00 00 00 00 65 0a d3 35
       2.9960115e-06 1.7529877e-07 0.0 1.572375e-06
000070 e5 d0 1b 35 68 ea 05 36 b7 1e db 2d 95 31 71 35
       5.804598e-07 1.9954987e-06 2.4911058e-11 8.985165e-07
000080 9a bc a7 32 00 00 00 00 b1 1a 1e 34 76 79 30 33
       1.9527125e-08 0.0 1.4724607e-07 4.108866e-08
000090 63 80 14 38 9f eb 6c 36 00 00 00 00 68 2f 8e 38
       3.540552e-05 3.530389e-06 0.0 6.779918e-05
0000a0 b4 34 d7 37 8b 73 b0 38 3a e5 20 30 c3 fc f7 37
       2.5654539e-05 8.4138555e-05 5.853341e-10 2.9562396e-05
0000b0 78 13 a2 34 00 00 00 00 07 e0 70 36 ef 83 ce 36
       3.0189017e-07 0.0 3.5893188e-06 6.1546375e-06
0000c0 7d b1 1b 39 b0 ef 96 37 00 00 00 00 a3 aa 19 39
       0.00014848071 1.7993007e-05 0.0 0.00014654784
0000d0 e5 c3 7e 37 09 97 b0 38 8d bd f8 2f d1 82 12 38
       1.518519e-05 8.4204665e-05 4.524562e-10 3.4930945e-05
0000e0 28 66 9e 35 00 00 00 00 c6 98 a3 37 b3 2f bd 34
       1.1801649e-06 0.0 1.9502255e-05 3.52387e-07
0000f0 fc 0e 1c 37 8a 47 32 35 00 00 00 00 a8 44 b9 35
       9.301813e-06 6.641427e-07 0.0 1.3803556e-06
000100 bc e6 c8 34 a2 75 b8 35 7f 63 68 2f 68 1d 89 35
       3.7420784e-07 1.3743304e-06 2.1135625e-10 1.0215854e-06
000110 89 54 58 33 00 00 00 00 82 7f d6 33 8a 51 4c 33
       5.0368303e-08 0.0 9.988345e-08 4.757161e-08
000120 d1 da fd 39 1a dc 12 38 00 00 00 00 66 64 87 39
       0.0004841895 3.5014098e-05 0.0 0.0002582401
000130 07 87 45 38 c8 ba 48 39 4b a5 dd 30 cd 86 bc 38
       4.7094214e-05 0.00019143068 1.6126845e-09 8.989647e-05
000140 5d be 59 36 00 00 00 00 4a 8b 13 38 1a 54 6b 36
       3.2446326e-06 0.0 3.5177254e-05 3.5066682e-06
000150 51 51 eb 38 e6 1a 26 37 00 00 00 00 ab 2a 7b 39
       0.000112208196 9.900634e-06 0.0 0.0002395312
000160 27 0d ab 37 48 e5 e1 38 fb e2 c8 30 88 5c 0d 38
       2.0390913e-05 0.00010771543 1.4616427e-09 3.3703196e-05
000170 e1 e5 83 35 00 00 00 00 df 2c 48 38 f7 e0 fa 35
       9.827164e-07 0.0 4.7725505e-05 1.8691925e-06
000180 b7 a0 73 38 33 a3 89 36 00 00 00 00 52 1f 83 36
       5.8085392e-05 4.101917e-06 0.0 3.9077504e-06
000190 f8 7f b4 35 25 b8 a3 36 5a 02 95 2f c3 57 ac 36
       1.3448289e-06 4.879216e-06 2.7104613e-10 5.1362163e-06
0001a0 ea 5d 06 35 00 00 00 00 6f 61 9c 34 d9 15 d8 34
       5.0055553e-07 0.0 2.9128157e-07 4.0249031e-07
0001b0 a7 3a f8 38 7d 90 55 37 00 00 00 00 f5 df 9f 38
       0.000118364864 1.2729431e-05 0.0 7.623426e-05
0001c0 15 c1 50 37 1b 78 77 38 60 dd 4f 2f e2 7f d5 37
       1.24427215e-05 5.9001246e-05 1.8905189e-10 2.5451129e-05
0001d0 45 8e 9e 35 00 00 00 00 53 05 11 37 43 50 42 34
       1.1813323e-06 0.0 8.643913e-06 1.8096857e-07
0001e0 25 44 fb 3a eb 88 d7 38 00 00 00 00 ae c6 1f 3a
       0.0019170089 0.00010277502 0.0 0.0006094974
0001f0 7f be 53 39 7a 04 35 3a 53 97 f9 31 0f a0 c4 39
       0.00020193493 0.0006905269 7.2640574e-09 0.00037503286
000200 ce 36 2d 37 00 00 00 00 c0 88 99 38 04 59 4b 36
       1.0324364e-05 0.0 7.32108e-05 3.030117e-06
000210 b0 8b a4 39 33 87 97 37 00 00 00 00 e3 16 74 39
       0.00031384593 1.806356e-05 0.0 0.0002327818
000220 52 12 10 38 2f a2 19 39 9c f7 9b 30 25 92 7d 38
       3.4349338e-05 0.00014651635 1.1348109e-09 6.045601e-05
000230 24 da de 35 00 00 00 00 f9 f6 d9 37 3f ea 9f 36
       1.6603776e-06 0.0 2.5983421e-05 4.765839e-06
000240 4c c1 92 39 1e 0b 87 37 00 00 00 00 8b f6 06 39
       0.00027991307 1.6098431e-05 0.0 0.0001287108
000250 92 ba 3e 38 2c b3 12 39 7f 6a 40 31 eb e9 96 38
       4.5473287e-05 0.00013990392 2.8000213e-09 7.196128e-05
000260 0a 3a 2c 36 00 00 00 00 43 ec 9e 37 b6 ba 88 36
       2.566378e-06 0.0 1.8945086e-05 4.074852e-06
000270 41 c0 a5 37 67 3f 93 35 00 00 00 00 a9 ce 50 36
       1.9759058e-05 1.0970806e-06 0.0 3.1114707e-06
000280 1a a9 52 35 2b 75 42 36 d9 fa 45 2f bb 84 f6 35
       7.847717e-07 2.8976453e-06 1.8006165e-10 1.8367058e-06
000290 87 9a 16 34 00 00 00 00 c8 21 d8 34 23 50 62 34
       1.4026055e-07 0.0 4.0257714e-07 2.1077044e-07
0002a0 cb 23 24 38 e6 7b 5c 36 00 00 00 00 10 60 16 38
       3.913398e-05 3.2854673e-06 0.0 3.5852252e-05
0002b0 fb 1e 10 37 2c 0c f1 37 31 30 9c 2f a0 77 42 37
       8.590282e-06 2.8735107e-05 2.8410477e-10 1.1591153e-05
0002c0 97 cc 8f 34 00 00 00 00 bc 53 c9 36 a1 6e e8 35
       2.6784684e-07 0.0 6.0000148e-06 1.7317544e-06
0002d0 e5 a4 48 39 48 47 e6 36 00 00 00 00 b7 6a 2d 37
       0.00019134914 6.8628324e-06 0.0 1.033645e-05
0002e0 0c 60 bd 36 c8 f4 88 37 d7 8c 36 30 52 18 87 37
       5.6438203e-06 1.6326449e-05 6.641136e-10 1.610458e-05
0002f0 e2 cc a9 35 00 00 00 00 20 0e 22 36 54 e2 84 35
       1.265111e-06 0.0 2.4148103e-06 9.900637e-07
000300 75 5b 27 39 30 a6 bf 37 00 00 00 00 0e e5 1d 39
       0.00015960431 2.2846361e-05 0.0 0.00015058016
000310 2c ac 6b 37 00 88 b7 38 fd 84 63 31 fd 79 1c 38
       1.4047178e-05 8.751452e-05 3.3108443e-09 3.730691e-05
000320 a2 2c e6 35 00 00 00 00 02 64 4d 37 11 54 4d 34
       1.7149325e-06 0.0 1.2242237e-05 1.9122696e-07
000330 80 96 ef 3a 50 c8 5e 39 00 00 00 00 b3 7c 07 3b
       0.0018279105 0.00021246192 0.0 0.0020673692
000340 8f cf 5e 39 3c 26 99 3a b7 5c 24 32 f9 62 f9 39
       0.00021248891 0.0011684368 9.567137e-09 0.0004756672
000350 a9 ae 30 37 00 00 00 00 fb 43 8e 39 10 ad c4 36
       1.0531084e-05 0.0 0.00027135 5.8614023e-06
000360 3a 70 55 38 02 be 8b 36 00 00 00 00 c7 9e 90 37
       5.0887676e-05 4.1646426e-06 0.0 1.7240074e-05
000370 a6 ac 3d 36 9b 7c 56 37 58 24 2f 30 5f 3f fb 36
       2.826369e-06 1.2784406e-05 6.3716277e-10 7.4877603e-06
000380 e0 59 55 34 00 00 00 00 2b 6f 21 36 7c bf 37 35
       1.9869867e-07 0.0 2.4055578e-06 6.845146e-07
000390 90 15 2a 39 e6 7b a7 37 00 00 00 00 d0 6f 56 39
       0.00016220496 1.9965646e-05 0.0 0.00020450284
0003a0 c2 10 a4 37 b2 3f dc 38 1e 05 9a 2f b5 ae 21 38
       1.9558127e-05 0.00010502282 2.8016073e-10 3.85481e-05
0003b0 67 74 9b 35 00 00 00 00 01 ef 00 38 a8 8c ab 35
       1.1582277e-06 0.0 3.0740168e-05 1.2781429e-06
0003c0 3b 59 c9 38 03 ac a2 36 00 00 00 00 1c a8 2b 39
       9.601047e-05 4.848001e-06 0.0 0.00016370456
0003d0 4c f9 94 37 be 52 ba 38 28 b3 cc 2f 13 eb b2 37
       1.7759063e-05 8.884583e-05 3.7234682e-10 2.1328719e-05
0003e0 ea 75 05 35 00 00 00 00 fb 24 75 37 c9 f6 eb 36
       4.971795e-07 0.0 1.4611748e-05 7.0322753e-06
0003f0 b3 72 20 39 73 dd 40 37 00 00 00 00 39 f1 1a 39
       0.00015301518 1.1495652e-05 0.0 0.00014776447

exp_avg f4 [12]
000000 ad 6a 1c 3c 27 16 04 bb 00 00 00 00 fb 2f 3e bb
       0.009546918 -0.0020154805 0.0 -0.0029020298
000010 27 d5 32 3b 44 9d 78 bb 98 63 05 3a b2 70 5c 3b
       0.0027287693 -0.0037935534 0.0005088388 0.0033636508
000020 60 83 2e ba 00 00 00 00 88 16 f3 bb 36 14 ba 3a
       -0.00066571496 0.0 -0.0074184574 0.0014196697

exp_avg_sq f4 [12]
000000 cf 03 b7 3a be bc 12 39 00 00 00 00 f1 d6 94 39
       0.0013962927 0.00013993957 0.0 0.00028388904
000010 9e 41 15 39 46 78 40 3a eb d2 1b 38 5c c9 60 39
       0.00014234192 0.0007342141 3.7151312e-05 0.00021437317
000020 ef 8c 0c 38 00 00 00 00 7f c1 70 3a cc 21 39 38
       3.3509856e-05 0.0 0.00091841066 4.4138913e-05

exp_avg f4 [24]
000000 94 bb 30 3a 21 18 66 39 d0 5a 40 b9 58 6e 43 3a
       0.00067418185 0.00021943498 -0.00018344377 0.0007455102
000010 ee ad 6e 3a 34 91 fd b8 bc 94 82 bb 92 fe c3 ba
       0.0009104897 -0.00012091026 -0.0039850157 -0.0014953187
000020 7e c0 de b8 36 73 0b b9 69 45 a9 b9 7b 20 7b 3b
       -0.000106216394 -0.00013298992 -0.00032285906 0.003831892
000030 80 06 09 3b 37 a1 10 ba f4 ac d2 39 67 c8 12 3a
       0.0020908415 -0.0005517187 0.0004018318 0.000559932
000040 fd bb af 3a 8c b5 88 3b 24 d2 c7 b8 17 75 09 3b
       0.0013407465 0.0041720327 -9.528201e-05 0.0020974332
000050 5e 71 a6 3a 57 52 77 ba 64 54 03 3b 2e 1f c0 38
       0.0012698581 -0.0009434572 0.0020039314 9.161081e-05

exp_avg_sq f4 [24]
000000 16 8e ea 37 28 bf 79 36 c6 0c a5 35 50 9f d3 37
       2.7961138e-05 3.721516e-06 1.2297176e-06 2.5227346e-05
000010 c9 28 a3 38 9a bd 0f 36 99 fe 3e 39 19 2d 9b 38
       7.7800425e-05 2.1419023e-06 0.00018214657 7.399376e-05
000020 53 0f 34 37 81 6c 5a 38 c3 48 28 3a d2 39 dd 38
       1.0732404e-05 5.2076302e-05 0.0006419534 0.00010548871
000030 97 a7 bb 38 53 63 7a 36 bc 19 a5 37 4f e1 10 38
       8.948071e-05 3.7310717e-06 1.9681516e-05 3.454211e-05
000040 b5 31 a7 38 11 6e 87 3a 67 f7 89 37 33 83 c1 38
       7.972439e-05 0.0010332485 1.6446878e-05 9.227395e-05
000050 5f 8e 05 38 ca b1 af 38 ea 33 64 3a 54 78 41 37
       3.1842264e-05 8.377766e-05 0.00087052456 1.15317125e-05

exp_avg f4 [12, 12]
000000 60 cb e3 b7 5f 64 8a b9 f1 d4 7f ba eb e7 d7 bb
       -2.7155213e-05 -0.00026396193 -0.0009759209 -0.006588926
000010 c7 0d 5b bc 74 24 34 bc 1c c6 0f bb 7f 74 81 b8
       -0.013369984 -0.010995019 -0.002193815 -6.1728984e-05
000020 9d 53 76 b5 54 10 26 b6 f3 60 38 37 01 2d 2f 35
       -9.1763815e-07 -2.4745432e-06 1.0989827e-05 6.525807e-07
000030 4c 27 b8 b8 47 a7 55 ba 82 35 fc ba b3 98 98 ba
       -8.781123e-05 -0.00081502314 -0.0019242021 -0.0011642188
000040 11 9b 9f ba 8d 81 64 ba 53 25 7d 3a 3e ed df 39
       -0.0012176951 -0.00087168143 0.0009656746 0.00042710634
000050 b0 2d ae 37 43 c4 e0 33 c3 e6 66 2e 1a af 3b 27
       2.0763691e-05 1.04665126e-07 5.2500903e-11 2.6046386e-15
000060 5a 4b 34 b9 51 89 bb ba c8 78 44 bb 43 28 a9 bb
       -0.00017194208 -0.0014307891 -0.0029979218 -0.0051622703
000070 5d 6f 32 bc 12 6c 2b bc c4 24 c2 bb 5e 17 85 ba
       -0.010890809 -0.010462778 -0.005924793 -0.0010154059
000080 6a 31 4b b9 f2 aa 25 b8 92 35 83 b6 3c 47 ca b5
       -0.00019377997 -3.949827e-05 -3.9103406e-06 -1.5070905e-06
000090 90 b3 e0 38 6a bc 10 3a b9 5f c9 39 e3 26 fb 3a
       0.000107145985 0.000552124 0.00038409026 0.001916137
0000a0 4d 5e 47 3b 96 c7 2c 3a 94 20 b3 b8 02 de 2d ba
       0.0030421198 0.000659102 -8.541453e-05 -0.0006632508
0000b0 d2 8d 28 ba 25 7b 5c b9 f2 84 42 b8 73 05 37 b8
       -0.0006429824 -0.0002102671 -4.637702e-05 -4.3635675e-05
0000c0 00 00 00 00 00 00 00 00 00 00 00 00 00 00 00 00
       0.0 0.0 0.0 0.0
0000d0 00 00 00 00 00 00 00 00 00 00 00 00 00 00 00 00
       0.0 0.0 0.0 0.0
0000e0 00 00 00 00 00 00 00 00 00 00 00 00 00 00 00 00
       0.0 0.0 0.0 0.0
0000f0 00 00 00 00 00 00 00 00 00 00 00 00 00 00 00 00
       0.0 0.0 0.0 0.0
000100 00 00 00 00 00 00 00 00 00 00 00 00 00 00 00 00
       0.0 0.0 0.0 0.0
000110 00 00 00 00 00 00 00 00 00 00 00 00 00 00 00 00
       0.0 0.0 0.0 0.0
000120 15 40 09 b8 e9 80 c2 b7 b5 22 70 3a 48 00 ad 3a
       -3.2723026e-05 -2.318663e-05 0.0009160445 0.0013198936
000130 96 70 b5 39 02 d4 bd 3a df d0 2b 3b 99 6f 51 3a
       0.00034606893 0.0014482739 0.0026217026 0.00079893466
000140 d3 c4 34 38 6d 31 df 36 dc c0 13 37 a9 9e e3 37
       4.309865e-05 6.651672e-06 8.806786e-06 2.713439e-05
000150 13 58 4c 39 e0 94 bd 3a 76 ab 1f 3b 34 98 58 3b
       0.00019487766 0.0014463924 0.0024363673 0.0033049705
000160 d3 9d f0 3b ae 24 08 3c 30 bf 95 3b 98 31 dc 37
       0.007343033 0.008309526 0.0045699105 2.6249138e-05
000170 2b 5d 1d b9 0c 9e 1d 35 63 6e ef 37 09 d7 26 37
       -0.00015007395 5.8717046e-07 2.8542423e-05 9.944438e-06
000180 04 00 00 00 16 1f 08 80 01 95 50 8b e1 a3 67 96
       6e-45 -7.45836e-40 -4.017144e-32 -1.8711742e-25
000190 42 ff a3 9f 4e 4f d0 a6 ec c6 ce 2c 7b da 37 32
       -6.9455474e-20 -1.4454395e-15 5.876957e-12 1.0701679e-08
0001a0 6c c7 99 35 77 fc 6d 37 fc 5a 5f 37 ed dd f5 b7
       1.1457428e-06 1.4185082e-05 1.331302e-05 -2.9309618e-05
0001b0 5e aa 2d 37 da 2e 47 3a 5a 74 89 3b 20 c3 0f 3b
       1.035127e-05 0.0007598229 0.0041947784 0.0021936372
0001c0 57 dc f6 38 76 04 45 35 c1 c3 30 30 46 38 1e b2
       0.000117712356 7.339471e-07 6.430661e-10 -9.2096055e-09
0001d0 66 a7 e7 b5 0b 5b 13 b8 40 d6 c5 b8 fa f2 85 b8
       -1.725956e-06 -3.513232e-05 -9.433599e-05 -6.387192e-05
0001e0 13 9e 8b b7 4e 26 30 b9 71 3f a4 b9 91 67 a9 3a
       -1.66437e-05 -0.00016798938 -0.00031327785 0.0012924542
0001f0 9b 80 ef 3a eb ca 22 ba d1 3a 1f ba a4 81 b7 b9
       0.001827258 -0.00062100467 -0.0006074133 -0.0003500107
000200 8d 67 3c b9 81 c9 56 b8 48 e3 9a b6 8f 5a 76 35
       -0.00017967653 -5.120924e-05 -4.6160167e-06 9.177392e-07
000210 8c 75 ce 37 3c 06 d4 38 11 1a 22 38 f8 38 b9 35
       2.461185e-05 0.00010110109 3.8648086e-05 1.3800154e-06
000220 c7 57 3c 36 f8 64 2a 39 5e 3b b6 3a 26 1f 10 3b
       2.8065276e-06 0.00016250077 0.0013903191 0.0021991222
000230 a3 cd 37 3a b4 f1 77 38 ce 11 fa 38 1b 57 0f 39
       0.0007011538 5.9114493e-05 0.00011924245 0.00013669992

exp_avg_sq f4 [12, 12]
000000 bc e6 1d 34 c3 35 a2 36 3c d6 39 38 d5 5c c0 3a
       1.4705705e-07 4.834235e-06 4.430696e-05 0.0014676104
000010 ce 73 d6 3b db 3d ac 3b 24 e8 73 39 ba 24 4b 34
       0.0065445667 0.005256397 0.00023260765 1.891921e-07
000020 d2 9d e5 2f a8 f4 31 33 83 c1 23 34 7c e1 bb 33
       4.1766995e-10 4.1433537e-08 1.5250957e-07 8.7488814e-08
000030 98 11 8d 34 cc fe f2 37 6e 25 74 39 e6 38 71 39
       2.6276098e-07 2.8967297e-05 0.00023283597 0.00023004747
000040 55 6f a7 39 21 c3 81 39 29 62 a7 39 d9 e9 19 38
       0.0003193567 0.0002475018 0.00031925857 3.669583e-05
000050 11 de c4 33 21 b9 5d 2c a2 d5 af 21 7b f0 b0 13
       9.167355e-08 3.1508756e-12 1.1915009e-18 4.466578e-27
000060 10 31 bf 35 d1 cd b1 38 94 9f d4 39 98 21 91 3a
       1.4244888e-06 8.478354e-05 0.00040554686 0.0011072634
000070 a9 6b 51 3b 7b b4 87 3b 9a db ff 3a 93 95 ba 38
       0.003195504 0.004141388 0.0019520402 8.8970315e-05
000080 bd d0 96 36 5c 5d 7f 35 1b 10 d4 33 a6 67 04 31
       4.4946487e-06 9.513076e-07 9.874949e-08 1.9267445e-09
000090 4d 64 0e 35 e4 87 4e 37 cf 63 9f 37 85 6f ac 39
       5.304508e-07 1.2310196e-05 1.9000754e-05 0.00032889485
0000a0 59 49 4d 3a 6c 91 07 39 2f 57 0d 35 d5 61 05 38
       0.0007831059 0.00012928777 5.265346e-07 3.1800784e-05
0000b0 ea bd e7 37 1a ab 63 36 78 15 8d 34 cd 30 a2 33
       2.7625782e-05 3.392523e-06 2.6278917e-07 7.55259e-08
0000c0 00 00 00 00 00 00 00 00 00 00 00 00 00 00 00 00
       0.0 0.0 0.0 0.0
0000d0 00 00 00 00 00 00 00 00 00 00 00 00 00 00 00 00
       0.0 0.0 0.0 0.0
0000e0 00 00 00 00 00 00 00 00 00 00 00 00 00 00 00 00
       0.0 0.0 0.0 0.0
0000f0 00 00 00 00 00 00 00 00 00 00 00 00 00 00 00 00
       0.0 0.0 0.0 0.0
000100 00 00 00 00 00 00 00 00 00 00 00 00 00 00 00 00
       0.0 0.0 0.0 0.0
000110 00 00 00 00 00 00 00 00 00 00 00 00 00 00 00 00
       0.0 0.0 0.0 0.0
000120 86 fd 72 33 0f 56 82 36 d5 9b fa 37 c8 05 69 38
       5.6575594e-08 3.8843204e-06 2.9874887e-05 5.5556913e-05
000130 be 07 56 37 42 1d 07 3a b4 62 d0 3a a3 40 39 39
       1.2757197e-05 0.0005154201 0.0015898556 0.00017667054
000140 6e 9b 17 35 7b d9 29 32 c6 cd 6c 33 1f f3 12 33
       5.6478063e-07 9.886544e-09 5.513518e-08 3.421439e-08
000150 8b 45 24 36 90 ff e9 38 78 b2 98 39 c0 32 15 3a
       2.4478384e-06 0.00011157908 0.0002912467 0.0005691461
000160 85 98 0f 3b 05 e3 49 3b d5 de b3 3a 13 c7 a5 38
       0.0021910977 0.003080548 0.0013723025 7.9048936e-05
000170 5e ad c7 35 6b 73 c4 34 8b c8 bb 33 b3 a3 44 33
       1.4877112e-06 3.6591823e-07 8.7443446e-08 4.578369e-08
000180 00 00 00 00 00 00 00 00 14 05 00 00 a9 c2 fe 0a
       0.0 0.0 1.822e-42 2.4532533e-32
000190 52 41 68 18 c2 97 6c 22 97 91 06 29 64 24 64 2c
       3.0018276e-24 3.2064304e-18 2.9880256e-14 3.242095e-12
0001a0 cb 57 6f 31 37 f9 88 34 15 80 2e 35 44 b0 86 34
       3.4828982e-09 2.5513302e-07 6.5006435e-07 2.5087695e-07
0001b0 f0 fd 6a 33 ff 74 68 38 60 b3 9e 3a 09 af d1 39
       5.4713325e-08 5.542207e-05 0.0012107901 0.00039993998
0001c0 b5 77 0d 36 36 aa 54 2f 1c ad 98 25 3e 8e 11 29
       2.1080316e-06 1.9341759e-10 2.64851e-16 3.2319843e-14
0001d0 be 60 92 30 06 18 f2 34 a4 4e 82 36 cf 67 09 36
       1.0650394e-09 4.5093492e-07 3.883457e-06 2.0475015e-06
0001e0 fb f5 43 33 89 45 b3 36 f3 2f b6 38 79 17 30 39
       4.5625693e-08 5.3427107e-06 8.6873675e-05 0.00016793412
0001f0 89 ca 09 3a d7 05 8b 3a 02 7a 88 39 3f 6f b5 37
       0.00052563153 0.0010606599 0.00026030844 2.1628684e-05
000200 fc 06 28 36 c4 bc c7 34 c3 ce 2e 33 32 36 a9 30
       2.5038016e-06 3.7203984e-07 4.070058e-08 1.2311772e-09
000210 be 23 82 32 35 70 91 34 54 d6 32 33 11 84 73 2e
       1.5150246e-08 2.7089996e-07 4.1638785e-08 5.53691e-11
000220 f4 54 99 30 03 b1 5f 36 aa 40 34 39 57 c1 94 39
       1.115636e-09 3.3332624e-06 0.00017190227 0.0002837281
000230 50 a4 bf 37 09 3d 3f 34 a2 1e e4 35 69 31 3a 36
       2.2845488e-05 1.7810466e-07 1.6996239e-06 2.774492e-06

exp_avg f4 [24, 12]
000000 1f 29 82 39 d5 2a 85 39 50 b5 82 3a 4c db aa 39
       0.0002482617 0.0002539965 0.0009972248 0.00032588316
000010 00 00 00 00 00 00 00 00 47 49 0c 39 8e 05 c8 3a
       0.0 0.0 0.00013378738 0.0015260444
000020 92 06 ea b4 01 4a 41 b8 e0 48 a0 3a c3 86 4e 38
       -4.3590677e-07 -4.6083707e-05 0.001222875 4.9239734e-05
000030 d7 d4 36 39 2e ce 18 39 e3 d9 02 3a 19 0d 4f 39
       0.00017436162 0.00014572658 0.0004991574 0.00019745938
000040 00 00 00 00 00 00 00 00 0e 5d 25 38 d2 d2 04 3a
       0.0 0.0 3.942573e-05 0.0005066815
000050 ee 22 7e 34 42 52 b4 b7 71 df f3 39 b8 d7 3b 37
       2.3668301e-07 -2.1495976e-05 0.0004651505 1.11962945e-05
000060 4c 2f 43 b9 5d 59 90 b8 ae 88 d7 b9 9a be 1a 38
       -0.00018614269 -6.8831e-05 -0.0004110983 3.6893973e-05
000070 00 00 00 00 00 00 00 00 83 fc fb 37 74 70 cd b7
       0.0 0.0 3.0039117e-05 -2.449027e-05
000080 b0 e1 b9 35 87 4b 63 38 4f 3c 11 ba 87 62 88 37
       1.3849258e-06 5.4191358e-05 -0.0005540298 1.6258344e-05
000090 f8 4c b3 39 f6 40 0b 3a 33 15 da 3a 55 9f 40 3a
       0.00034198887 0.0005312109 0.0016638398 0.0007347961
0000a0 00 00 00 00 00 00 00 00 59 38 99 39 dc ab 63 3b
       0.0 0.0 0.00029224416 0.0034739887
0000b0 a6 e1 f5 36 ab 19 e6 38 43 cf 30 3b ed c5 b4 38
       7.327838e-06 0.00010972036 0.0026979006 8.6199354e-05
0000c0 11 3a 6a 39 62 e0 3a 39 35 d8 1a 3a b6 00 78 39
       0.0002233761 0.00017821931 0.0005906851 0.00023651388
0000d0 00 00 00 00 00 00 00 00 a6 12 8a b7 6d 6c 0a 3a
       0.0 0.0 -1.6459566e-05 0.0005280439
0000e0 b2 0e 06 b6 45 17 a1 b7 61 7c 2c 3a ce 42 2a 37
       -1.997611e-06 -1.9203531e-05 0.0006579813 1.0148344e-05
0000f0 8f db fc b9 8f 25 d9 b9 cc 47 ad ba ba 7b 0e b9
       -0.0004822877 -0.0004141745 -0.001322025 -0.00013588267
000100 00 00 00 00 00 00 00 00 8a f3 c5 b6 65 09 6f b9
       0.0 0.0 -5.899409e-06 -0.00022796316
000110 6a 0a 7f 37 32 f0 1c 38 95 e5 9f ba 5c 07 ab 38
       1.5201609e-05 3.7416998e-05 -0.0012199158 8.155286e-05
000120 a1 7d a5 ba 01 eb ac ba 38 e6 aa bb 7d 11 86 38
       -0.0012625941 -0.0013192595 -0.0052154325 6.3928754e-05
000130 00 00 00 00 00 00 00 00 83 c8 41 b9 e3 46 4f bb
       0.0 0.0 -0.00018480611 -0.0031627945
000140 bf e1 31 38 db cb 05 ba c1 b5 e1 bb 6d 3f 84 39
       4.241033e-05 -0.0005103924 -0.006888122 0.00025224258
000150 72 f1 9b 3a 74 bd 94 3a 2e 57 7f 3b 76 c7 e9 3a
       0.0011897518 0.0011347965 0.0038961875 0.0017835933
000160 00 00 00 00 00 00 00 00 6d 50 b0 39 a2 85 a3 3b
       0.0 0.0 0.00033629258 0.0049902955
000170 60 d2 61 37 0f 64 2e b5 a4 09 87 3b 13 a9 21 39
       1.3460027e-05 -6.4965656e-07 0.0041210223 0.00015417142
000180 b7 9f 3d 3a 7b ab 54 3a 46 05 29 3b 02 f5 6b 3a
       0.0007233577 0.0008112711 0.0025790497 0.00090010476
000190 00 00 00 00 00 00 00 00 4f a8 53 39 e1 18 2b 3b
       0.0 0.0 0.00020185228 0.0026107358
0001a0 61 04 61 36 41 41 db 38 cc df 26 3b 6a 34 ac 37
       3.3530162e-06 0.00010454888 0.0025462983 2.0528405e-05
0001b0 57 b3 39 b9 9a c9 ab b8 5e de cb b9 60 57 53 39
       -0.00017709784 -8.1914666e-05 -0.00038884854 0.00020155078
0001c0 00 00 00 00 00 00 00 00 f8 a4 39 38 57 6e 1a 39
       0.0 0.0 4.4261076e-05 0.00014727689
0001d0 82 f1 95 34 8d e1 f6 37 d5 4b 0e ba de c3 62 37
       2.7929133e-07 2.9430515e-05 -0.000542817 1.3516254e-05
0001e0 34 3c 43 3b 03 f0 71 3b 1b f6 09 3c 56 32 69 3b
       0.0029790523 0.003691674 0.0084204925 0.003558298
0001f0 00 00 00 00 00 00 00 00 b5 ec 16 3a d9 1c ff 3b
       0.0 0.0 0.0005757318 0.0077854213
000200 eb cc b2 36 7b 2a 80 37 86 6a e1 3b 1e b0 bf 38
       5.328669e-06 1.527857e-05 0.0068791537 9.140394e-05
000210 17 09 e0 3a b5 c8 fc 3a 26 43 9b 3b 6a 4f 0c 3b
       0.0017092553 0.001928589 0.0047382293 0.002140964
000220 00 00 00 00 00 00 00 00 80 e6 eb 39 b4 75 b9 3b
       0.0 0.0 0.0004499443 0.0056597833
000230 77 39 a4 37 69 2f 03 38 04 c4 87 3b 34 86 63 39
       1.9577083e-05 3.1276988e-05 0.00414324 0.00021698402
000240 ae 55 fd b7 df 89 5e 39 46 bd 01 3a 6d 07 27 38
       -3.0199848e-05 0.00021222931 0.00049491634 3.982282e-05
000250 00 00 00 00 00 00 00 00 8e c9 4a 39 38 0d 0a 3b
       0.0 0.0 0.00019339306 0.0021065008
000260 69 a5 49 37 dc cb 19 39 83 0b b2 3a 95 8a b3 38
       1.2019046e-05 0.0001466716 0.0013583753 8.561198e-05
000270 f9 b6 aa b7 54 c4 f3 34 74 ee 65 b8 30 5d ba b7
       -2.0350783e-05 4.5405125e-07 -5.481993e-05 -2.2216322e-05
000280 00 00 00 00 00 00 00 00 07 d7 26 b8 54 78 a9 b9
       0.0 0.0 -3.9777744e-05 -0.00032323843
000290 76 79 a1 b5 a1 06 43 38 e6 86 2f b9 65 3e b5 b7
       -1.2030785e-06 4.6497797e-05 -0.00016739554 -2.1605936e-05
0002a0 b4 ba 1e bb fe 04 36 bb c8 77 e6 bb 7b 94 51 bb
       -0.002422017 -0.0027773972 -0.007033322 -0.003197937
0002b0 00 00 00 00 00 00 00 00 2e b1 41 ba 94 80 20 bc
       0.0 0.0 -0.00073887676 -0.00979628
0002c0 8e d2 06 b8 81 94 30 38 60 81 ea bb 7e be cf b9
       -3.2144184e-05 4.2099975e-05 -0.007156536 -0.00039624044
0002d0 15 8b d0 39 ca 5a a4 39 98 42 ee 3a e7 83 85 39
       0.00039776476 0.0003134816 0.0018177805 0.00025466012
0002e0 00 00 00 00 00 00 00 00 5e a0 14 39 c5 21 16 3b
       0.0 0.0 0.00014174121 0.0022908312
0002f0 fb f3 28 36 56 98 7b 38 ff 79 35 3b 3e c2 9e 37
       2.5175966e-06 5.9984937e-05 0.0027691124 1.8925519e-05
000300 b3 af 9e 39 4f b9 09 3a 36 71 9c 3a cf c1 71 38
       0.00030267015 0.00052537484 0.0011935595 5.7639376e-05
000310 00 00 00 00 00 00 00 00 71 e9 37 39 d1 23 19 3b
       0.0 0.0 0.00017539204 0.0023367296
000320 03 63 29 34 12 1d 03 39 1c a1 09 3b 6f 0a ba 38
       1.5775372e-07 0.00012503963 0.002100057 8.8711146e-05
000330 f6 71 a3 ba 7a 69 db ba 3a 9c ad bb 0a af 88 ba
       -0.0012469876 -0.0016739808 -0.0052981647 -0.0010428142
000340 00 00 00 00 00 00 00 00 f0 1c 02 ba 68 48 bd bb
       0.0 0.0 -0.00049634185 -0.0057764538
000350 83 8a 14 b6 fb 20 2d ba 01 41 de bb 3d 47 81 38
       -2.2134343e-06 -0.0006604341 -0.0067826514 6.1644685e-05
000360 7d 9c ca 39 88 61 6a 39 71 5f 80 3a 6f 2e e4 b8
       0.00038645035 0.00022352312 0.0009794069 -0.00010880536
000370 00 00 00 00 00 00 00 00 63 be 87 b9 64 76 19 bb
       0.0 0.0 -0.00025891056 -0.0023416514
000380 c5 7d dc b7 a3 43 9b 38 ee c3 51 b8 9b 17 88 b9
       -2.628461e-05 7.403574e-05 -5.0011957e-05 -0.0002595753
000390 6a cc 49 ba dc 7d 81 ba 04 1b 75 bb 2d df 81 ba
       -0.00076980016 -0.0009879428 -0.0037400136 -0.000990843
0003a0 00 00 00 00 00 00 00 00 95 3c f3 b9 ac 89 c4 bb
       0.0 0.0 -0.0004639371 -0.005997857
0003b0 c1 a6 c6 b6 91 4b 5c b9 5f 83 b1 bb b3 d2 0a b9
       -5.9202725e-06 -0.00021008986 -0.005417272 -0.00013239197
0003c0 c0 c2 a9 39 d5 7c 9b 39 60 43 95 3a de 49 b9 b8
       0.00032379292 0.0002965691 0.0011387877 -8.835246e-05
0003d0 00 00 00 00 00 00 00 00 a3 40 cd 37 99 7d 05 3a
       0.0 0.0 2.4468003e-05 0.0005092263
0003e0 84 74 80 b7 76 6e b9 36 c8 a5 c2 3a 6a e4 a1 b8
       -1.5313046e-05 5.526289e-06 0.0014850432 -7.719624e-05
0003f0 e4 1d cd b9 70 86 41 ba b9 ad f4 ba 7a 9b 2e b9
       -0.00039122917 -0.00073823985 -0.0018667496 -0.00016651853
