Model/epoch50/Model_8/model8.ckpt (torch_old, 286080 bytes, 464 tensors)

exp_avg f4 [72]
000000 b5 bf 1f ba 1e 92 05 3b d4 c4 f5 bb 5d 4a 86 bb
       -0.0006093935 0.0020381282 -0.0075002704 -0.0040982203
000010 70 20 16 ba 22 ea 1c ba b5 e1 3d 3c 01 81 7c 3c
       -0.00057268795 -0.0005985816 0.011589457 0.015411616
000020 24 b8 4e bb a7 5b 9f ba ab 60 b6 3b ed b0 f9 ba
       -0.0031542862 -0.0012158052 0.005565723 -0.001904992
000030 c4 97 2f 39 c2 81 31 3b 34 c7 0d 3c 0a 2b 37 3a
       0.00016745838 0.0027085398 0.008653451 0.00069873093
000040 1f e7 3f 3a f5 b3 15 bb 07 9d 1f bb c6 96 e3 39
       0.00073205115 -0.0022842858 -0.002435507 0.0004340915
000050 16 56 a7 ba 71 1d 13 bc dc db 3d bb 6a 17 85 bb
       -0.0012766744 -0.008979187 -0.0028970158 -0.004061629
000060 14 8d 56 3b 25 fb 82 3b 90 70 10 b9 f6 81 f2 ba
       0.0032737898 0.003997224 -0.00013774843 -0.0018501866
000070 f5 bb 63 3a 2b 2a db ba 86 6f e8 bb 8b 3e bf bb
       0.00086873706 -0.0016720941 -0.0070933728 -0.005836313
000080 7b 7b 91 3a b0 c6 45 3b 23 77 03 3b b2 16 9d 3b
       0.0011099422 0.0030178241 0.0020060025 0.0047939653
000090 67 f7 8f bb d1 78 41 bb 7e c9 3d b8 95 94 14 3b
       -0.0043935063 -0.0029521475 -4.5248766e-05 0.002267157
0000a0 4e 01 38 bb 46 07 f4 38 29 42 c1 3b e2 2b fe 3b
       -0.002807695 0.000116361814 0.0058977795 0.007756696
0000b0 e4 1e 1a bc 56 33 a2 3b bd 0e 56 b9 c9 03 86 3b
       -0.009406779 0.0049499674 -0.00020414121 0.0040898067
0000c0 64 9c 0e bb 2c 1a a5 b9 90 30 61 b9 71 71 55 bb
       -0.0021760697 -0.00031490752 -0.00021475763 -0.0032568837
0000d0 57 82 80 ba d0 20 d0 ba c7 35 c6 bb 73 b8 9a bb
       -0.0009804469 -0.001587892 -0.006048891 -0.004721695
0000e0 44 a6 b5 ba 8e 63 c7 ba 59 30 eb b9 19 0b 89 ba
       -0.0013858755 -0.0015212165 -0.00044858715 -0.0010455578
0000f0 21 35 c8 3a 4c a6 c4 ba cd e0 02 3b c9 ce a6 3a
       0.0015274623 -0.0015003174 0.0019970417 0.0012726422
000100 38 6d 40 3a 1c 06 38 bb d5 22 ac bb 55 f4 9a ba
       0.00073404936 -0.0028079813 -0.0052531757 -0.0011822084
000110 61 ef 8c bb d6 8f 80 ba 55 7e a5 bb 9b 7a 67 3c
       -0.004300997 -0.0009808491 -0.0050504603 0.0141283525

exp_avg_sq f4 [72]
000000 cc ca 3d 3b 84 bf a3 39 55 2c fe 3a af d6 0e 39
       0.0028959988 0.00031232473 0.0019391874 0.00013622151
000010 6a 21 5e 38 aa 88 e0 38 5a 23 57 3b 9b 92 99 3b
       5.2960044e-05 0.00010706608 0.0032827468 0.004686666
000020 be ee 22 39 bd 59 ad 3a 3a 8c ca 3a 68 e8 45 3a
       0.00015538462 0.0013225597 0.0015453168 0.0007549585
000030 35 29 09 3c b9 fc 09 3b 58 8c 96 3a 42 89 6a 38
       0.008371641 0.0021055175 0.0011485917 5.591778e-05
000040 88 9a b5 38 d0 0c d1 38 e0 9c 7a 39 0c 25 b4 37
       8.659536e-05 9.968283e-05 0.00023900298 2.1474923e-05
000050 9b 61 ff 38 58 ac 65 3b be bc e6 38 04 ec 60 3b
       0.00012177528 0.0035045352 0.000110024106 0.0034320364
000060 04 e9 41 3a 65 85 29 39 a9 65 4f 39 61 24 28 3b
       0.0007397088 0.0001616679 0.0001977893 0.002565645
000070 30 6a 9e 3a 38 63 48 39 51 db 1b 3c aa df 2f 3b
       0.001208609 0.00019110448 0.009512738 0.0026836195
000080 01 01 83 3b 40 40 ab 3a f6 c1 a0 39 3f bf b1 3a
       0.0039979224 0.0013065413 0.0003066209 0.0013561024
000090 13 af 37 3a 39 b9 17 39 dd e2 27 38 ca 53 55 3b
       0.0007006984 0.00014469483 4.0027186e-05 0.0032551163
0000a0 68 87 c5 38 42 ac d1 3a 06 e5 52 3c 91 22 b7 3b
       9.4189134e-05 0.0015996771 0.012871986 0.0055888374
0000b0 7f bc 23 3b a3 12 a1 3b 40 28 67 3a db 2e 34 3a
       0.0024984179 0.0049155517 0.00088179484 0.0006873437
0000c0 49 ce 81 39 cf 02 d9 38 28 6b 97 38 5b 40 73 38
       0.00024758492 0.000103478895 7.2202005e-05 5.799565e-05
0000d0 e2 8f b9 37 fe 1c 8b 37 a5 ff 2a 3b 58 c7 f5 3a
       2.212072e-05 1.6583592e-05 0.0026092317 0.0018751426
0000e0 97 83 02 3a b6 87 58 38 bb 59 85 37 ba 83 54 38
       0.0004978715 5.1624804e-05 1.589662e-05 5.066742e-05
0000f0 2f ae cd 3a 4b f9 d9 38 97 79 96 3a 76 c4 82 39
       0.001569217 0.00010393801 0.0011480328 0.00024941907
000100 60 77 05 38 65 ea 21 39 26 e8 81 3a d2 e1 19 39
       3.1820848e-05 0.00015441475 0.0009911105 0.00014675342
000110 97 79 11 3b 85 f4 ce 3b 7c e8 d2 3a b5 42 e9 3a
       0.0022197717 0.00631577 0.0016091014 0.001779637

exp_avg f4 [24]
000000 b5 f3 c6 bb b0 ab ac bb 57 5a c3 3c 03 3b 20 3b
       -0.0060715326 -0.00526949 0.023846788 0.0024449236
000010 03 e6 3c 3c b3 bd 5f ba 39 d5 56 bb 0e 90 82 bc
       0.011529448 -0.0008535042 -0.00327809 -0.015937831
000020 2b be e9 3b 12 e7 2d bb 96 a7 41 bc ce da 20 3c
       0.0071332655 -0.0026535434 -0.011819741 0.009817792
000030 60 2f f2 bb e0 63 de b9 45 30 8b 3b 4d c3 10 3c
       -0.0073909014 -0.00042417552 0.0042476975 0.008835626
000040 b1 52 31 bb 82 e1 be bb e0 2b 47 bc 60 9d 45 bb
       -0.0027057345 -0.0058252225 -0.012156457 -0.0030153617
000050 2b a8 04 3b 93 0d 52 ba a5 e7 2f bc 79 a9 04 3c
       0.0020241837 -0.0008012887 -0.010736381 0.008097046

exp_avg_sq f4 [24]
000000 09 f9 f9 3a cb 75 e2 39 30 51 77 3c 9b 3e ef 3a
       0.0019071411 0.00043193842 0.01509504 0.0018252911
000010 d1 dc e3 3c c8 82 c0 39 9a 0f f7 39 e8 3d 73 3c
       0.027815254 0.00036718533 0.00047123135 0.014846303
000020 7d d9 d9 3a a1 be 1a 3c 06 b1 34 3d a3 cc f5 3b
       0.0016620603 0.009444864 0.044114135 0.0075012012
000030 5f fd d2 3a 4a f8 1f 3c 63 2d 5d 3d 08 12 79 3c
       0.0016097239 0.009763787 0.053998362 0.015202053
000040 c4 24 87 3a 74 07 47 39 4f c6 3a 3c 7e a1 9e 39
       0.001031064 0.00018980895 0.0113998195 0.0003025643
000050 11 a8 dd 3b d3 9f 76 39 41 6d a5 3a 20 46 c4 3c
       0.00676442 0.00023519927 0.0012621061 0.02395922

exp_avg f4 [12, 12]
000000 20 c7 01 36 08 29 06 39 da 98 8f 3a 8c c1 4e 3b
       1.9338404e-06 0.00012794521 0.0010955587 0.0031548468
000010 aa 32 be 3b 39 25 c9 3b 4f c6 34 3b 59 aa 99 39
       0.0058043795 0.0061384705 0.0027584021 0.00029309353
000020 d7 bf 02 39 fa 32 5a 39 62 c1 90 38 9b 45 3a 37
       0.00012469232 0.0002080909 6.9024754e-05 1.110267e-05
000030 55 13 67 b8 53 2f e8 b9 1a 03 6f ba 69 1b ad ba
       -5.5092696e-05 -0.00044285748 -0.00091175886 -0.0013207021
000040 94 88 e2 ba 9b 00 c7 ba 79 63 47 ba 08 f6 bf b8
       -0.0017283135 -0.0015182676 -0.000760607 -9.1534166e-05
000050 b5 df d5 b5 ea f5 1a b6 4a f4 af b6 d9 a0 a0 b6
       -1.5934844e-06 -2.309093e-06 -5.2438454e-06 -4.7870967e-06
000060 00 00 00 00 00 00 00 00 00 00 00 00 00 00 00 00
       0.0 0.0 0.0 0.0
000070 00 00 00 00 00 00 00 00 00 00 00 00 00 00 00 00
       0.0 0.0 0.0 0.0
000080 00 00 00 00 00 00 00 00 00 00 00 00 00 00 00 00
       0.0 0.0 0.0 0.0
000090 f9 a0 bf b8 62 4d 40 ba 9d 48 dc ba bf 62 1c bb
       -9.137573e-05 -0.00073357497 -0.0016806308 -0.0023862568
0000a0 01 d4 fd ba a1 aa 44 bb 8c 4b 1d bb 76 09 6d ba
       -0.001936555 -0.003000893 -0.0024001328 -0.00090422423
0000b0 0a 2c b3 b9 00 ec 14 b9 80 c5 45 b8 2f 58 85 b7
       -0.00034174352 -0.00014202297 -4.7152396e-05 -1.58959e-05
0000c0 6d 89 88 b5 3a 03 59 b3 25 b7 bf 38 b4 50 36 3a
       -1.0172786e-06 -5.0527184e-08 9.141703e-05 0.0006954775
0000d0 b6 a5 a6 3a 53 5d d2 3a 77 b6 99 3a f2 4e f0 39
       0.0012714181 0.0016049541 0.0011727352 0.00045835186
0000e0 63 b7 8c 39 c9 a5 1f 39 4a 4f 57 38 6e 36 5a 37
       0.00026839515 0.00015225181 5.133384e-05 1.30064855e-05
0000f0 ed 6a 76 b7 7e 3d f1 b8 9d 75 a8 b9 c7 e6 68 ba
       -1.4687638e-05 -0.00011503229 -0.00032131086 -0.0008884486
000100 c5 0b e0 ba 48 75 ce ba b3 52 dc b9 cf b7 8b b8
       -0.0017093351 -0.0015751505 -0.00042023286 -6.6622735e-05
000110 34 34 88 b8 87 3e 34 b8 5e 59 fa b6 2f 22 6f 35
       -6.494709e-05 -4.2973577e-05 -7.4609843e-06 8.908418e-07
000120 9a d4 a4 36 25 24 59 39 38 71 5f 3a ba e8 b1 39
       4.912331e-06 0.00020708198 0.0008523646 0.00033933466
000130 63 eb 58 37 68 9b 48 33 82 ae 8b 2d cc ae 11 26
       1.29294085e-05 4.670747e-08 1.5879967e-11 5.0543875e-16
000140 fc c4 e2 1c 68 65 03 12 8a 5f 62 05 05 00 00 00
       1.5006345e-21 4.1461304e-28 1.0644017e-35 7e-45
000150 a1 0b 1d 38 2f 84 97 39 71 32 37 3a c4 df c6 3a
       3.7442547e-05 0.0002889945 0.00069884124 0.0015172889
000160 ef 04 30 3b 27 d9 36 3b a4 14 a7 3a 83 47 d1 39
       0.002685841 0.002790043 0.001274724 0.00039916867
000170 d5 f0 4f 39 5b 77 ec 38 24 c3 0a 38 a4 70 22 37
       0.00019830775 0.000112755886 3.3083503e-05 9.682179e-06
000180 cd db c5 b2 49 5d 67 b6 fc ed 5f b8 32 e0 dd b8
       -2.3033772e-08 -3.4475981e-06 -5.3388983e-05 -0.00010579861
000190 31 57 26 b8 4a 13 2c b6 20 15 a3 b2 d3 87 70 ad
       -3.9658687e-05 -2.5641225e-06 -1.8985304e-08 -1.36725796e-11
0001a0 50 83 85 a6 b7 46 de 9d 12 f7 8a 93 1d d5 82 87
       -9.264321e-16 -5.883603e-21 -3.5079728e-27 -1.9685483e-34
0001b0 00 00 00 00 00 00 00 00 00 00 00 00 00 00 00 00
       0.0 0.0 0.0 0.0
0001c0 00 00 00 00 00 00 00 00 00 00 00 00 00 00 00 00
       0.0 0.0 0.0 0.0
0001d0 00 00 00 00 00 00 00 00 00 00 00 00 00 00 00 00
       0.0 0.0 0.0 0.0
0001e0 6f 3d b2 b8 31 90 15 ba 19 3b 32 ba aa 20 a9 ba
       -8.499144e-05 -0.0005705385 -0.00067989674 -0.0012903411
0001f0 43 a6 0d bb cf 1b b5 bb 69 5f 8c bb ef a0 b6 ba
       -0.0021613992 -0.0055269967 -0.0042838347 -0.001393346
000200 33 fa 28 b9 b3 af 65 b6 7b e5 0e b6 ab fa b7 b6
       -0.00016114935 -3.422593e-06 -2.1293224e-06 -5.4830066e-06
000210 89 c9 59 13 1a 20 dc 1d a3 95 a8 26 a0 98 c5 2d
       2.7488615e-27 5.8266707e-21 1.1697901e-15 2.2464086e-11
000220 dc 89 34 33 04 96 05 37 e4 f3 2e 39 4d 48 ff 39
       4.20349e-08 7.962346e-06 0.0001668479 0.00048691258
000230 e0 3f b4 39 9f 32 d7 38 5f 87 02 37 50 9a ab 33
       0.00034379866 0.00010261428 7.780122e-06 7.990877e-08

exp_avg_sq f4 [12, 12]
000000 99 d8 45 2e ed 57 6f 34 57 d5 b2 37 d3 da 6f 39
       4.498499e-11 2.2290597e-07 2.1318598e-05 0.00022874335
000010 b8 50 16 3a 48 3e f3 39 27 d6 cd 38 84 d1 c1 35
       0.0005734074 0.00046394975 9.815051e-05 1.4440598e-06
000020 39 ee 4f 35 a7 48 66 36 12 3a ca 35 1d b4 fd 34
       7.746017e-07 3.431496e-06 1.5067073e-06 4.7255972e-07
000030 f8 07 19 33 e0 9e 03 36 74 10 83 37 f0 db ef 38
       3.5630336e-08 1.9612999e-06 1.5624079e-05 0.000114373746
000040 6a 0f 0c 39 70 02 7e 38 55 06 49 37 1a 03 4b 34
       0.00013357183 6.056059e-05 1.1982008e-05 1.8906977e-07
000050 69 70 8d 2e 9b 42 75 32 2d 18 80 33 6a 01 08 33
       6.431906e-11 1.4276021e-08 5.964862e-08 3.1666254e-08
000060 00 00 00 00 00 00 00 00 00 00 00 00 00 00 00 00
       0.0 0.0 0.0 0.0
000070 00 00 00 00 00 00 00 00 00 00 00 00 00 00 00 00
       0.0 0.0 0.0 0.0
000080 00 00 00 00 00 00 00 00 00 00 00 00 00 00 00 00
       0.0 0.0 0.0 0.0
000090 03 c3 2a 34 77 6a fd 36 0e 4a 37 38 4f fa 48 39
       1.5903429e-07 7.5523817e-06 4.369957e-05 0.00019166734
0000a0 f6 b6 10 39 0e 20 41 39 32 fa d1 38 95 f9 9e 37
       0.00013801068 0.00018417856 0.00010012499 1.8951288e-05
0000b0 65 03 ea 36 c8 cf d2 35 b5 9f 9f 34 1a 9f b7 33
       6.9741386e-06 1.5706692e-06 2.973226e-07 8.550542e-08
0000c0 9e e8 3b 31 44 a7 28 33 7b 07 d2 35 18 e1 a8 38
       2.734431e-09 3.9267675e-08 1.5648396e-06 8.052791e-05
0000d0 d1 15 6f 39 3a b0 72 39 a4 c5 10 39 88 f3 e2 37
       0.00022800943 0.00023144568 0.00013806537 2.7054703e-05
0000e0 5e c8 62 36 1d 36 e0 34 f4 dc 94 33 9d 70 c6 32
       3.3793253e-06 4.1762624e-07 6.931978e-08 2.3101444e-08
0000f0 9c 45 1b 34 6c a9 3e 37 65 ca 6d 38 e4 6e f1 38
       1.4460824e-07 1.1364329e-05 5.6693698e-05 0.000115124305
000100 29 83 99 39 cf 14 f2 39 93 2f b8 39 54 82 a2 38
       0.00029280156 0.0004617334 0.0003513066 7.7490375e-05
000110 75 33 a1 36 6f d6 14 34 8e bd 23 33 88 82 6e 32
       4.8041643e-06 1.3861585e-07 3.8123794e-08 1.3883103e-08
000120 f3 59 5c 30 af 18 e4 35 1c 50 0b 38 4c a6 c5 36
       8.016336e-10 1.6994508e-06 3.321479e-05 5.890417e-06
000130 79 d4 20 32 01 c4 14 2a 54 6f 9b 1e 5a a3 b6 0f
       9.361536e-09 1.3213043e-13 1.6457308e-20 1.8009506e-29
000140 2f e1 01 00 00 00 00 00 00 00 00 00 00 00 00 00
       1.72616e-40 0.0 0.0 0.0
000150 70 85 31 32 91 91 2e 35 a7 85 e1 36 79 c9 9b 37
       1.0333096e-08 6.503188e-07 6.7210817e-06 1.8571258e-05
000160 3d 4e 3c 38 18 20 b5 38 3b 73 d4 38 69 f9 4e 38
       4.4895558e-05 8.6367305e-05 0.00010130411 4.934651e-05
000170 ef 5e eb 36 ba 7f ac 34 83 34 f6 32 9a 1a 53 32
       7.0145975e-06 3.213043e-07 2.8662049e-08 1.2287865e-08
000180 8a ed e6 29 e9 c3 9b 31 f8 a4 50 36 f9 a3 31 38
       1.0255258e-13 4.533366e-09 3.109044e-06 4.23528e-05
000190 20 c7 37 37 a2 9a 2f 33 97 ff f7 2b 12 0d 66 21
       1.0954012e-05 4.0886e-08 1.7621346e-12 7.794433e-19
0001a0 e1 fe 83 13 d9 10 35 02 00 00 00 00 00 00 00 00
       3.332038e-27 1.3302615e-37 0.0 0.0
0001b0 00 00 00 00 00 00 00 00 00 00 00 00 00 00 00 00
       0.0 0.0 0.0 0.0
0001c0 00 00 00 00 00 00 00 00 00 00 00 00 00 00 00 00
       0.0 0.0 0.0 0.0
0001d0 00 00 00 00 00 00 00 00 00 00 00 00 00 00 00 00
       0.0 0.0 0.0 0.0
0001e0 c7 ba cd 34 41 50 91 37 61 9d a6 37 a9 04 83 38
       3.8320124e-07 1.7322718e-05 1.9862027e-05 6.247435e-05
0001f0 54 91 3b 39 d2 37 9d 3a b2 d0 3d 3a 7b b4 8a 38
       0.00017887849 0.0011994785 0.0007240876 6.61397e-05
000200 d1 12 76 35 8c 1e f6 33 9a 38 3d 34 60 50 cf 33
       9.166952e-07 1.1460824e-07 1.7622588e-07 9.653809e-08
000210 00 00 00 00 14 80 53 00 06 9a c6 11 49 bc 0b 20
       0.0 7.668292e-39 3.1333816e-28 1.1836056e-19
000220 56 ba f1 2a bb 40 8a 32 b4 68 f5 36 42 ee 7c 38
       4.2939496e-13 1.609475e-08 7.313758e-06 6.0303377e-05
000230 31 d0 c6 37 a5 0b a0 35 48 e2 88 31 cd 74 a7 2a
       2.3700386e-05 1.1924318e-06 3.983846e-09 2.9746206e-13

exp_avg f4 [24, 12]
000000 51 fd 92 3a a8 e8 96 39 00 00 00 00 f8 4e da 39
       0.001121441 0.00028783572 0.0 0.00041639036
000010 f9 a6 56 39 4b b7 06 3a 99 5d 25 36 69 1f 80 39
       0.00020470833 0.0005139007 2.4641397e-06 0.00024437465
000020 49 2d 5a 38 00 00 00 00 31 87 6b 39 01 8d d2 b7
       5.2017425e-05 0.0 0.00022461709 -2.509961e-05
000030 1a b0 85 39 27 e1 b7 38 00 00 00 00 b1 16 f9 39
       0.00025498943 8.768058e-05 0.0 0.00047509887
000040 f4 b9 2f 39 6e 3a cc 39 74 12 b4 34 e9 24 fd 38
       0.00016758573 0.00038953446 3.354104e-07 0.00012070855
000050 14 76 02 37 00 00 00 00 86 d3 33 39 b1 8e e1 37
       7.776096e-06 0.0 0.00017149569 2.6888536e-05
000060 e5 1e 2c b9 e6 96 47 b8 00 00 00 00 39 69 21 b9
       -0.00016414707 -4.7585832e-05 0.0 -0.00015393355
000070 d1 fc 90 b8 93 77 29 b9 27 0a 90 b5 1e 88 91 b8
       -6.913546e-05 -0.00016161641 -1.0731791e-06 -6.9394926e-05
000080 93 d6 9c b6 00 00 00 00 88 4b 6e b8 63 6d 1d b7
       -4.674142e-06 0.0 -5.6813966e-05 -9.383398e-06
000090 9e 7b bd 3a b0 44 f7 39 00 00 00 00 ce d0 0e 3b
       0.0014456396 0.00047162687 0.0 0.0021791938
0000a0 66 31 68 3a 89 b4 fc 3a ed 79 98 36 31 fd 36 3a
       0.00088574586 0.0019279878 4.544147e-06 0.00069804775
0000b0 d8 7c 6b 38 00 00 00 00 7d a0 55 3a 5d 8e 18 39
       5.6144636e-05 0.0 0.000814922 0.00014548884
0000c0 8a fc 03 3b b8 ff b8 39 00 00 00 00 d0 f9 12 3a
       0.0020139539 0.0003528574 0.0 0.0005606683
0000d0 1a fb f4 39 30 c3 66 3a c7 07 a4 35 0d a1 e5 39
       0.00046726392 0.0008802889 1.2221216e-06 0.00043798276
0000e0 a6 9f 89 38 00 00 00 00 d6 5b be 39 d7 70 89 b7
       6.562406e-05 0.0 0.00036308047 -1.6384218e-05
0000f0 a2 db b9 b9 6c 72 b7 b8 00 00 00 00 f8 c5 d4 b9
       -0.0003544959 -8.747433e-05 0.0 -0.0004058329
000100 b4 18 3f b9 a1 c1 ca b9 86 6b 3b b5 63 55 2e b9
       -0.00018224382 -0.00038672707 -6.9819396e-07 -0.00016625742
000110 6e 36 cf b6 00 00 00 00 a1 d7 22 b9 fc bd cf b7
       -6.175417e-06 0.0 -0.00015529852 -2.4764791e-05
000120 a9 f8 73 bb 21 81 95 ba 00 00 00 00 96 ca 82 bb
       -0.003722707 -0.0011406281 0.0 -0.0039914353
000130 c9 23 e2 ba e7 33 79 bb 8d 19 26 b7 93 c6 c3 ba
       -0.0017253096 -0.003802532 -9.90032e-06 -0.0014936499
000140 5e 2c 1c b9 00 00 00 00 e3 e1 cd ba 64 f8 63 b9
       -0.00014893847 0.0 -0.0015707578 -0.0002174094
000150 36 06 68 bb 82 f9 67 ba 00 00 00 00 2f 52 cf ba
       -0.0035404093 -0.000884913 0.0 -0.0015817339
000160 f8 d7 84 ba 05 2a 07 bb 2e de 1e b7 f3 bc 81 ba
       -0.0010135164 -0.002062441 -9.469264e-06 -0.000989823
000170 cf d4 0c b9 00 00 00 00 e1 34 19 ba 9f 71 2e b8
       -0.00013430718 0.0 -0.00058443664 -4.159065e-05
000180 a0 ba c4 ba 21 cb c2 b9 00 00 00 00 3b be 4e ba
       -0.0015009232 -0.00037153906 0.0 -0.0007886623
000190 d0 68 fc b9 10 34 7d ba 77 e1 80 b6 fe 78 fb b9
       -0.00048143277 -0.0009658942 -3.840945e-06 -0.00047964597
0001a0 26 16 66 b8 00 00 00 00 1b 98 8e b9 ef 83 01 b8
       -5.48569e-05 0.0 -0.00027197678 -3.087887e-05
0001b0 ee 82 0a 39 a4 f2 2a 39 00 00 00 00 51 43 c8 39
       0.0001320948 0.00016302854 0.0 0.00038197127
0001c0 3f 5b a5 38 92 d5 93 39 91 3f 27 36 63 03 cc 38
       7.884809e-05 0.00028197147 2.492194e-06 9.728109e-05
0001d0 fc da a1 37 00 00 00 00 56 ce ac 38 b2 db 88 37
       1.9294668e-05 0.0 8.240032e-05 1.6314767e-05
0001e0 e8 12 99 bb 61 84 b0 ba 00 00 00 00 d7 d4 59 bb
       -0.0046714433 -0.0013467186 0.0 -0.0033238435
0001f0 58 58 d4 ba 2f 93 69 bb 00 a8 45 b7 68 79 c2 ba
       -0.0016200645 -0.0035640707 -1.1781231e-05 -0.0014837207
000200 02 e9 6c b9 00 00 00 00 9d 63 af ba 38 0f 09 b9
       -0.00022593516 0.0 -0.0013381128 -0.00013071008
000210 dc b3 fa 3b b2 14 08 3b 00 00 00 00 c4 9c aa 3b
       0.0076508354 0.0020764288 0.0 0.005206676
000220 0b 60 26 3b ec f4 b7 3b 30 c7 5e 37 74 ce 25 3b
       0.0025386836 0.0056139138 1.3278608e-05 0.0025300058
000230 ad 47 b4 39 00 00 00 00 23 bd 05 3b 3b 21 3e 39
       0.00034385678 0.0 0.0020406924 0.00018132191
000240 05 57 cb 3b 78 bf e5 3a 00 00 00 00 8b f1 ad 3b
       0.006205442 0.0017528376 0.0 0.005308335
000250 91 3a 28 3b 0b aa b3 3b 6b 1d 88 37 ba d7 1b 3b
       0.0025669674 0.005482917 1.6226162e-05 0.0023779706
000260 04 f8 85 39 00 00 00 00 16 bf fb 3a 3c eb 9b 39
       0.00025552523 0.0 0.0019206728 0.00029739167
000270 91 a8 a3 38 a9 c6 88 b6 00 00 00 00 dd 38 03 ba
       7.8038436e-05 -4.076243e-06 0.0 -0.00050057267
000280 c6 94 12 b9 3d 01 b1 b9 2a 4d 7b 33 d1 eb ba b8
       -0.00013979067 -0.00033760993 5.8510672e-08 -8.9130954e-05
000290 ae d5 2a 37 00 00 00 00 11 f4 67 b9 69 1e 25 b8
       1.0182541e-05 0.0 -0.00022120799 -3.9367387e-05
0002a0 8a 26 b5 3a b9 65 da 39 00 00 00 00 94 8b b4 3a
       0.001382069 0.0004165599 0.0 0.0013774508
0002b0 03 a0 39 3a d0 61 c1 3a f5 5f 85 36 6b 38 29 3a
       0.00070810335 0.0014753882 3.9748797e-06 0.00064552453
0002c0 7d 1e 64 38 00 00 00 00 22 cd e6 39 87 ee e3 38
       5.438783e-05 0.0 0.00044021854 0.00010868633
0002d0 90 6b f0 ba 6b 93 e3 b9 00 00 00 00 d6 cc 09 ba
       -0.0018342603 -0.0004340665 0.0 -0.0005256658
0002e0 68 e5 f1 b9 c0 5b 69 ba 18 c2 20 b6 06 52 00 ba
       -0.00046138023 -0.00089019164 -2.3954835e-06 -0.0004895035
0002f0 0e cd dc b8 00 00 00 00 0f 62 37 b9 c9 b7 69 b7
       -0.00010528612 0.0 -0.0001748877 -1.3930673e-05
000300 99 47 9d 3a 25 d2 76 39 00 00 00 00 b1 bc 25 3a
       0.0011999487 0.00023538673 0.0 0.00063223677
000310 1a a8 c6 39 35 44 44 3a 02 ea 5b 35 98 99 ad 39
       0.00037890748 0.000748697 8.1924384e-07 0.00033111568
000320 92 a4 ad 37 00 00 00 00 8c 26 98 39 8c de 8d 37
       2.0699841e-05 0.0 0.0002902042 1.6912141e-05
000330 97 e2 1e 3c 54 66 14 3b 00 00 00 00 cc 1e 83 3b
       0.009697578 0.0022644 0.0 0.004001474
000340 d1 14 28 3b a0 20 ad 3b 1b fb 9d 37 ab a5 2a 3b
       0.0025647173 0.00528343 1.8832789e-05 0.0026038687
000350 3f 81 bb 39 00 00 00 00 81 86 de 3a 71 1c 08 38
       0.00035763715 0.0 0.0016977341 3.2451415e-05
000360 b0 d4 76 ba a1 7e 86 b9 00 00 00 00 21 c7 d4 b9
       -0.0009415848 -0.00025652818 0.0 -0.00040584154
000370 9d 45 14 b9 e0 21 eb b9 28 fc e1 b5 af 46 6d b9
       -0.00014140313 -0.00044847932 -1.6837193e-06 -0.00022628413
000380 70 e3 67 b8 00 00 00 00 70 72 85 b9 b9 7a 03 38
       -5.528651e-05 0.0 -0.00025453 3.134713e-05
000390 0f 92 96 3b 14 4f 9b 3a 00 00 00 00 6c 85 2f 3b
       0.0045950483 0.0011849129 0.0 0.0026782406
0003a0 7f 84 bd 3a 29 34 49 3b 84 09 e8 36 e6 54 b3 3a
       0.0014459043 0.0030701256 6.9152466e-06 0.0013681918
0003b0 40 b1 53 39 00 00 00 00 8d 60 91 3a a4 81 af 38
       0.00020188559 0.0 0.0011091396 8.368798e-05
0003c0 7d d2 5d 3b 73 25 3b 3a 00 00 00 00 d8 df 8f 39
       0.0033847385 0.0007139064 0.0 0.00027441862
0003d0 78 0b 0b 3a 66 4f 8c 3a a6 46 c7 36 b9 6a 36 3a
       0.0005304138 0.0010704815 5.9388867e-06 0.0006958652
0003e0 69 64 1a 39 00 00 00 00 47 9f 8a 39 03 fc b8 b8
       0.0001472399 0.0 0.00026440082 -8.8207446e-05
0003f0 34 4d a8 ba 50 b6 b9 b9 00 00 00 00 ad f9 69 ba
       -0.0012840391 -0.00035421783 0.0 -0.0008925449

exp_avg_sq f4 [24, 12]
000000 8a e0 c9 38 91 2a ee 36 00 00 00 00 f1 d7 fd 37
       9.6262505e-05 7.097908e-06 0.0 3.0260506e-05
000010 8f 95 c8 36 13 73 12 38 33 06 44 30 01 76 ee 36
       5.9778754e-06 3.4916284e-05 7.1313194e-10 7.10669e-06
000020 fa b3 58 34 00 00 00 00 db d2 c4 36 36 2c 3f 32
       2.0182043e-07 0.0 5.865802e-06 1.1127716e-08
000030 82 e7 00 38 32 08 90 36 00 00 00 00 8c 4e 68 37
       3.0733187e-05 4.2924885e-06 0.0 1.3846566e-05
000040 6f 69 84 35 25 31 33 37 aa e7 39 30 67 21 c8 35
       9.865452e-07 1.0680674e-05 6.763182e-10 1.4910883e-06
000050 8e cc 3d 34 00 00 00 00 70 79 fc 35 00 3d 1a 33
       1.7676413e-07 0.0 1.8810806e-06 3.59114e-08
000060 2c 5b 3c 37 6e e0 4a 35 00 00 00 00 f1 4b ef 36
       1.1226901e-05 7.557745e-07 0.0 7.131596e-06
000070 1a 07 e0 35 00 a7 07 37 f7 3e 4c 2f ff fd df 35
       1.6691367e-06 8.08551e-06 1.8576062e-10 1.6688717e-06
000080 eb ce 87 32 00 00 00 00 ba 32 7c 35 a9 11 82 32
       1.5810164e-08 0.0 9.395113e-07 1.5142023e-08
000090 fe c5 a7 39 6f 52 ea 37 00 00 00 00 0b 0c 81 39
       0.00032000238 2.793336e-05 0.0 0.0002461377
0000a0 ee e4 8f 38 04 ec 93 39 e5 0b 87 31 9f ac 7a 38
       6.861413e-05 0.0002821387 3.9303694e-09 5.976541e-05
0000b0 a2 e4 8b 35 00 00 00 00 26 42 c6 37 dd 9d ce 35
       1.0422848e-06 0.0 2.3634242e-05 1.539414e-06
0000c0 22 af 60 38 38 88 0e 37 00 00 00 00 b1 11 9a 38
       5.3568867e-05 8.4955755e-06 0.0 7.3465875e-05
0000d0 cc e4 b1 36 e4 37 37 38 f5 98 4f 30 a4 81 b4 36
       5.3016465e-06 4.3682652e-05 7.5523526e-10 5.37951e-06
0000e0 ff 23 8a 34 00 00 00 00 1c 75 2f 37 74 40 26 33
       2.5730694e-07 0.0 1.04580795e-05 3.8708507e-08
0000f0 d3 a6 c7 36 9b fd c7 34 00 00 00 00 f5 75 e1 35
       5.950083e-06 3.725116e-07 0.0 1.6798136e-06
000100 69 f0 f3 34 0e e1 f6 35 f5 9a a7 2f d6 0d 04 35
       4.5437199e-07 1.8393928e-06 3.0487227e-10 4.9193966e-07
000110 b3 33 55 32 00 00 00 00 98 c7 41 34 aa 47 a4 31
       1.2409987e-08 0.0 1.8047137e-07 4.7811755e-09
000120 11 84 96 3a de 92 c1 38 00 00 00 00 d7 d8 53 3a
       0.0011483451 9.230313e-05 0.0 0.0008081323
000130 f9 2b 79 39 ee 8f 7a 3a 84 07 b7 31 65 27 52 39
       0.00023762872 0.00095581904 5.3268554e-09 0.00020041836
000140 23 3f 2b 36 00 00 00 00 4c f2 c7 38 ee 77 a0 36
       2.5517736e-06 0.0 9.534191e-05 4.7823332e-06
000150 65 2e 02 3a eb 51 f1 37 00 00 00 00 12 6b 3f 38
       0.000496602 2.8767585e-05 0.0 4.5637666e-05
000160 f0 61 06 38 cb 16 e6 38 ba 07 0a 32 8d 92 25 38
       3.20393e-05 0.000109715 8.034414e-09 3.947555e-05
000170 86 03 ea 35 00 00 00 00 e8 d9 d8 36 1b eb 1c 34
       1.7435384e-06 0.0 6.4626693e-06 1.4614163e-07
000180 66 51 67 38 f4 8d 60 36 00 00 00 00 e5 8c 2f 37
       5.51505e-05 3.3461229e-06 0.0 1.0463617e-05
000190 9b 67 f5 35 33 42 11 37 b2 a0 cc 2f 14 96 25 36
       1.8284076e-06 8.658087e-06 3.7221565e-10 2.4674273e-06
0001a0 ac 57 66 34 00 00 00 00 2d 8f 06 36 40 a4 c8 33
       2.1452314e-07 0.0 2.0050895e-06 9.343103e-08
0001b0 1d d6 8a 39 c2 fc 03 38 00 00 00 00 20 db 57 39
       0.00026480938 3.1468233e-05 0.0 0.00020585628
0001c0 d2 de 00 38 fc b4 41 39 40 1b 53 30 36 1f ec 37
       3.0725096e-05 0.00018473336 7.680008e-10 2.8147926e-05
0001d0 a3 a6 99 35 00 00 00 00 2b 9a f9 37 90 61 6f 34
       1.1447886e-06 0.0 2.9754903e-05 2.2294103e-07
0001e0 16 a8 00 3c 26 25 1c 3a 00 00 00 00 7c 2f 69 3b
       0.007852575 0.0005956463 0.0 0.0035581281
0001f0 66 95 47 3a 70 02 81 3b 64 d5 4f 33 cd 25 44 3a
       0.00076135097 0.003937058 4.839002e-08 0.00074824394
000200 e0 bc a2 37 00 00 00 00 74 0b 16 3a 88 40 3d 36
       1.9399857e-05 0.0 0.00057237525 2.8200757e-06
000210 75 bf 2c 3a ca 35 30 38 00 00 00 00 90 1d 4e 39
       0.00065898086 4.2011765e-05 0.0 0.00019656704
000220 fd d8 53 38 2b d2 7c 39 2c c3 7e 31 f0 b5 72 38
       5.0508406e-05 0.00024110886 3.7072807e-09 5.786674e-05
000230 af 93 c9 35 00 00 00 00 ae 30 00 38 85 5b d3 34
       1.5018649e-06 0.0 3.0562915e-05 3.9368402e-07
000240 c3 77 23 3a 43 da 2d 38 00 00 00 00 32 4c 67 39
       0.00062358024 4.1449686e-05 0.0 0.00022058262
000250 4f 22 af 38 d8 fa 9f 39 3e 1b e5 31 25 07 b1 38
       8.351041e-05 0.00030513736 6.6678743e-09 8.4413485e-05
000260 11 84 0b 36 00 00 00 00 73 15 00 38 ac 63 be 35
       2.0789487e-06 0.0 3.0537554e-05 1.4185111e-06
000270 e3 c6 b0 36 47 b4 fe 34 00 00 00 00 9d 13 aa 37
       5.268362e-06 4.7442356e-07 0.0 2.0274712e-05
000280 9f 36 7a 36 38 3b 85 37 46 d2 8f 2e c6 d3 19 36
       3.7284697e-06 1.5882411e-05 6.540239e-11 2.2922045e-06
000290 27 0d 49 32 00 00 00 00 cb 13 3f 36 a2 f0 42 34
       1.170273e-08 0.0 2.847274e-06 1.81552e-07
0002a0 6f 77 98 38 d6 c8 bb 36 00 00 00 00 75 14 35 38
       7.270171e-05 5.5964147e-06 0.0 4.3172815e-05
0002b0 65 2f 3b 37 18 7b 45 38 7e 3a 94 30 4b b4 2d 37
       1.11571035e-05 4.70831e-05 1.0785042e-09 1.0353581e-05
0002c0 ee 15 47 34 00 00 00 00 79 2a f7 36 68 3e 80 34
       1.8541297e-07 0.0 7.366118e-06 2.3887264e-07
0002d0 72 29 b0 37 4d 4d 40 36 00 00 00 00 2b 0f f4 38
       2.1000134e-05 2.8655224e-06 0.0 0.00011637652
0002e0 d5 1c 6f 37 fb 08 94 38 eb 0c 7a 2f 08 2b f3 36
       1.4252223e-05 7.058863e-05 2.2741957e-10 7.246974e-06
0002f0 9d 1a 88 33 00 00 00 00 7c 14 51 37 fe 4e 66 35
       6.3378344e-08 0.0 1.246214e-05 8.5796626e-07
000300 fd d9 29 38 f6 60 22 37 00 00 00 00 02 01 14 38
       4.0495757e-05 9.678528e-06 0.0 3.528689e-05
000310 75 ae 16 36 36 b7 bb 37 b5 51 9a 31 ec 2b 5d 36
       2.245329e-06 2.2377451e-05 4.491279e-09 3.2957132e-06
000320 7e cc e9 34 00 00 00 00 4c d9 39 36 2d 84 87 33
       4.354842e-07 0.0 2.7693632e-06 6.31047e-08
000330 95 11 5f 3a 0b a6 6c 38 00 00 00 00 c9 e6 07 3a
       0.0008509395 5.6421424e-05 0.0 0.0005184231
000340 a8 e9 b9 38 db ab d3 39 cd 61 d3 31 36 88 b0 38
       8.865009e-05 0.00040373098 6.152027e-09 8.417705e-05
000350 db 4e db 35 00 00 00 00 de a0 a9 38 3b 6c 84 35
       1.6339721e-06 0.0 8.088512e-05 9.866266e-07
000360 03 e7 2b 39 25 56 91 37 00 00 00 00 10 0f 2c 39
       0.0001639389 1.7325461e-05 0.0 0.0001640881
000370 6e 7c 9a 37 2e 89 04 39 47 48 6c 31 85 1a a8 37
       1.8416173e-05 0.00012639604 3.4383605e-09 2.003951e-05
000380 73 b9 86 34 00 00 00 00 9e 52 eb 37 8f a9 bb 33
       2.5094377e-07 0.0 2.8052655e-05 8.7387086e-08
000390 38 0d de 39 51 4c c8 37 00 00 00 00 1a e0 ed 38
       0.00042352988 2.3877396e-05 0.0 0.00011342783
0003a0 03 ba 42 38 5f ee 36 39 a7 c6 1d 31 20 39 38 38
       4.642644e-05 0.00017445673 2.2959428e-09 4.392222e-05
0003b0 ff 9b 77 35 00 00 00 00 fc cf 90 37 87 d2 d8 34
       9.2241675e-07 0.0 1.7262988e-05 4.0386314e-07
0003c0 ad 5b 1c 3a 58 98 ff 37 00 00 00 00 d9 d2 78 38
       0.00059645885 3.046931e-05 0.0 5.9324175e-05
0003d0 3a 19 c3 37 5e 7b e1 38 f5 5a 41 31 fb 43 03 38
       2.3257558e-05 0.00010751815 2.81369e-09 3.1296146e-05
0003e0 90 23 96 35 00 00 00 00 f8 9c 57 37 a8 65 fe 34
       1.1186221e-06 0.0 1.2851546e-05 4.7385151e-07
0003f0 48 1a 1a 39 99 66 2a 37 00 00 00 00 31 cb 69 39
       0.00014696375 1.01566775e-05 0.0 0.00022296306

exp_avg f4 [12]
000000 cc 32 48 3c 36 7d 8a bb 00 00 00 00 b0 54 0a bc
       0.012219142 -0.004226352 0.0 -0.008443043
000010 32 90 69 3b 36 1c 53 bb 91 7f 64 3a 6c 09 cb 3b
       0.0035638926 -0.003221286 0.00087165186 0.0061961915
000020 b4 45 04 b9 00 00 00 00 b5 73 23 bc 6b 12 34 3a
       -0.00012614467 0.0 -0.009976317 0.00068691996

exp_avg_sq f4 [12]
000000 db 43 15 3b 22 5e 00 3a 00 00 00 00 86 b2 d5 3a
       0.002277604 0.00048968394 0.0 0.0016303814
000010 46 b5 ad 3a e1 d6 47 3b 28 b8 12 38 60 24 15 3a
       0.0013252876 0.0030493068 3.498062e-05 0.0005689319
000020 70 04 5f 38 00 00 00 00 5e 9c 7e 3b 1a 5b da 38
       5.3171476e-05 0.0 0.0038850526 0.00010412019

exp_avg f4 [24]
000000 01 8c 1b 3a 8d 8e 8e 39 8e 29 08 b9 a6 17 b4 3a
       0.0005933643 0.0002719056 -0.00012985451 0.0013739958
000010 f4 82 83 3a ee 4b 99 b9 91 ef 44 bb e9 1e 03 bb
       0.0010033534 -0.00029239006 -0.003005002 -0.0020007438
000020 e4 02 67 ba 05 a6 4a 39 6f 9c 4c bb 21 b1 a1 3b
       -0.00088123814 0.00019326068 -0.0031221171 0.0049344455
000030 9b 3d 91 3b 14 d7 2f b9 5e f4 8f 3a 2f 54 6c ba
       0.004432393 -0.00016769423 0.0010982861 -0.000901523
000040 26 73 3c 3a 27 d2 ae 3b 0f 6a 09 ba b0 a3 38 3b
       0.00071887893 0.0053351107 -0.0005241939 0.0028173737
000050 87 3d c0 3a 06 0f 59 ba d1 17 12 3b 50 f8 50 b7
       0.0014666774 -0.0008280132 0.0022292028 -1.2455581e-05

exp_avg_sq f4 [24]
000000 88 68 0d 38 f4 72 3b 37 46 87 b2 36 6f 61 25 39
       3.3714372e-05 1.1172833e-05 5.3205613e-06 0.00015771923
000010 dc a3 03 38 d3 ee dc 35 0d 6f 17 3a be 24 db 38
       3.138544e-05 1.6460784e-06 0.0005776741 0.000104495775
000020 c8 93 16 37 29 34 0b 39 30 6d 4c 3b 16 05 57 39
       8.975105e-06 0.00013275504 0.003119301 0.00020505892
000030 57 5f 59 39 ee 6a c3 36 4b 01 04 38 6c f9 cc 37
       0.0002073025 5.823901e-06 3.1472457e-05 2.4434841e-05
000040 ec 72 9f 37 dd 54 9f 39 0d 8a c5 38 2f 18 0f 39
       1.9007792e-05 0.0003039007 9.419406e-05 0.00013646552
000050 86 32 0d 39 05 9e dd 38 b7 a7 d4 3a 6b d2 33 37
       0.0001346563 0.000105675346 0.0016224299 1.0718223e-05

exp_avg f4 [12, 12]
000000 e3 2b aa 37 24 7a 71 38 42 00 f9 b9 ab fd 0e ba
       2.0286016e-05 5.757263e-05 -0.00047493173 -0.00054546696
000010 64 a4 dd 3a c1 56 3c 3a 1b b5 36 39 b6 3f ee 36
       0.0016909954 0.0007184558 0.0001742434 7.1003697e-06
000020 97 22 c1 37 36 ce 10 39 6e 9d 00 39 56 60 5e 38
       2.30235e-05 0.0001380973 0.00012265678 5.3018644e-05
000030 36 40 ce 35 bf ff 90 38 d0 78 3b 39 cf af bc ba
       1.5366884e-06 6.9140915e-05 0.00017878716 -0.0014395657
000040 c7 e0 b8 bb 57 5e b3 bb aa 1d 81 bb 74 a4 78 ba
       -0.00564203 -0.0054738927 -0.003940304 -0.00094849546
000050 b4 9f 22 b8 c5 f4 63 b4 6c 1d 10 af 8b cf 14 a8
       -3.8772545e-05 -2.1230069e-07 -1.3107176e-10 -8.260654e-15
000060 6c f0 f6 b8 7a c5 75 ba 07 db 03 bb b3 d8 30 bb
       -0.00011774976 -0.00093754346 -0.0020119564 -0.0026984632
000070 5d ce 3b bb e8 b7 a0 ba 4a fa 54 3a aa 45 1a 3a
       -0.0028656938 -0.001226184 0.0008124454 0.00058850145
000080 b1 aa 4b 39 1c e5 81 39 9a 06 c1 38 ea 20 44 37
       0.00019423176 0.00024775497 9.204187e-05 1.1690174e-05
000090 f3 33 e0 37 28 60 77 39 1e 7a c7 b9 03 a5 89 bb
       2.6727072e-05 0.00023591577 -0.00038047222 -0.004200579
0000a0 86 4d cd bb e1 98 1b bb 75 ef d2 b8 58 3c e0 39
       -0.006265345 -0.0023742246 -0.00010058183 0.0004276957
0000b0 2f e8 ee 39 e3 0c dc 38 4b 0b 85 37 40 67 cf 37
       0.00045567888 0.00010492818 1.5860094e-05 2.4724402e-05
0000c0 00 00 00 00 00 00 00 00 00 00 00 00 00 00 00 00
       0.0 0.0 0.0 0.0
0000d0 00 00 00 00 00 00 00 00 00 00 00 00 00 00 00 00
       0.0 0.0 0.0 0.0
0000e0 00 00 00 00 00 00 00 00 00 00 00 00 00 00 00 00
       0.0 0.0 0.0 0.0
0000f0 00 00 00 00 00 00 00 00 00 00 00 00 00 00 00 00
       0.0 0.0 0.0 0.0
000100 00 00 00 00 00 00 00 00 00 00 00 00 00 00 00 00
       0.0 0.0 0.0 0.0
000110 00 00 00 00 00 00 00 00 00 00 00 00 00 00 00 00
       0.0 0.0 0.0 0.0
000120 4f 69 43 38 c9 b8 61 39 37 c2 63 39 27 2a 5a 39
       4.65897e-05 0.0002152651 0.00021720758 0.00020805803
000130 e7 90 c8 38 89 18 18 3a aa eb c5 39 79 5e c3 b7
       9.563733e-05 0.0005801996 0.00037750351 -2.3289804e-05
000140 b2 8e ba b5 66 3e 17 b7 bd f2 33 b8 c2 aa 8a b8
       -1.389961e-06 -9.01483e-06 -4.2902993e-05 -6.612159e-05
000150 10 c3 af 37 61 16 c1 39 8e fe f1 39 fc 69 72 bb
       2.0952459e-05 0.00036828502 0.0004615676 -0.003698944
000160 11 1e 0f bc 23 84 06 bc 51 e1 52 bb 29 d1 09 ba
       -0.008735196 -0.008210215 -0.0032177756 -0.00052573025
000170 c0 91 a2 39 54 4f 25 39 5e aa 6c 38 6a 96 98 37
       0.0003100764 0.00015765178 5.642545e-05 1.8189854e-05
000180 fb f5 35 af 83 a2 bb b4 7c 35 96 b8 84 25 d2 ba
       -1.6549244e-10 -3.4949707e-07 -7.1625196e-05 -0.0016032909
000190 4e 22 87 bb e8 f6 9f ba f8 10 28 b8 3b 56 9d b7
       -0.0041239625 -0.0012204321 -4.0070125e-05 -1.8756013e-05
0001a0 89 82 21 b9 82 37 44 b9 0a 84 d6 b8 65 10 97 b8
       -0.00015402785 -0.00018712695 -0.000102289094 -7.203295e-05
0001b0 71 fe 3b b7 d0 6d 9b 38 ca d6 8b 3a 5b cc 39 3a
       -1.120531e-05 7.41143e-05 0.001066887 0.0007087641
0001c0 94 4e 8b 38 0e 4e 8a 35 7c 92 00 31 17 4b d5 32
       6.642673e-05 1.0304518e-06 1.8709718e-09 2.483061e-08
0001d0 ac 19 ab 36 bf 1e fc 38 79 0e d1 39 fe 1e a4 39
       5.0991857e-06 0.00012022023 0.0003987437 0.0003130361
0001e0 c3 1f 10 b8 ef f0 94 b9 b9 76 fa b9 86 73 21 39
       -3.4361856e-05 -0.0002840827 -0.0004777217 0.00015397192
0001f0 79 3a 03 3b d3 be da 3b a7 f6 57 3b 00 d8 00 3a
       0.0020023866 0.00667558 0.0032953413 0.0004914999
000200 11 e0 81 38 2f 20 3f 38 0d b2 76 37 28 6e c1 b5
       6.192935e-05 4.5567922e-05 1.4704198e-05 -1.441168e-06
000210 4c 97 34 37 be d2 4c 38 6f 49 ac 37 c7 97 52 35
       1.0764063e-05 4.883366e-05 2.0538193e-05 7.845196e-07
000220 f7 bd cf b6 89 4b 84 b9 9b aa 9c ba ab 81 88 ba
       -6.1911956e-06 -0.0002523328 -0.00119527 -0.0010414621
000230 30 5f 97 b9 1c e6 12 b8 46 5a d6 b8 47 e5 1d b9
       -0.00028871885 -3.502342e-05 -0.0001022113 -0.00015058099

exp_avg_sq f4 [12, 12]
000000 5c 17 94 32 b1 a5 02 35 57 dc b4 37 ae da 88 3a
       1.724009e-08 4.8669887e-07 2.1560276e-05 0.0010441148
000010 68 0f a3 3b ee 0f 70 3b cf 11 f3 38 41 07 83 33
       0.004976202 0.0036630589 0.0001159046 6.101482e-08
000020 6a 9e 7d 31 07 bc 03 34 c8 cb 09 34 a2 3b 5f 33
       3.6906393e-09 1.226873e-07 1.2833254e-07 5.197547e-08
000030 b9 02 ba 2e a6 6b d2 33 b8 42 f9 35 e4 7c b9 38
       8.4587844e-11 9.798468e-08 1.8571363e-06 8.84475e-05
000040 af dd 0f 3a e9 e3 e4 39 31 56 4b 39 e4 9d 06 38
       0.00054880505 0.00043657355 0.00019391697 3.2095137e-05
000050 91 ad c8 33 93 ca 6f 2c 2f 1f c5 21 ef 8f cc 13
       9.344797e-08 3.4076394e-12 1.3357493e-18 5.163877e-27
000060 a1 bb b6 34 44 83 b7 37 d2 62 fb 38 fa 65 b1 39
       3.403666e-07 2.1876425e-05 0.000119870194 0.0003383605
000070 26 65 e3 3a 83 4d 80 3b 2e 54 33 3b b5 67 73 39
       0.001734887 0.00391549 0.0027363407 0.0002321292
000080 30 d4 d9 37 7a 18 cb 36 c1 51 38 35 0c 57 87 32
       2.5967223e-05 6.052721e-06 6.866431e-07 1.5755653e-08
000090 2c 9c 3f 34 89 45 95 36 ed 43 ab 37 14 3e 80 39
       1.7845076e-07 4.448641e-06 2.0416419e-05 0.00024460314
0000a0 87 e6 32 3a f9 75 1c 39 56 e7 cd 34 65 3a 50 37
       0.00068245124 0.00014921268 3.8352545e-07 1.2411362e-05
0000b0 52 b1 6b 37 5c bf ef 35 17 f7 e1 33 8d 6b 4a 33
       1.4048377e-05 1.786258e-06 1.0522324e-07 4.7129607e-08
0000c0 00 00 00 00 00 00 00 00 00 00 00 00 00 00 00 00
       0.0 0.0 0.0 0.0
0000d0 00 00 00 00 00 00 00 00 00 00 00 00 00 00 00 00
       0.0 0.0 0.0 0.0
0000e0 00 00 00 00 00 00 00 00 00 00 00 00 00 00 00 00
       0.0 0.0 0.0 0.0
0000f0 00 00 00 00 00 00 00 00 00 00 00 00 00 00 00 00
       0.0 0.0 0.0 0.0
000100 00 00 00 00 00 00 00 00 00 00 00 00 00 00 00 00
       0.0 0.0 0.0 0.0
000110 00 00 00 00 00 00 00 00 00 00 00 00 00 00 00 00
       0.0 0.0 0.0 0.0
000120 b9 f2 66 32 fa 0a 97 34 c0 7d ef 36 73 b7 8a 37
       1.3442951e-08 2.8133928e-07 7.1373943e-06 1.6536307e-05
000130 5a 6c d8 35 7d 79 0d 39 ce f2 3b 3a dd e0 d1 38
       1.6124789e-06 0.00013492066 0.00071696646 0.00010007781
000140 6d f3 a1 34 da 85 15 33 1e b3 c1 34 fd 37 ae 34
       3.0165702e-07 3.4813503e-08 3.6079376e-07 3.2450762e-07
000150 33 56 0e 35 00 8e a4 37 83 2e a6 38 b3 03 ae 39
       5.302456e-07 1.9616447e-05 7.92416e-05 0.00033190622
000160 43 d3 f5 3a a1 d7 84 3b 60 72 d2 3a b7 da b9 38
       0.0018754978 0.0040540253 0.0016055815 8.862226e-05
000170 9b 8c f6 35 04 d2 02 35 2c 10 86 34 c1 9b 19 34
       1.836935e-06 4.8734387e-07 2.4971212e-07 1.4305898e-07
000180 c5 b0 ca 30 1e 85 9a 33 8c 91 76 33 70 3f 14 37
       1.4747675e-09 7.195398e-08 5.7408712e-08 8.836258e-06
000190 b4 9f 84 38 f1 bd 40 37 44 ee bb 32 9f b5 c5 32
       6.3239975e-05 1.1488316e-05 2.1878016e-08 2.301641e-08
0001a0 30 d8 b7 35 76 1d 7d 36 67 b9 01 36 9e 21 1f 35
       1.3697481e-06 3.7717086e-06 1.9330416e-06 5.9281035e-07
0001b0 0c ee 4f 34 2c ad a6 38 f8 cc b0 3a 8c 01 01 3a
       1.9364978e-07 7.9477526e-05 0.001348882 0.000492119
0001c0 84 98 5b 36 e2 f7 dd 2f c7 a6 51 26 91 b7 8a 2a
       3.2722319e-06 4.0375797e-10 7.2737467e-16 2.46411e-13
0001d0 ce 46 ca 31 26 25 f6 35 bb 98 52 37 8e c3 da 36
       5.8870233e-09 1.833924e-06 1.2552536e-05 6.519672e-06
0001e0 c7 c6 a2 33 ca 32 d4 36 8f 34 62 38 d3 a8 48 39
       7.57987e-08 6.324005e-06 5.3931548e-05 0.00019136378
0001f0 d1 ad 31 3a fc d8 63 3a 61 f6 d2 38 0f be 01 38
       0.0006777915 0.0008691696 0.00010059472 3.0933003e-05
000200 96 49 f9 36 10 16 5b 35 be bb f1 32 58 c4 9e 2f
       7.429345e-06 8.161596e-07 2.8141468e-08 2.8879543e-10
000210 3c f3 b5 32 1f ba cc 34 ff 50 7d 33 25 02 b9 2e
       2.1181783e-08 3.8133382e-07 5.897982e-08 8.413207e-11
000220 1e 56 3b 31 29 4d df 36 f1 c6 9a 39 a4 89 f6 39
       2.7261033e-09 6.6549005e-06 0.00029521392 0.00047023327
000230 58 a9 34 38 4e 92 c7 34 f3 ff fa 35 e7 4f 24 36
       4.3073058e-05 3.717309e-07 1.8700943e-06 2.4484414e-06

exp_avg f4 [24, 12]
000000 0a a3 0c ba 11 d3 11 ba d8 52 f2 ba 54 6c 44 ba
       -0.0005364871 -0.00055627624 -0.0018487824 -0.0007492949
000010 00 00 00 00 00 00 00 00 03 17 95 b8 6c b7 e2 ba
       0.0 0.0 -7.10916e-05 -0.0017297096
000020 08 41 bc b8 c9 dc 81 b8 59 7e db ba f0 fe a4 b8
       -8.9766516e-05 -6.192324e-05 -0.0016746029 -7.867615e-05
000030 80 b7 d9 b9 c2 f8 bc b9 4b 16 ef ba 6d fb e6 b9
       -0.00041526183 -0.00036043493 -0.0018240897 -0.00044056345
000040 00 00 00 00 00 00 00 00 3e aa 26 b8 eb f2 b3 ba
       0.0 0.0 -3.9736035e-05 -0.0013729011
000050 f9 75 cb b7 8b 1a 1c b9 82 d8 07 bb fc 28 23 b7
       -2.4254421e-05 -0.00014887207 -0.0020728414 -9.7250995e-06
000060 f4 9a de b7 21 40 29 b8 af 38 d3 b8 5c 19 88 37
       -2.6536618e-05 -4.0352465e-05 -0.00010071822 1.6224272e-05
000070 00 00 00 00 00 00 00 00 35 6a 3c b7 66 ac 07 b9
       0.0 0.0 -1.12304015e-05 -0.00012938827
000080 54 f1 dc 35 80 83 b5 b7 5d 36 5f b9 99 d6 62 b6
       1.6461513e-06 -2.1638116e-05 -0.00021287189 -3.3801537e-06
000090 f3 c1 42 ba 69 98 31 ba 72 f4 25 bb dc 2c af ba
       -0.00074294134 -0.0006774725 -0.0025322703 -0.001336481
0000a0 00 00 00 00 00 00 00 00 54 95 0a b9 2f 66 39 bb
       0.0 0.0 -0.00013216335 -0.0028289666
0000b0 90 4c 02 b9 59 ae e0 38 22 05 2c bb 69 21 2f b9
       -0.00012426288 0.00010713627 -0.0026248177 -0.00016701747
0000c0 e9 08 7c ba b4 11 52 ba 02 5e 8b bb 42 6c 8b ba
       -0.0009614365 -0.0008013502 -0.00425315 -0.0010637122
0000d0 00 00 00 00 00 00 00 00 b6 e5 a0 b8 2d 78 3d bb
       0.0 0.0 -7.6721815e-05 -0.0028910742
0000e0 a0 37 d6 b8 50 e8 37 b9 47 64 9d bb 17 1e 93 37
       -0.00010214676 -0.00017538783 -0.0048032138 1.7537777e-05
0000f0 bd 4a 15 39 34 9e 5c 39 5e 44 29 3a 52 bb ad 38
       0.0001423759 0.0002103977 0.0006457026 8.284174e-05
000100 00 00 00 00 00 00 00 00 55 b2 9b 36 c8 67 c4 39
       0.0 0.0 4.6401206e-06 0.00037461356
000110 ce 30 06 38 13 3f 38 38 89 8c 29 3a 76 58 83 b7
       3.1993543e-05 4.392776e-05 0.000646778 -1.565761e-05
000120 ea 12 aa ba ea ca d5 ba 1c 7f 9c bb 7d a1 3b bb
       -0.0012975608 -0.0016311083 -0.004775895 -0.002863019
000130 00 00 00 00 00 00 00 00 21 83 b1 b9 e9 bd bf bb
       0.0 0.0 -0.0003385777 -0.0058514965
000140 71 7e f4 b9 7c 3b 9a b9 dc 56 9f bb 0a b2 9d b9
       -0.00046633513 -0.00029417488 -0.0048626494 -0.00030078023
000150 ba 32 9e b9 3e 1c 33 ba ac db 04 ba 6e f3 0c ba
       -0.00030173903 -0.00068325165 -0.0005068134 -0.000537685
000160 00 00 00 00 00 00 00 00 6e 33 50 b9 49 f2 07 bb
       0.0 0.0 -0.00019855585 -0.0020743778
000170 9d 80 2a b9 8a 7b 26 39 1a f3 11 ba 6e ea 73 b9
       -0.00016260376 0.00015877016 -0.0005567536 -0.00023261618
000180 81 f0 97 39 78 2e bd 38 c2 32 d0 3a e6 fe 01 3a
       0.00028980154 9.020878e-05 0.0015884268 0.00049589423
000190 00 00 00 00 00 00 00 00 06 cf 38 b8 22 d9 3f 3a
       0.0 0.0 -4.4061824e-05 0.0007318427
0001a0 41 6b af 37 52 9a 19 39 98 6f de 3a 44 cb 70 b8
       2.091157e-05 0.00014648706 0.0016970513 -5.7409765e-05
0001b0 79 23 d8 b9 94 29 05 ba c5 49 e9 ba a7 b8 1d ba
       -0.0004122516 -0.0005079743 -0.0017798474 -0.000601659
0001c0 00 00 00 00 00 00 00 00 d4 f4 ce b8 30 37 02 bb
       0.0 0.0 -9.868448e-05 -0.001986932
0001d0 13 f0 b1 b8 36 06 d1 b8 a1 20 03 bb 05 12 ad b8
       -8.484735e-05 -9.9670535e-05 -0.0020008462 -8.252639e-05
0001e0 d8 0e 07 bb 47 2c 1c bb d9 44 e9 bb ab 16 58 bb
       -0.0020608213 -0.0023830102 -0.007118803 -0.0032972496
0001f0 00 00 00 00 00 00 00 00 8b 7b 0c ba 80 c4 04 bc
       0.0 0.0 -0.00053589855 -0.00810349
000200 ea f0 04 ba c6 c2 b3 38 14 f7 e5 bb 53 ae f3 b9
       -0.00050712994 8.5716645e-05 -0.0070179794 -0.00046478453
000210 61 e4 ec 39 98 d8 d6 39 8e b4 66 3b 97 fa c4 39
       0.00045183583 0.00040978636 0.0035202834 0.00037570737
000220 00 00 00 00 00 00 00 00 1e 11 f3 38 d7 8c 68 3b
       0.0 0.0 0.00011590331 0.0035484338
000230 88 5b 51 b8 fd 08 1e b9 02 f3 97 3b dd a8 9f 37
       -4.9914728e-05 -0.00015071403 0.004637123 1.903291e-05
000240 98 a6 a5 3a b8 92 88 3a 48 d2 9e 3b 46 12 78 3a
       0.001263815 0.0010419702 0.004846845 0.0009463172
000250 00 00 00 00 00 00 00 00 bc 40 2d b8 d3 43 05 3b
       0.0 0.0 -4.1306703e-05 0.0020334616
000260 1e 7b 2f 38 f1 1a 8b 39 48 98 99 3b e3 20 10 b9
       4.1837913e-05 0.0002653222 0.004687343 -0.00013745161
000270 74 2a 68 37 82 01 da 38 0d c9 a8 35 24 3b b4 b8
       1.3838162e-05 0.00010395331 1.2575489e-06 -8.594085e-05
000280 00 00 00 00 00 00 00 00 7d 4b 0c 38 af 10 0f 39
       0.0 0.0 3.3448905e-05 0.00013643758
000290 e1 b6 31 b6 41 b9 96 b5 bc 3d 30 38 ef 51 54 37
       -2.6481505e-06 -1.1229787e-06 4.2019165e-05 1.2655261e-05
0002a0 e4 1e 09 bb 1c 4a c8 ba 16 e0 14 bc 48 2d 9c ba
       -0.0020922953 -0.0015280875 -0.009086629 -0.001191535
0002b0 00 00 00 00 00 00 00 00 06 e3 c9 b6 03 e7 8c bb
       0.0 0.0 -6.016696e-06 -0.0042999997
0002c0 fa 85 0f 39 1a 8b f8 b9 e7 f0 13 bc 78 9f 66 39
       0.00013687453 -0.00047405885 -0.009029604 0.00021993916
0002d0 2a df 7d 39 8f fd df 39 b3 da af 3a 1b 32 04 3a
       0.00024211095 0.0004272279 0.0013416618 0.00050428667
0002e0 00 00 00 00 00 00 00 00 14 85 11 39 48 53 ee 3a
       0.0 0.0 0.00013877853 0.0018182779
0002f0 9e 26 ba 37 e3 96 30 39 24 b0 be 3a b8 93 83 38
       2.219091e-05 0.00016840878 0.0014548344 6.2740815e-05
000300 ce f7 03 ba 21 c6 1c ba a1 1d 04 bb ef 8a 66 ba
       -0.0005034179 -0.0005980451 -0.0020159262 -0.00087945064
000310 00 00 00 00 00 00 00 00 cd 95 15 b9 0d 3f 04 bb
       0.0 0.0 -0.00014265552 -0.0020179183
000320 10 15 0f b9 85 bd f5 b8 7b fb 07 bb 95 d1 8e b8
       -0.00013645389 -0.00011717811 -0.002074926 -6.810125e-05
000330 1b f8 18 ba 95 30 6c ba b1 38 69 bb f5 7e 05 bb
       -0.00058353104 -0.0009009925 -0.003558677 -0.0020369862
000340 00 00 00 00 00 00 00 00 f8 38 95 b9 85 c8 ae bb
       0.0 0.0 -0.0002846194 -0.0053339624
000350 7b 42 90 b9 b3 ec 0f ba dd 74 92 bb 70 68 6e b9
       -0.00027515352 -0.0005490288 -0.0044694976 -0.00022736355
000360 46 8d e5 b8 ad 4d b6 39 d3 9d b0 3a 27 9e 96 39
       -0.00010945885 0.00034771618 0.001347477 0.00028728062
000370 00 00 00 00 00 00 00 00 4f 8f d1 39 64 36 97 3b
       0.0 0.0 0.0003997036 0.004614638
000380 fa 28 ab 38 15 11 4f b9 96 6b 5d 3b 35 0b 99 39
       8.161548e-05 -0.00019747422 0.003378605 0.00029190784
000390 30 57 39 3a d0 a7 06 3a ee aa 09 3b 04 8e 18 3a
       0.0007070182 0.00051367003 0.0021006423 0.0005819502
0003a0 00 00 00 00 00 00 00 00 71 a2 6d 38 5c 05 cd 3a
       0.0 0.0 5.665649e-05 0.0015641856
0003b0 3b db d2 b7 c4 ec 3d b9 f5 f8 ff 3a d6 4f 78 38
       -2.5136038e-05 -0.00018112647 0.0019529151 5.920216e-05
0003c0 e6 f4 25 b9 69 55 83 39 0c 77 1c 39 94 3e 25 39
       -0.00015826858 0.00025049903 0.00014921668 0.00015758938
0003d0 00 00 00 00 00 00 00 00 5b 83 40 39 cd 78 13 3b
       0.0 0.0 0.0001835948 0.0022502423
0003e0 c9 8f 29 38 61 0f 0c 39 13 99 4c 3a 47 fb 44 39
       4.042665e-05 0.0001335717 0.0007804792 0.00018785625
0003f0 08 8c f2 ba f1 db c0 ba 17 be ca bb 9e ad 11 bb
       -0.0018504867 -0.0014713985 -0.0061872113 -0.0022228728
