Model/epoch100/Model_all/modelall.ckpt (torch_old, 286074 bytes, 464 tensors)

exp_avg f4 [72]
-0.0026180998 0.0020177008 -0.007768889 -0.007816701 -0.0013062664 -0.0034151431 0.0008901427 -0.005045896
-0.010617258 0.00024460247 -0.0173598 0.011537628 -0.0059394534 -0.013884416 0.009271773 0.00936902
0.0039315238 0.00082763564 -0.0017904002 0.00037703794 -0.0018090098 -0.0026965118 -5.7323366e-05 0.003362512
-0.0077159316 -0.0062836013 0.0058003445 -0.014508656 -0.0047325348 -0.00015074949 -0.008352666 -0.0030511413
0.0015360786 -0.0033940326 -0.0044182185 -1.5997413e-05 0.0049377233 0.0033532218 0.00017053299 0.010983544
0.0032807875 0.00247425 0.00048064944 -0.008611451 -0.006727443 0.011695387 0.003115151 0.0018631867
-0.003438025 -0.0043841824 0.0011917081 0.0038026962 -0.0042407173 0.0030011367 0.0065984996 0.004992457
-0.007858377 -0.004047396 -0.0017858215 0.002835614 0.0024129483 -0.0018920564 -0.0013437837 -0.0033221343
-0.0011883382 -0.0035033487 -0.0091268 -0.0025786192 0.0070345104 -0.0029926396 -0.012103294 0.009611476
00000000: 6d94 2bbb 673b 043b 2a92 febb 9f11 00bc
00000010: 0737 abba 98d0 5fbb 7758 693a 0b58 a5bb
00000020: 02f4 2dbc fd3d 8039 2436 8ebc 5208 3d3c
00000030: bf9f c2bb 767b 63bc a2e8 173c 8580 193c
00000040: 03d4 803b b0f5 583a ddab eaba 2dad c539
00000050: 4c1c edba f6b7 30bb 7f6e 70b8 975d 5c3b
00000060: edd5 fcbb abe6 cdbb d110 be3b b7b5 6dbc
00000070: 6113 9bbb 8212 1eb9 9fd9 08bc a8f5 47bb
00000080: 3f56 c93a 6b6e 5ebb b4c6 90bb 2f32 86b7
00000090: a0cc a13b bac1 5b3b 1ad1 3239 53f4 333c
000000a0: 7b02 573b 0727 223b adff fb39 0b17 0dbc
000000b0: e271 dcbb 029e 3f3c 9027 4c3b 2c36 f43a
000000c0: 7d50 61bb 30a9 8fbb 1733 9c3a a836 793b
000000d0: b7f5 8abb b8ae 443b 3a38 d83b c497 a33b
000000e0: 6cc0 00bc 05a0 84bb 3a12 eaba b5d5 393b
000000f0: 8e22 1e3b e1fe f7ba e621 b0ba 2ab8 59bb
00000100: 03c2 9bba 7098 65bb 9388 15bc 0dfe 28bb
00000110: c081 e63b 2920 44bb e54c 46bc 7479 1d3c

exp_avg_sq f4 [72]
0.0010501172 0.00023172666 0.0008567061 0.0017280874 0.00052241643 0.0007972479 0.0029429921 0.0032105446
0.0012369748 0.0042554145 0.0060855527 0.0029416336 0.0028931207 0.003137629 0.0020153387 0.0012849604
0.00022449571 0.00015788205 0.0005835522 0.00024884805 0.00022634311 0.00071894244 0.00011174907 0.0013691726
0.0038287186 0.0013569813 0.0011595846 0.0024426503 0.0004606382 0.0004918404 0.00094008946 0.00046300603
0.0003742854 0.0013867337 0.00082420674 0.0005482477 0.0002710067 0.00020740325 5.665455e-05 0.0025792366
0.0013716667 0.0008438269 0.003278427 0.0044882926 0.0015234131 0.009718611 0.0015739467 0.0020384951
0.0006322532 0.00026017232 0.00027914668 0.0016910958 4.5650537e-05 0.0006709278 0.0028611994 0.003337436
0.0028422242 0.00025433733 7.444028e-05 0.00021991835 0.0002953878 8.719544e-05 0.00021539508 0.0003185658
0.00010242324 0.00022836169 0.000814908 0.00017040814 0.0022412501 0.013021247 0.0035953068 0.004750851
00000000: 16a4 893a a7fb 7239 9394 603a fe80 e23a
00000010: c6f2 083a 67fe 503a 37df 403b 0068 523b
00000020: fd21 a23a 0171 8b3b 5169 c73b 6cc8 403b
00000030: 839a 3d3b aea0 4d3b c613 043b 1e6c a83a
00000040: 9c66 6b39 248d 2539 86f9 183a d277 8239
00000050: 8456 6d39 6977 3c3a d35a ea38 cf75 b33a
00000060: 3deb 7a3b bddc b13a 34fd 973a df14 203b
00000070: d081 f139 daee 003a 5670 763a 9ebf f239
00000080: bc3b c439 10c3 b53a 940f 583a 48b8 0f3a
00000090: e715 8e39 637a 5939 5ca0 6d38 6908 293b
000000a0: 7fc9 b33a 4434 5d3a e1da 563b 8712 933b
000000b0: 43ad c73a cf3a 1f3c e34c ce3a 4698 053b
000000c0: cbbd 253a bd67 8839 6f5a 9239 c2a7 dd3a
000000d0: e478 3f38 34e1 2f3a f682 3b3b e2b8 5a3b
000000e0: 9c44 3a3b 9458 8539 d21c 9c38 e299 6639
000000f0: 48de 9a39 b2dc b638 addb 6139 2e05 a739
00000100: 0fcc d638 6074 6f39 8d9f 553a 96af 3239
00000110: f0e1 123b 1257 553c 3d9f 6b3b 07ad 9b3b

exp_avg f4 [24]
-0.00836929 -0.012538111 -0.014773012 -0.0055775717 -0.010552091 0.014128181 -0.003222371 0.00060867786
-0.008199183 -0.019391937 -0.009867729 -0.007828249 0.008461479 0.016738582 -0.014858249 0.016673727
-0.006630497 0.0025631157 0.003732582 -0.0029976056 -0.00082289067 -0.008013821 -0.004670907 -0.0054844506
00000000: 591f 09bc a66c 4dbc 810a 72bc 10c4 b6bb
00000010: ade2 2cbc e379 673c 6a2e 53bb ae8f 1f3a
00000020: de55 06bc d7db 9ebc 41ac 21bc 0e42 00bc
00000030: 04a2 0a3c 5a1f 893c 0370 73bc 5797 883c
00000040: a444 d9bb f2f9 273b 569e 743b 7a73 44bb
00000050: 42b7 57ba 674c 03bc 680e 99bb e8b6 b3bb

exp_avg_sq f4 [24]
0.004448253 0.0053911 0.008219355 0.005012904 0.00918379 0.0028427402 0.002424681 0.0041647763
0.010275397 0.006302912 0.0029112636 0.004518651 0.0009511401 0.0075223316 0.021700896 0.026025485
0.0016737521 0.0044192006 0.0058786054 0.00093230023 0.00111709 0.0011334852 0.0013741275 0.050937302
00000000: a7c2 913b d3a7 b03b 79aa 063c 4943 a43b
00000010: 9b77 163c 444d 3a3b 66e7 1e3b ad78 883b
00000020: 245a 283c a888 ce3b e6ca 3e3b 3111 943b
00000030: ee55 793a e47d f63b 14c6 b13c 6633 d53c
00000040: cd61 db3a f1ce 903b 51a1 c03b 9c65 743a
00000050: 526b 923a 7491 943a 111c b43a a2a3 503d

exp_avg f4 [12, 12]
1.2201437e-07 1.0276675e-05 -4.9703413e-05 -0.0018532698 -0.0031716828 -0.0018049012 -0.00023163413 4.489764e-05
-4.776509e-05 -0.0001059772 4.8623486e-05 9.250117e-05 4.305782e-05 0.00022181342 0.0004098032 0.0016420983
0.0011233907 9.795317e-05 1.0014556e-06 8.2109136e-07 3.4422104e-05 0.00016013297 8.697058e-05 8.251693e-06
0.0 0.0 0.0 0.0 0.0 0.0 0.0 0.0
0.0 0.0 0.0 0.0 6.470972e-05 0.00025756797 0.00052442914 0.002008605
0.0012382487 -0.0009142856 -0.0033214428 -0.0027751722 -0.001481399 -0.00039245992 -2.0951064e-05 -6.117926e-06
-3.517793e-09 -2.5621525e-06 -0.000196749 -0.001801202 -0.0023828824 -0.0005723721 -5.294397e-05 -0.00015851935
8.517674e-05 7.514899e-05 -2.2508311e-05 4.164784e-06 2.1611515e-05 0.0003353503 0.001322453 0.0015460819
0.00014192192 -0.0009850884 -0.00017611163 0.00091191183 0.0008702735 0.00026365707 2.121526e-05 -3.8572425e-06
0.00010892663 0.0012155331 0.0031361284 0.001350337 6.151657e-05 2.6657463e-07 1.0820917e-10 4.1043596e-15
1.4533783e-20 4.801424e-27 1.4788633e-34 3.71e-43 6.5011845e-05 0.00043246936 0.0016190335 0.0037911036
0.003909766 0.0011185025 2.6218482e-05 -0.00019513495 -0.00025369687 -0.00010058101 -4.7672e-05 -9.2740834e-07
2.1471038e-07 3.4241046e-05 0.00064641173 0.0019021528 0.001245293 0.00015063086 2.3320988e-06 3.8983026e-09
6.5310805e-13 1.0540142e-17 1.5999084e-23 2.2456232e-30 0.0 0.0 0.0 0.0
0.0 0.0 0.0 0.0 0.0 0.0 0.0 0.0
-3.6103967e-05 -0.00016827634 -7.0394206e-05 4.2147376e-06 0.00018007081 0.0006661488 0.001100147 0.000554039
6.303122e-05 1.6944166e-06 1.1695987e-08 6.7512747e-07 -4.0335238e-26 -6.4743924e-20 -9.825778e-15 -1.4193868e-10
-1.9702533e-07 -2.6538813e-05 -0.0003386016 -0.00019774615 0.0005378492 0.00017367126 -9.7460696e-05 -2.9887866e-05
00000000: 0e03 0334 fc69 2c37 a278 50b8 6ae9 f2ba
00000010: 02dc 4fbb 6f92 ecba d0e2 72b9 7950 3c38
00000020: 6057 48b8 1340 deb8 12f1 4b38 30fd c138
00000030: fb98 3438 9696 6839 dbda d639 ad3b d73a
00000040: bd3e 933a 356c cd38 c169 8635 f868 5c35
00000050: 7460 1038 5ee9 2739 f963 b638 c070 0a37
00000060: 0000 0000 0000 0000 0000 0000 0000 0000
00000070: 0000 0000 0000 0000 0000 0000 0000 0000
00000080: 0000 0000 0000 0000 0000 0000 0000 0000
00000090: c4b4 8738 300a 8739 d879 093a cda2 033b
000000a0: bb4c a23a abac 6fba 90ac 59bb aadf 35bb
000000b0: 812b c2ba 14c3 cdb9 11c0 afb7 9648 cdb6
000000c0: abbd 71b1 72f1 2bb6 684e 4eb9 4f16 ecba
000000d0: 222a 1cbb 3e0b 16ba 2810 5eb8 3738 26b9
000000e0: eaa0 b238 4f99 9d38 3bd0 bcb7 39bf 8b36
000000f0: 604a b537 f5d1 af39 2956 ad3a e6a5 ca3a
00000100: e0d0 1439 151e 81ba 9baa 38b9 5e0d 6f3a
00000110: 1123 643a 743b 8a39 6df7 b137 766d 81b6
00000120: 8a6f e438 8652 9f3a 8187 4d3b cbfd b03a
00000130: 7502 8138 bd1d 8f34 59f4 ed2e 09e0 9327
00000140: 8844 891e 3934 be13 1c93 4407 0901 0000
00000150: f856 8838 0ebd e239 c035 d43a 2a74 783b
00000160: 7f1d 803b b79a 923a c3ef db37 249d 4cb9
00000170: 9e02 85b9 05ef d2b8 6cf3 47b8 04f3 78b5
00000180: 248b 6634 0b9e 0f38 f573 293a a851 f93a
00000190: 1939 a33a aaf2 1d39 2781 1c36 d5f1 8531
000001a0: 65d5 372b 6a6e 4223 d0bb 9a19 c52f 360e
000001b0: 0000 0000 0000 0000 0000 0000 0000 0000
000001c0: 0000 0000 0000 0000 0000 0000 0000 0000
000001d0: 0000 0000 0000 0000 0000 0000 0000 0000
000001e0: 576e 17b8 5673 30b9 9aa0 93b8 526c 8d36
000001f0: 64d1 3c39 7da0 2e3a cf32 903a ee3c 113a
00000200: a12f 8438 b66b e335 7fef 4832 683a 3535
00000210: fdba 4795 4ddf 989f 6701 31a8 3010 1caf
00000220: e98d 53b4 ab9f deb7 5686 b1b9 145a 4fb9
00000230: 73fe 0c3a 861b 3639 d063 ccb8 b4b7 fab7

exp_avg_sq f4 [12, 12]
8.169954e-12 6.691242e-08 8.552922e-06 0.00010215103 0.00031202965 0.00046665393 0.00013492527 1.4497268e-06
2.630326e-07 2.0048885e-06 1.1831827e-06 4.0913096e-07 1.0843157e-07 9.612242e-06 4.9538903e-05 8.648816e-05
3.1368167e-05 2.4242925e-07 2.4603394e-11 4.0688213e-11 3.36198e-08 4.2195038e-07 2.3270006e-07 6.189372e-08
0.0 0.0 0.0 0.0 0.0 0.0 0.0 0.0
0.0 0.0 0.0 0.0 1.5501072e-07 8.448969e-06 4.8400194e-05 0.00017103677
6.020757e-05 4.5457906e-05 0.00022244365 0.00021577103 5.82172e-05 3.6724384e-06 1.2668133e-08 6.8779276e-09
1.4828263e-12 8.356186e-11 3.2978616e-07 3.0563104e-05 0.00012764841 8.744605e-05 2.2449789e-05 2.9339759e-05
8.232679e-06 1.2838224e-06 1.3603088e-07 2.4177355e-08 4.2815273e-08 1.7957249e-06 1.7824492e-05 4.0076557e-05
0.00012680383 0.00020183 8.878671e-05 4.7216217e-05 1.9719393e-05 3.2394505e-06 4.0404115e-07 2.3045448e-08
9.9149545e-08 1.2217386e-05 7.4813215e-05 1.2626016e-05 2.4515481e-08 4.394636e-13 6.9988585e-20 9.810434e-29
1.20497e-39 0.0 0.0 0.0 2.2262218e-07 1.40122875e-05 8.933909e-05 0.000337931
0.0003855451 2.6455566e-05 9.8281404e-08 1.6153024e-06 2.9992166e-06 7.707922e-07 8.720184e-08 2.459047e-08
5.3429033e-13 1.0545291e-08 3.7766092e-06 5.6509707e-05 4.5370565e-05 8.64986e-07 2.4288224e-10 7.929093e-16
2.6466266e-23 8.445802e-33 0.0 0.0 0.0 0.0 0.0 0.0
0.0 0.0 0.0 0.0 0.0 0.0 0.0 0.0
1.6339534e-07 4.1600288e-06 9.510344e-07 2.1028991e-07 5.628851e-05 0.00040710613 0.00019342189 4.6565598e-05
1.8547678e-06 1.5201415e-09 5.700442e-14 1.1628508e-10 0.0 4.2331528e-38 1.063803e-27 2.4617482e-19
5.4401893e-13 1.2351684e-08 3.4594252e-06 2.1964983e-05 1.6172356e-05 3.4441262e-06 3.1464305e-07 7.593039e-09
00000000: 34ba 0f2d 7eb1 8f33 857e 0f37 eb39 d638
00000010: e997 a339 3ba9 f439 ba7a 0d39 3c94 c235
00000020: ed36 8d34 b98b 0636 d9cd 9e35 88a6 db34
00000030: e3da e833 4444 2137 fec7 4f38 fa60 b538
00000040: 5091 0338 3927 8234 eb69 d82d dbf2 322e
00000050: 5c65 1033 6b88 e234 1bdc 7934 6fea 8433
00000060: 0000 0000 0000 0000 0000 0000 0000 0000
00000070: 0000 0000 0000 0000 0000 0000 0000 0000
00000080: 0000 0000 0000 0000 0000 0000 0000 0000
00000090: 0671 2634 0cc0 0d37 5001 4b38 5558 3339
000000a0: 6387 7c38 0eaa 3e38 c33f 6939 9840 6239
000000b0: 3e2e 7438 0374 7636 0aa3 5932 e452 ec31
000000c0: 73b0 d02b 25c1 b72e 770d b134 e230 0038
000000d0: 5cd9 0539 3e63 b738 8e52 bc37 a71e f637
000000e0: 161f 0a37 cd4f ac35 e20f 1234 91ae cf32
000000f0: e4e3 3733 a304 f135 ce85 9537 e017 2838
00000100: a5f6 0439 54a2 5339 0133 ba38 070a 4638
00000110: 136b a537 5665 5936 feea d834 7af5 c532
00000120: 0aec d433 46f9 4c37 0ae5 9c38 53d4 5337
00000130: 1d96 d232 6165 f72a 8141 a51f 5bb9 f810
00000140: f71e 0d00 0000 0000 0000 0000 0000 0000
00000150: eb09 6f34 5116 6b37 8f5b bb38 552c b139
00000160: fd22 ca39 e5ec dd37 c60e d333 5ecd d835
00000170: 2646 4936 70e8 4e35 b843 bb33 043b d332
00000180: ad63 162b ae2a 3532 a771 7d36 d604 6d38
00000190: 464c 3e38 6331 6835 a386 852f 618a 6426
000001a0: 4df7 ff19 9669 2f0a 0000 0000 0000 0000
000001b0: 0000 0000 0000 0000 0000 0000 0000 0000
000001c0: 0000 0000 0000 0000 0000 0000 0000 0000
000001d0: 0000 0000 0000 0000 0000 0000 0000 0000
000001e0: c571 2f34 6096 8b36 964a 7f35 0dcc 6134
000001f0: 5417 6c38 dc70 d539 4bd1 4a39 6e4f 4338
00000200: 56f1 f835 39ed d030 d05c 8029 aeb6 ff2e
00000210: 0000 0000 8a79 6601 fa90 a812 e350 9120
00000220: b220 192b 4833 5432 7928 6836 7141 b837
00000230: dfa9 8737 a321 6736 36ec a834 8a72 0232

exp_avg f4 [24, 12]
0.0014554943 0.0002272889 0.0 -0.00013631233 0.00028603632 0.0005005707 5.2455875e-06 0.00035440802
0.00031653632 0.0 -0.00020151243 5.6969166e-05 0.0010865814 0.0007350419 0.0 0.0004528559
9.471177e-05 0.00066812075 2.8189448e-05 0.00028768653 0.000535983 0.0 -0.00019956591 5.788512e-06
-0.0002417535 -0.00017676468 0.0 -0.00019693909 -7.5523574e-05 -0.00023131215 8.782249e-08 -3.9681196e-05
-2.3634931e-05 0.0 -1.7963877e-05 -2.780228e-05 -0.0017201834 -0.0007427224 0.0 -0.0017477542
-0.0007211585 -0.0021700154 -1.68007e-05 -0.0004998444 -0.00029464872 0.0 -0.0006395617 -0.00030850118
0.0015095968 0.00051071204 0.0 0.0007329985 3.949053e-05 0.00094620616 1.479743e-05 3.9205337e-05
0.00035891813 0.0 0.00054985343 -0.00010660661 0.00013584521 -9.788007e-05 0.0 5.5489483e-05
0.0001507506 0.00023334027 3.9529014e-06 0.00011590892 2.5754545e-05 0.0 3.0727573e-05 8.3657156e-05
-0.00042102634 0.0009886607 0.0 0.006775058 0.00219315 0.0065475455 2.0504096e-05 0.0015405143
-0.0002578907 0.0 0.0031592387 0.0015915129 -0.001603277 -0.00034182242 0.0 0.0013750608
0.0004522282 0.0010296461 -1.4601984e-05 0.00020151191 -0.00040382126 0.0 0.00070653885 0.0004643055
-0.0023954865 -0.00082959404 0.0 0.0009946075 -5.0689927e-05 0.00011932755 -9.886007e-06 -0.0003717859
-0.0007310449 0.0 0.0010771726 0.00014928555 -0.0026637989 -0.0010774063 0.0 -0.0012575588
-0.0003983114 -0.0018174507 -1.9838504e-05 -0.00033122045 -0.0006473778 0.0 -0.00048004312 -4.2962838e-05
-0.0014441827 0.00035028212 0.0 0.0015540514 -0.0005296165 -0.00019015344 -2.5114864e-06 -0.0006811005
-0.00029294667 0.0 0.0012468572 -0.00048611395 0.0012347725 -0.00010412874 0.0 -0.0006145907
-0.00011672047 3.5937952e-05 -1.0198784e-05 3.7159818e-05 8.9483634e-05 0.0 0.00011438957 -0.00012771413
-0.0021812748 -0.0005089304 0.0 -0.0018773966 -0.0010205731 -0.0026819464 -1.2877285e-05 -0.00097530254
-0.00049002416 0.0 -0.0008057937 -0.0005016422 -0.0011845585 -0.00019315947 0.0 0.0011667316
0.0004354272 0.00092486833 -1.5109513e-05 0.00022415885 -0.00032318078 0.0 0.0005406782 0.0004032
3.109093e-06 -4.0549454e-05 0.0 0.0008025481 -0.00027871292 0.0003368302 -1.6244604e-07 -0.00038784
-0.00017740882 0.0 0.0010693897 -0.00021801569 -0.0012411689 -0.00054131926 0.0 -0.0015657294
-0.0005703773 -0.0018625713 -5.7714055e-07 -0.00042467198 -0.00024572594 0.0 -0.0006943046 -0.00029542673
0.00035760016 0.00039169285 0.0 0.0004350355 -0.00011501327 0.00035053195 9.835039e-07 -3.975773e-05
0.00013452086 0.0 0.00022710992 -0.00012526177 -0.0041941423 0.0006040619 0.0 0.0035543656
-6.392483e-05 0.0012560482 2.129271e-05 -0.00040540996 -0.00058116193 0.0 0.0015784638 0.00026960848
0.00032806533 0.00013451709 0.0 2.3442179e-05 -0.00015646443 -0.00011740084 -7.4693194e-06 -0.00016368079
4.103789e-05 0.0 0.00010605159 -0.00016005813 6.315697e-05 -6.46777e-06 0.0 -0.0004298266
-0.00011432411 -6.437596e-05 1.7283832e-05 -4.7823964e-05 -6.9470356e-05 0.0 -3.389144e-05 -9.174028e-06
0.00062716374 0.00012827055 0.0 -0.00058485375 0.00019343814 -0.00015575692 1.46781e-05 0.00037940094
0.00011156211 0.0 -0.0005143213 1.4621416e-05 0.0012470806 0.00064890936 0.0 4.8395665e-05
00000000: 49c6 be3a 6654 6e39 0000 0000 10ef 0eb9
00000010: 25f7 9539 bb38 033a 4103 b036 d7cf b939
00000020: c9f4 a539 0000 0000 154d 53b9 2df2 6e38
00000030: 9f6b 8e3a d4af 403a 0000 0000 4a6d ed39
00000040: ff9f c638 d324 2f3a 6178 ec37 a2d4 9639
00000050: 3681 0c3a 0000 0000 9142 51b9 f13a c236
00000060: 367f 7db9 e859 39b9 0000 0000 6f81 4eb9
00000070: 6962 9eb8 628c 72b9 ed98 bc33 5c6f 26b8
00000080: a143 c6b7 0000 0000 22b1 96b7 f138 e9b7
00000090: c777 e1ba 42b3 42ba 0000 0000 e614 e5ba
000000a0: 210c 3dba d136 0ebb 3bef 8cb7 fd07 03ba
000000b0: 157b 9ab9 0000 0000 42a8 27ba 54be a1b9
000000c0: aadd c53a 4ee1 053a 0000 0000 b226 403a
000000d0: a2a2 2538 d20a 783a 7a42 7837 6970 2438
000000e0: 2d2d bc39 0000 0000 0a24 103a fd91 dfb8
000000f0: ac71 0e39 f644 cdb8 0000 0000 61bd 6838
00000100: ce12 1e39 cdac 7439 2aa3 8436 2114 f338
00000110: 770b d837 0000 0000 7be1 0038 1871 af38
00000120: 33bd dcb9 f395 813a 0000 0000 4e01 de3b
00000130: f4ba 0f3b cb8c d63b 3600 ac37 15eb c93a
00000140: 8135 87b9 0000 0000 3b0b 4f3b 509a d03a
00000150: 0d25 d2ba a136 b3b9 0000 0000 623b b43a
00000160: 0b19 ed39 31f5 863a 0bfb 74b7 f14c 5339
00000170: f9b7 d3b9 0000 0000 0537 393a 086e f339
00000180: 98fd 1cbb 1d79 59ba 0000 0000 7d5d 823a
00000190: e59b 54b8 7e3f fa38 14dc 25b7 42ec c2b9
000001a0: 98a3 3fba 0000 0000 ea2f 8d3a 8989 1c39
000001b0: 2193 2ebb c237 8dba 0000 0000 acd4 a4ba
000001c0: 73d4 d0b9 8737 eeba dd6a a6b7 a8a7 adb9
000001d0: cab4 29ba 0000 0000 4cae fbb9 ff32 34b8
000001e0: bb4a bdba 12a6 b739 0000 0000 50b1 cb3a
000001f0: f6d5 0aba ed63 47b9 028b 28b6 e18b 32ba
00000200: a396 99b9 0000 0000 966d a33a 1cdd feb9
00000210: 17d8 a13a b15f dab8 0000 0000 7c1c 21ba
00000220: d3c7 f4b8 15bc 1638 721b 2bb7 0ddc 1b38
00000230: 29a9 bb38 0000 0000 6fe4 ef38 00eb 05b9
00000240: b8f3 0ebb be69 05ba 0000 0000 fa12 f6ba
00000250: c0c4 85ba 98c3 2fbb 850b 58b7 72ab 7fba
00000260: f774 00ba 0000 0000 e63b 53ba a380 03ba
00000270: 3043 9bba da8a 4ab9 0000 0000 04ed 983a
00000280: 0d4a e439 dd72 723a dd7e 7db7 2f0c 6b39
00000290: 9770 a9b9 0000 0000 4dbc 0d3a 9764 d339
000002a0: d0a5 5036 a513 2ab8 0000 0000 1762 523a
000002b0: 3720 92b9 9698 b039 d46c 2eb4 0157 cbb9
000002c0: d106 3ab9 0000 0000 c42a 8c3a 249b 64b9
000002d0: b8ae a2ba 52e7 0dba 0000 0000 2939 cdba
000002e0: 5f85 15ba 8621 f4ba ccec 1ab5 82a6 deb9
000002f0: c7d4 80b9 0000 0000 fe01 36ba 81e3 9ab9
00000300: 487c bb39 205c cd39 0000 0000 7a15 e439
00000310: 4733 f1b8 9ac7 b739 f000 8435 8ac1 26b8
00000320: 2b0e 0d39 0000 0000 5b24 6e39 b358 03b9
00000330: 046f 89bb e859 1e3a 0000 0000 5cf0 683b
00000340: 620f 86b8 fca1 a43a bf9d b237 348d d4b9
00000350: 1e59 18ba 0000 0000 75e4 ce3a 3d5a 8d39
00000360: 2f00 ac39 280d 0d39 0000 0000 b2a5 c437
00000370: 9a10 24b9 1935 f6b8 f7a0 fab6 baa1 2bb9
00000380: 1920 2c38 0000 0000 0468 de38 47d5 27b9
00000390: 2473 8438 b905 d9b6 0000 0000 5a5a e1b9
000003a0: 4ac1 efb8 9501 87b8 bffc 9037 9796 48b8
000003b0: 9db0 91b8 0000 0000 a826 0eb8 26ea 19b7
000003c0: 3f68 243a 5d80 0639 0000 0000 df50 19ba
000003d0: a8d5 4a39 ae52 23b9 f641 7637 55ea c639
000003e0: 74f6 e938 0000 0000 85d3 06ba 814e 7537
000003f0: 1575 a33a 921b 2a3a 0000 0000 73fc 4a38

exp_avg_sq f4 [24, 12]
5.182802e-05 4.432866e-06 0.0 1.3125252e-05 1.6395813e-06 1.915373e-05 1.2012765e-08 1.7230075e-06
1.6435221e-06 0.0 6.7955475e-06 6.4715414e-07 2.0221776e-05 7.943551e-06 0.0 4.315489e-06
1.4957631e-07 7.3381084e-06 1.6457745e-08 8.363952e-07 2.742288e-06 0.0 5.0670735e-07 2.6906092e-08
1.1522526e-06 8.074408e-07 0.0 1.7002686e-06 4.271934e-07 2.312337e-06 5.8388305e-10 3.172211e-07
4.904795e-08 0.0 1.6314567e-07 1.06427855e-07 4.7922327e-05 5.201798e-06 0.0 0.00010097393
1.1626175e-05 9.175177e-05 3.3809224e-09 4.320948e-06 1.373774e-06 0.0 1.5024617e-05 4.815845e-06
4.342924e-05 4.2553847e-06 0.0 3.3728156e-05 6.0751286e-06 4.7275804e-05 2.332798e-09 3.0351703e-06
1.7525564e-06 0.0 1.0140454e-05 1.990105e-06 1.1284624e-05 4.102133e-06 0.0 3.9197225e-06
6.7371525e-07 5.658479e-06 5.46652e-09 2.9033018e-07 3.0951256e-07 0.0 2.6721332e-06 3.7820905e-07
0.0013399298 8.9515284e-05 0.0 0.0009824471 0.0002252411 0.0011620554 7.736355e-08 0.00015294521
4.1990857e-05 0.0 0.00017188105 8.7090455e-05 8.666893e-05 7.2020453e-06 0.0 0.00012066247
1.992584e-05 0.00014173458 1.1169432e-08 9.206156e-06 3.3029964e-06 0.0 2.77559e-05 7.5336743e-06
0.00017273842 1.51031145e-05 0.0 5.2677555e-05 4.039538e-06 7.646351e-05 2.2555671e-08 4.456464e-06
8.146722e-06 0.0 2.5495447e-05 5.061477e-07 8.17851e-05 9.692846e-06 0.0 8.454937e-06
1.3451286e-06 2.4581834e-05 6.455948e-09 1.787034e-06 5.5702144e-06 0.0 2.3184693e-06 8.2598824e-08
0.0006675722 4.0601026e-05 0.0 0.00022320588 2.8854209e-05 0.00032549075 5.1107953e-08 2.5022968e-05
1.9091976e-05 0.0 0.00011156959 1.1916057e-05 0.000632712 4.3540524e-05 0.0 0.0001945518
2.456371e-05 0.00040113868 5.861513e-08 2.039408e-05 1.4468115e-05 0.0 7.845057e-05 2.1570252e-06
0.00042223156 3.7128208e-05 0.0 0.00043716078 8.095144e-05 0.0006557173 3.6925385e-08 5.1202045e-05
1.4595377e-05 0.0 0.000120809156 1.8889015e-05 0.00025398756 1.1192704e-05 0.0 2.7661441e-05
4.59065e-06 2.5687137e-05 2.3628925e-08 2.2513793e-06 9.02555e-06 0.0 4.8420757e-06 4.714377e-06
0.00024317554 1.5421487e-05 0.0 6.087679e-05 3.9265574e-06 9.060514e-05 3.2950176e-08 2.835134e-06
4.840297e-06 0.0 4.3864595e-05 3.0424055e-06 0.00018030113 7.297553e-06 0.0 8.5185224e-05
1.09700195e-05 7.845003e-05 8.086356e-09 5.9883555e-06 5.040133e-06 0.0 1.2757055e-05 5.673559e-06
1.8427221e-05 4.994647e-06 0.0 3.1319567e-05 6.1993937e-06 4.1406016e-05 7.737674e-09 3.152501e-06
1.060361e-06 0.0 5.783619e-06 2.2115432e-06 0.0013966097 5.81509e-05 0.0 0.00046881114
4.364992e-05 0.0005185326 7.036863e-08 3.935868e-05 3.4212797e-05 0.0 0.00013764708 5.7686634e-06
0.00015940506 1.0303108e-05 0.0 3.016826e-05 3.974451e-06 6.1828425e-05 1.7402222e-08 2.7594763e-06
4.3666396e-06 0.0 1.2677005e-05 1.2821281e-06 0.0005786578 4.5910616e-05 0.0 0.00027135306
2.129986e-05 0.00042166907 2.459673e-08 1.1136966e-05 1.5682897e-05 0.0 0.000106539555 1.6761333e-06
0.00047169786 3.2354532e-05 0.0 0.00015330629 1.784623e-05 0.00028164923 3.2787586e-08 1.2986924e-05
1.158536e-05 0.0 6.566122e-05 2.7618105e-06 0.00016968514 1.4347176e-05 0.0 4.1785057e-05
00000000: ea61 5938 07be 9436 0000 0000 8734 5c37
00000010: 960f dc35 52ac a037 b360 4e32 1642 e735
00000020: fd96 dc35 0000 0000 4f05 e436 18b8 2d35
00000030: efa1 a937 4b45 0537 0000 0000 c5cd 9036
00000040: 399b 2034 df39 f636 f75e 8d32 a484 6035
00000050: 2608 3836 0000 0000 aa04 0835 1f1f e732
00000060: 19a7 9a35 e9be 5835 0000 0000 c934 e435
00000070: 0459 e534 a62d 1b36 1e7f 2030 894e aa34
00000080: cba8 5233 0000 0000 242d 2f34 558d e433
00000090: 3500 4938 1b8b ae36 0000 0000 f7c1 d338
000000a0: 0b0e 4337 db6a c038 d155 6831 a9fc 9036
000000b0: 8462 b835 0000 0000 3d12 7c37 cb97 a136
000000c0: cb27 3638 7ac9 8e36 0000 0000 5577 0d38
000000d0: f5d8 cb36 024a 4638 044f 2031 d4af 4b36
000000e0: 6139 eb35 0000 0000 eb20 2a37 be8d 0536
000000f0: 1753 3d37 0ea5 8936 0000 0000 2986 8336
00000100: 5cd9 3435 f7dd bd36 05d4 bb31 adde 9b34
00000110: 152b a634 0000 0000 e652 3336 a80c cb34
00000120: 95a0 af3a 27ba bb38 0000 0000 74c5 803a
00000130: b32e 6c39 1c50 983a 1023 a633 eb5f 2039
00000140: 571f 3038 0000 0000 f83a 3439 55a4 b638
00000150: 07c2 b538 19a9 f136 0000 0000 2c0c fd38
00000160: 6a26 a737 969e 1439 aee3 3f32 2474 1a37
00000170: 0ca9 5d36 0000 0000 57d5 e837 c5c9 fc36
00000180: 1e21 3539 6263 7d37 0000 0000 18f2 5c38
00000190: 5e8b 8736 095b a038 72c0 c132 bc88 9536
000001a0: e8ad 0837 0000 0000 0edf d537 35de 0735
000001b0: 0b84 ab38 759e 2237 0000 0000 aed9 0d37
000001c0: 448a b435 1635 ce37 1fd3 dd31 05da ef35
000001d0: c7e7 ba36 0000 0000 0097 1b36 2f61 b133
000001e0: 0300 2f3a 054b 2a38 0000 0000 5f0c 6a39
000001f0: f10b f237 a1a6 aa39 ca81 5b33 6ae8 d137
00000200: b527 a037 0000 0000 78fa e938 13eb 4737
00000210: 95dc 253a 489f 3638 0000 0000 9a00 4c39
00000220: 2a0e ce37 ec4f d239 04c0 7b33 f413 ab37
00000230: 15bc 7237 0000 0000 d485 a438 69c1 1036
00000240: f65e dd39 1cba 1b38 0000 0000 ba32 e539
00000250: 79c4 a938 71e4 2b3a e497 1e33 c7c1 5638
00000260: abde 7437 0000 0000 ec5a fd38 da73 9e37
00000270: a229 8539 4cc8 3b37 0000 0000 7e0a e837
00000280: 6209 9a36 b57a d737 8ef8 ca32 6716 1736
00000290: 716c 1737 0000 0000 1d79 a236 3130 9e36
000002a0: f0fc 7e39 645d 8137 0000 0000 f555 7f38
000002b0: dfc0 8336 4403 be38 1a85 0d33 3b43 3e36
000002c0: d669 a236 0000 0000 40fb 3738 212c 4c36
000002d0: 370f 3d39 81dd f436 0000 0000 78a5 b238
000002e0: e00b 3837 8a85 a438 2bec 0a32 95ef c836
000002f0: 6a1e a936 0000 0000 2207 5637 805f be36
00000300: 2894 9a37 b197 a736 0000 0000 215d 0338
00000310: 6304 d036 5fab 2d38 a6ee 0432 8e8f 5336
00000320: ba51 8e35 0000 0000 e910 c236 066a 1436
00000330: 720e b73a 0ee7 7338 0000 0000 c4ca f539
00000340: bf14 3738 22ee 073a 901d 9733 1015 2538
00000350: b67f 0f38 0000 0000 5b55 1039 7190 c136
00000360: f825 2739 83db 2c37 0000 0000 d811 fd37
00000370: 465c 8536 e2a9 8138 e47b 9532 712f 3936
00000380: 2685 9236 0000 0000 52af 5437 9615 ac35
00000390: 11b1 173a 2690 4038 0000 0000 6444 8e39
000003a0: 1aad b237 7713 dd39 c848 d332 e8d8 3a37
000003b0: c48e 8337 0000 0000 fd6d df38 80f7 e035
000003c0: 374e f739 6ab4 0738 0000 0000 d8c0 2039
000003d0: 7db4 9537 52aa 9339 55d2 0c33 6ae2 5937
000003e0: be5e 4237 0000 0000 99b3 8938 8b57 3936
000003f0: 82ed 3139 a7b4 7037 0000 0000 5d42 2f38

exp_avg f4 [12]
-0.0043407143 0.0023645193 0.0 -0.0030167664 -0.0030704532 0.0026474958 0.0036151519 0.0063929255
0.0024505293 0.0 0.001420794 1.2221505e-05
00000000: 8d3c 8ebb 0df6 1a3b 0000 0000 f1b4 45bb
00000010: a839 49bb 9c81 2d3b 2fec 6c3b bf7b d13b
00000020: 0f99 203b 0000 0000 f039 ba3a f70a 4d37

exp_avg_sq f4 [12]
0.0014462975 0.00020908559 0.0 0.00060529297 0.00040120765 0.00080377987 9.8558245e-05 0.0012794047
0.000107922926 0.0 0.00092628115 5.0601917e-05
00000000: b191 bd3a fc3d 5b39 0000 0000 86ac 1e3a
00000010: 2e59 d239 c1b4 523a 0eb1 ce38 b3b1 a73a
00000020: ae54 e238 0000 0000 add1 723a 653d 5438

exp_avg f4 [24]
0.00051357143 0.00049781456 -0.00020187562 -0.0015235336 0.0009508808 8.576301e-05 0.003325979 7.4919255e-05
-0.00038589668 -0.0016477632 -9.391553e-07 0.00039551628 -0.0017584183 0.00014482415 0.00048012607 -0.0012680717
0.00031861805 -9.9167475e-05 0.000114465154 3.014198e-05 2.9831958e-06 0.00033202776 0.0047288556 -0.0023452742
00000000: 32a1 063a c57f 023a 93ae 53b9 4eb1 c7ba
00000010: 8844 793a aadb b338 abf8 593b f81d 9d38
00000020: 2d52 cab9 c2f9 d7ba 431a 7cb5 4c5d cf39
00000030: ba7a e6ba f0db 1739 6eb9 fb39 6d35 a6ba
00000040: 310c a739 22f8 cfb8 030d f038 69d9 fc37
00000050: ea32 4836 0314 ae39 84f4 9a3b 2cb3 19bb

exp_avg_sq f4 [24]
1.8478462e-05 5.6259655e-06 1.0834606e-06 2.9449948e-05 2.5774605e-05 3.1982265e-06 0.00051530567 5.3034986e-05
5.7330057e-05 2.2392273e-05 0.0002711003 0.00029877946 0.00032099453 3.4487493e-05 9.675498e-05 4.2992495e-05
1.68774e-05 0.00038736835 5.530579e-05 0.0003098272 0.0002175471 5.7842004e-05 0.00045613703 6.250213e-05
00000000: 3202 9b37 adc6 bc36 6c6b 9135 480b f737
00000010: 8b36 d837 1da1 5636 9415 073a e271 5e38
00000020: ae75 7038 0ad7 bb37 7722 8e39 80a5 9c39
00000030: 284b a839 aaa6 1038 efe8 ca38 d752 3438
00000040: f193 8d37 b317 cb39 24f8 6738 4e70 a239
00000050: 5b1d 6439 619b 7238 ad25 ef39 9313 8338

exp_avg f4 [12, 12]
-0.00010304558 -0.00081774796 -0.0005084877 0.0030148507 0.0073120175 0.002884212 0.00017048724 1.0251194e-06
-6.4087253e-06 -5.0179537e-05 -0.000110396955 -7.98402e-05 1.4156906e-07 2.7876722e-05 0.00042947664 -0.0011938855
-0.0072252667 -0.007252819 0.0005707032 0.0019982513 0.00015012707 1.1125582e-06 8.384201e-10 6.243174e-14
-0.000199973 -0.0013942166 -0.0033984776 -0.0074661975 -0.007034964 -0.0030187974 -0.0011236385 0.00023364418
0.0009777453 0.00085684157 0.00026496433 3.0972606e-05 8.5338324e-05 0.0015167543 0.007122571 0.008709173
0.011629871 0.006095544 0.00020256832 -0.0013220024 -0.0013884223 -0.0005117122 -0.00013740019 -0.00013836111
0.0 0.0 0.0 0.0 0.0 0.0 0.0 0.0
0.0 0.0 0.0 0.0 0.0 0.0 0.0 0.0
0.0 0.0 0.0 0.0 0.0 0.0 0.0 0.0
5.879211e-07 1.6221768e-05 -0.00019642485 -0.0004422485 -0.00021980949 -0.002952306 -0.0060305377 -0.0019055634
-0.00012655694 -1.635478e-05 5.3303786e-05 0.00014780587 0.0003206501 0.002607705 0.0055383393 0.00806645
0.011653995 0.014653147 0.006851993 -0.0024973054 -0.002419329 -0.00074287405 -0.00025095494 -0.0002451714
8.1e-44 2.6385506e-35 7.010314e-28 1.748723e-21 4.120762e-16 9.256443e-12 2.0107896e-08 4.3360983e-06
9.833182e-05 0.00027308802 0.00015523178 9.671794e-05 0.00014394044 0.0015391537 0.0058312737 0.0067010773
0.0010541348 1.8213355e-05 2.8655341e-08 -2.8040466e-09 -8.2026935e-07 -2.8566197e-05 -0.00016240672 -0.00021709506
0.00040488987 0.0027392004 0.003810894 0.002969278 -0.006001215 -0.010415432 -0.002614535 0.0005639705
0.00088420836 0.00045082578 6.542745e-05 9.306024e-06 0.00018095231 0.0008180815 0.00034138063 1.3080003e-05
-1.5018461e-05 -0.00025642142 0.0004285944 0.0027895072 0.0014013438 0.000103360435 6.55596e-05 0.00019255345
00000000: 2d1a d8b8 235e 56ba 084c 05ba cd94 453b
00000010: a699 ef3b 0c05 3d3b d2c4 3239 d696 8935
00000020: 880a d7b6 de77 52b8 ea84 e7b8 e26f a7b8
00000030: 3502 1834 ced8 e937 612b e139 267c 9cba
00000040: eec1 ecbb 0ea9 edbb 3e9b 153a 18f5 023b
00000050: 6e6b 1d39 3553 9535 9276 6630 7395 8c29
00000060: d8af 51b9 25be b6ba feb8 5ebb 01a7 f4bb
00000070: 8e85 e6bb 04d7 45bb 0d47 93ba 62fe 7439
00000080: b027 803a aa9d 603a e9ea 8a39 95e8 0138
00000090: aaf7 b238 d4cd c63a 7564 e93b ebb0 0e3c
000000a0: 378b 3e3c 21bd c73b 8568 5439 0a47 adba
000000b0: b9fb b5ba 6d24 06ba 1513 10b9 0715 11b9
000000c0: 0000 0000 0000 0000 0000 0000 0000 0000
000000d0: 0000 0000 0000 0000 0000 0000 0000 0000
000000e0: 0000 0000 0000 0000 0000 0000 0000 0000
000000f0: 0000 0000 0000 0000 0000 0000 0000 0000
00000100: 0000 0000 0000 0000 0000 0000 0000 0000
00000110: 0000 0000 0000 0000 0000 0000 0000 0000
00000120: a1d1 1d35 fb13 8837 65f7 4db9 97dd e7b9
00000130: a97c 66b9 7a7b 41bb d19b c5bb 19c4 f9ba
00000140: 5fb4 04b9 9f31 89b7 8192 5f38 56fc 1a39
00000150: ee1c a839 08e6 2a3b f57a b53b 2529 043c
00000160: 66f0 3e3c c113 703c af86 e03b d5a9 23bb
00000170: 9b8d 1ebb 6fbd 42ba 9a92 83b9 598a 80b9
00000180: 3a00 0000 174a 0c06 6d2a 5e12 3921 041d
00000190: b78b ed25 50d7 222d bbb9 ac32 cd7e 9136
000001a0: 7e37 ce38 412d 8f39 b7c5 2239 0cd5 ca38
000001b0: b8ee 1639 6ebd c93a 4514 bf3b b694 db3b
000001c0: e52a 8a3a e2c8 9837 c325 f632 4fb1 40b1
000001d0: 7b30 5cb5 71a1 efb7 b94b 2ab9 03a4 63b9
000001e0: 6647 d439 2884 333b 31c0 793b 3898 423b
000001f0: d7a5 c4bb 7da5 2abc 9e58 2bbb 6bd7 133a
00000200: 38ca 673a d05c ec39 1836 8938 1221 1c37
00000210: 04be 3d39 8574 563a 55fb b239 2f72 5b37
00000220: cdf7 7bb7 4d70 86b9 f7b4 e039 2ad0 363b
00000230: 4cad b73a 36c3 d838 0b7d 8938 2ce8 4939

exp_avg_sq f4 [12, 12]
3.051356e-07 1.5689118e-05 1.9191217e-05 0.00021054344 0.0005425469 7.6384815e-05 3.1515438e-07 1.8649146e-11
4.982769e-09 2.8553103e-07 5.592257e-07 2.506358e-07 6.137097e-13 3.278313e-08 1.5942067e-05 0.00031389648
0.0013786807 0.0033045758 0.003317606 0.00040224753 1.3822957e-06 7.071953e-11 4.1682392e-17 2.5037215e-25
4.5336304e-07 1.76717e-05 7.311337e-05 0.0007003176 0.0015239001 0.0014003009 0.0005127214 1.734777e-05
2.6314514e-05 1.8020517e-05 1.5095848e-06 1.625926e-08 5.894715e-07 5.0756847e-05 0.0007016562 0.0019463524
0.0029223969 0.0004712807 1.0808759e-06 5.334578e-05 5.821214e-05 8.690574e-06 1.5428203e-06 5.175677e-07
0.0 0.0 0.0 0.0 0.0 0.0 0.0 0.0
0.0 0.0 0.0 0.0 0.0 0.0 0.0 0.0
0.0 0.0 0.0 0.0 0.0 0.0 0.0 0.0
9.650946e-12 9.804976e-08 1.2205356e-05 1.7139768e-05 6.2853206e-07 5.7471338e-05 0.00020285572 2.5063853e-05
1.7267185e-07 8.134993e-08 5.90086e-07 5.081998e-07 1.5072021e-06 8.426397e-05 0.00035860407 0.0011417303
0.001617057 0.0012049592 0.00047524122 0.0005244856 0.0001393694 1.3777478e-05 3.5520147e-06 1.4255685e-06
2.8987111e-18 9.8972544e-17 3.0122163e-17 2.5239173e-18 2.667995e-17 2.5628082e-18 1.29578406e-14 5.379027e-10
2.770772e-07 2.8183952e-06 2.0289954e-06 6.484483e-07 5.571112e-06 0.00038691668 0.002152891 0.001095487
3.116024e-05 2.4198403e-08 2.4112643e-13 2.509433e-15 1.5082229e-10 1.0707961e-07 1.3939415e-06 1.2204056e-06
3.9696997e-06 0.00020087961 0.0005336892 0.0003301196 0.0010421098 0.0035077229 0.00040875113 1.1844726e-05
4.1045903e-05 1.0466046e-05 3.3367056e-07 1.578827e-09 1.3096411e-06 2.3599168e-05 3.6522995e-06 4.944557e-09
9.2793684e-08 8.384856e-05 0.001570752 0.001654394 0.00018068195 1.2737596e-06 1.550333e-06 2.1855294e-06
00000000: 84d1 a334 209c 8337 d3fc a037 53c5 5c39
00000010: b539 0e3a c930 a038 7d32 a934 250a a42d
00000020: e634 ab31 164b 9934 b31d 1635 1f8f 8634
00000030: 72be 2c2b 6fcd 0c33 54bb 8537 7992 a439
00000040: d9b4 b43a 9591 583b 316c 593b c0e4 d239
00000050: 5287 b935 8e83 9b2e e239 4024 0df9 9a16
00000060: be65 f334 b03d 9437 7154 9938 8595 373a
00000070: 9abd c73a 4d8a b73a 2768 063a 0d86 9137
00000080: fdbd dc37 c42a 9737 f09c ca35 7eaa 8b32
00000090: 2c3c 1e35 c0e3 5438 5aef 373a c01c ff3a
000000a0: af85 3f3b 3a16 f739 9d12 9135 98bf 5f38
000000b0: cf28 7438 bbcd 1137 e712 cf35 fbee 0a35
000000c0: 0000 0000 0000 0000 0000 0000 0000 0000
000000d0: 0000 0000 0000 0000 0000 0000 0000 0000
000000e0: 0000 0000 0000 0000 0000 0000 0000 0000
000000f0: 0000 0000 0000 0000 0000 0000 0000 0000
00000100: 0000 0000 0000 0000 0000 0000 0000 0000
00000110: 0000 0000 0000 0000 0000 0000 0000 0000
00000120: ffc7 292d 6d8f d233 9bc5 4c37 5fc7 8f37
00000130: 65b8 2835 610d 7138 abb5 5439 3740 d237
00000140: ad67 3934 99b2 ae33 6766 1e35 396b 0835
00000150: 124b ca35 e0b6 b038 0603 bc39 1da6 953a
00000160: 6ef3 d33a b9ef 9d3a cc29 f939 a27d 093a
00000170: b023 1239 d125 6737 265f 6e36 2956 bf35
00000180: 1be3 5522 1437 e424 f9e9 0a24 733b 3a22
00000190: 4014 f623 141a 3d22 7e6d 6928 8adb 1330
000001a0: 33c1 9434 a923 3d36 e029 0836 0711 2e35
000001b0: 7def ba36 14db ca39 8417 0d3b 7296 8f3a
000001c0: 0eb2 0238 dadc cf32 fbbd 872a ded2 3427
000001d0: b3d4 252f a3f3 e533 7717 bb35 d1cc a335
000001e0: 7633 8536 36a3 5239 47e7 0b3a e713 ad39
000001f0: 6797 883a d3e1 653b a64d d639 b6b8 4637
00000200: b428 2c38 5397 2f37 5523 b334 09fe d830
00000210: edc6 af35 d4f6 c537 071a 7536 c9e4 a931
00000220: de45 c733 dad7 af38 b1e1 cd3a 40d8 d83a
00000230: 7175 3d39 0cf6 aa35 0915 d035 1cab 1236

exp_avg f4 [24, 12]
-0.00053652644 -0.0029676568 -0.00433105 -0.0026817264 0.0 0.0 -0.00021650721 -0.0039354214
4.0367682e-05 -0.00059885805 -0.0041305837 -0.00020191312 -0.0009190531 -0.0033551026 -0.0069789453 -0.0057660225
0.0 0.0 -1.6956197e-05 -0.004392339 6.2795066e-06 -0.0009861332 -0.0046811546 8.155066e-05
-0.0002592804 -0.00069817516 -0.0011004298 -0.0011771879 0.0 0.0 4.857254e-05 -8.814769e-05
-1.7258262e-05 0.00029034333 -0.0009591761 -2.362725e-05 0.0004137951 0.0026472204 0.0017960585 0.001049255
0.0 0.0 0.00031519867 0.0020297794 -1.4396442e-05 -0.0011499175 0.0014918695 0.0003701332
0.00030248988 0.0023400348 0.004063254 0.001599769 0.0 0.0 0.00014097586 0.0027452628
-6.586642e-05 0.00069111766 0.0053550936 -1.9088056e-05 -0.00094764103 -0.0035366896 -0.0062699714 -0.0047342516
0.0 0.0 -1.4037472e-06 -0.0039596395 -2.1750573e-05 -0.0012757712 -0.005069352 -1.9936104e-05
-0.000116620504 -0.0018274148 -0.0074733784 -0.0015320978 0.0 0.0 0.0004468044 -0.0009789712
0.00011577437 -0.0032818967 -0.0114013115 0.001225615 -0.0003262585 -0.002678809 -0.0047830613 -0.001818875
0.0 0.0 -0.00030868102 -0.006102256 -2.4068617e-05 -0.0019544535 -0.006636273 -0.00037900807
-0.000972063 -0.005442146 -0.008236828 -0.00391708 0.0 0.0 -2.739196e-05 -0.004675802
1.3576273e-05 -0.00028688024 -0.0104746595 0.00016196976 0.0003590605 -0.00021652762 8.051193e-05 0.00249278
0.0 0.0 6.782589e-05 0.00039593113 6.207245e-05 0.0010737575 -0.0035126477 0.00017789715
0.00014999775 0.0029483289 0.007178148 -0.00086464384 0.0 0.0 -0.00048241732 -0.0008042545
-0.0002393834 0.0025569915 0.010978032 -0.0017192884 -0.001255932 -0.007135464 -0.008467433 -0.0043369345
0.0 0.0 0.00019482113 -0.003902583 9.6402524e-05 0.0013101277 -0.009820113 0.0003710274
-0.0010817625 -0.0064054444 -0.011230278 -0.004994205 0.0 0.0 -0.00022888252 -0.007893655
-6.906238e-05 -0.0033247771 -0.013762662 0.00037602105 0.00015114014 0.001312306 0.0021574975 0.00080963393
0.0 0.0 0.00021130657 0.0030118246 -1.9067385e-05 0.0007655019 0.0025312153 0.00023955022
0.00018014341 0.0019425434 0.005589623 0.0030178328 0.0 0.0 0.00023357784 0.0063797194
-0.00011654232 0.0033778977 0.0057066553 0.00015315822 -0.00045004438 -0.0028624574 -0.003023266 -0.00034574815
0.0 0.0 0.00016054847 -0.000527712 3.880937e-05 -0.0004235298 -0.0049919332 0.00023566888
0.00041479443 0.000311286 0.001647338 0.0025070303 0.0 0.0 -3.112363e-05 0.00043372627
6.249377e-05 0.00045847968 1.9805948e-05 2.0757658e-05 -6.399711e-05 -0.00283959 -0.0039545055 -0.00043212983
0.0 0.0 6.592265e-05 -0.0014182497 0.00020432928 0.0009400352 -0.006081879 0.00065475283
-0.00019043508 0.00025075133 0.0030571143 0.0015485672 0.0 0.0 0.0005259327 0.007701857
9.8486904e-05 0.0024786398 0.005284366 0.00092996843 0.00012632093 -0.003349026 -0.006186216 0.0012589074
0.0 0.0 2.83955e-05 -0.0030456414 0.00030378587 -0.0012539853 -0.011431605 0.0007169192
0.00023863258 0.0012371552 0.0016239505 0.0005162643 0.0 0.0 1.0164556e-05 -0.00030423878
2.0917185e-05 -0.00045042255 0.0017975027 -0.0003659603 -0.0009888945 -0.0047722426 -0.007818691 -0.0046666902
00000000: aea5 0cba 057d 42bb 7beb 8dbb e7bf 2fbb
00000010: 0000 0000 0000 0000 3606 63b9 b5f4 80bb
00000020: 7850 2938 affc 1cba d959 87bb a4b8 53b9
00000030: 9cec 70ba 48e1 5bbb a3af e4bb e7f0 bcbb
00000040: 0000 0000 0000 0000 283d 8eb7 9ced 8fbb
00000050: 8db4 d236 2441 81ba 5f64 99bb 2d06 ab38
00000060: 07f0 87b9 be05 37ba 4c3c 90ba df4b 9aba
00000070: 0000 0000 0000 0000 5eba 4b38 eedb b8b8
00000080: d6c5 90b7 3939 9839 3871 7bba 2233 c6b7
00000090: a3f2 d839 fd7c 2d3b b969 eb3a 2887 893a
000000a0: 0000 0000 0000 0000 4041 a539 0c06 053b
000000b0: 3f88 71b7 d4b8 96ba d58a c33a 700e c239
000000c0: 8197 9e39 455b 193b 0c25 853b 57af d13a
000000d0: 0000 0000 0000 0000 ebd2 1339 dee9 333b
000000e0: c421 8ab8 1f2c 353a c879 af3b 4a1f a0b7
000000f0: 1d6b 78ba cec7 67bb 5574 cdbb c821 9bbb
00000100: 0000 0000 0000 0000 6368 bcb5 ddbf 81bb
00000110: 0075 b6b7 c737 a7ba cf1c a6bb 753c a7b7
00000120: 2892 f4b8 de85 efba 3ee3 f4bb acd0 c8ba
00000130: 0000 0000 0000 0000 1241 ea39 d350 80ba
00000140: e4cb f238 1715 57bb 91cc 3abc d1a4 a03a
00000150: ad0d abb9 f58e 2fbb 3abb 9cbb 5167 eeba
00000160: 0000 0000 0000 0000 77d6 a1b9 6ff5 c7bb
00000170: f6e6 c9b7 4a16 00bb 1875 d9bb 9ab5 c6b9
00000180: 0bd2 7eba 0854 b2bb c3f3 06bc d95a 80bb
00000190: 0000 0000 0000 0000 c9c7 e5b7 7837 99bb
000001a0: a6c5 6337 6a68 96b9 e89d 2bbc 6dd6 2939
000001b0: 4940 bc39 b10b 63b9 83d8 a838 e95d 233b
000001c0: 0000 0000 0000 0000 bf3d 8e38 fa94 cf39
000001d0: e52c 8238 53bd 8c3a 7334 66bb e789 3a39
000001e0: b748 1d39 c038 413b ab36 eb3b 44a9 62ba
000001f0: 0000 0000 0000 0000 f5ec fcb9 9bd4 52ba
00000200: fe02 7bb9 3393 273b 34dd 333c bf59 e1ba
00000210: 169e a4ba 9cd0 e9bb fdba 0abc d81c 8ebb
00000220: 0000 0000 0000 0000 e648 4c39 7ac2 7fbb
00000230: b62b ca38 97b8 ab3a 8ae4 20bc 7486 c239
00000240: edc9 8dba c3e4 d1bb 33ff 37bc 6ea6 a3bb
00000250: 0000 0000 0000 0000 2f00 70b9 6454 01bc
00000260: 95d5 90b8 81e4 59bb ca7c 61bc b124 c539
00000270: 5f7b 1e39 af01 ac3a cd64 0d3b 9d3d 543a
00000280: 0000 0000 0000 0000 2d92 5d39 0862 453b
00000290: e6f2 9fb7 f7ab 483a bfe2 253b c62f 7b39
000002a0: e1e4 3c39 f19c fe3a 2829 b73b d5c6 453b
000002b0: 0000 0000 0000 0000 93ec 7439 f70c d13b
000002c0: 2e68 f4b8 b85f 5d3b e5fe ba3b 1999 2039
000002d0: eff3 ebb9 1198 3bbb fd21 46bb 8845 b5b9
000002e0: 0000 0000 0000 0000 e758 2839 2756 0aba
000002f0: 3ec7 2238 350d deb9 5f93 a3bb e21d 7739
00000300: c478 d939 1a34 a339 7eeb d73a fd4c 243b
00000310: 0000 0000 0000 0000 be8a 02b8 c165 e339
00000320: 160f 8338 1a60 f039 f324 a637 bb20 ae37
00000330: 3036 86b8 6a18 3abb cc94 81bb 7c8f e2b9
00000340: 0000 0000 0000 0000 f43f 8a38 90e4 b9ba
00000350: 3941 5639 b26c 763a 804a c7bb b8a3 2b3a
00000360: 87af 47b9 4677 8339 de59 483b 4bf9 ca3a
00000370: 0000 0000 0000 0000 bfde 093a dc5f fc3b
00000380: c18a ce38 ad70 223b 7a28 ad3b 20c9 733a
00000390: 0475 0439 557b 5bbb beb5 cabb ec01 a53a
000003a0: 0000 0000 0000 0000 df32 ee37 6299 47bb
000003b0: 7345 9f39 c45c a4ba a04b 3bbc a2ef 3b3a
000003c0: 7239 7a39 0a28 a23a bdda d43a e955 073a
000003d0: 0000 0000 0000 0000 7088 2a37 3d82 9fb9
000003e0: 5077 af37 b126 ecb9 2f9a eb3a 5cde bfb9
000003f0: cb9d 81ba 7960 9cbb f819 00bc 09eb 98bb

exp_avg_sq f4 [24, 12]
1.2168612e-06 3.1113555e-05 7.493792e-05 3.698562e-05 0.0 0.0 9.104896e-07 9.599151e-05
4.7665097e-08 1.5529957e-05 7.780895e-05 1.923869e-06 1.0262345e-05 0.00019134006 0.00069098803 0.0003742669
0.0 0.0 6.544445e-07 0.00038444775 6.7482913e-09 3.8048864e-05 0.0005238953 3.1202947e-07
4.978101e-07 9.819584e-06 2.7102977e-05 1.0971762e-05 0.0 0.0 9.561986e-08 1.523012e-05
5.1716667e-09 7.335132e-07 3.6254092e-05 1.288042e-07 4.6916152e-06 0.000101403246 0.00017771112 8.966026e-05
0.0 0.0 2.3754649e-06 0.00019433013 1.5017694e-07 6.17346e-06 0.00019713322 4.3963723e-06
4.7811145e-06 0.0004129597 0.00091081386 0.00010933942 0.0 0.0 4.0658615e-06 0.0008837391
1.4143514e-07 1.5117573e-05 0.0016903362 2.6946204e-06 6.0417337e-06 8.881358e-05 0.00023403636 0.00015235189
0.0 0.0 1.031119e-06 0.00012559479 1.0829344e-07 1.543225e-05 0.0001528773 3.4520713e-06
8.993766e-06 0.000409374 0.00044036578 0.00018045599 0.0 0.0 3.521551e-05 0.002342975
2.3914422e-06 0.0002872044 0.0007635624 0.000115864925 3.2996616e-06 0.00012666677 0.00019045828 6.674487e-05
0.0 0.0 1.0296886e-06 0.00020067715 9.548279e-08 4.861468e-05 0.0002700532 1.2730634e-06
6.029417e-06 0.00023017105 0.00068917836 0.00012386205 0.0 0.0 1.0569224e-06 0.0003835106
3.6663516e-07 1.4947169e-05 0.0012582499 2.6597904e-06 3.6954468e-06 8.767493e-05 0.00030488157 0.00021071064
0.0 0.0 7.601994e-07 0.00027924083 5.0625825e-08 6.8498404e-05 0.0005135558 1.5149285e-06
5.3994154e-06 0.00011539009 0.0002355037 0.00032366964 0.0 0.0 1.5999227e-05 0.0017314056
5.501881e-06 1.9113875e-05 0.0004926558 0.000108259075 6.8644094e-06 0.00023530066 0.00030246848 0.00011335739
0.0 0.0 4.0769237e-06 0.00047206265 3.400727e-07 5.8013997e-05 0.00041490354 9.499545e-06
1.8597235e-05 0.00045848053 0.002055988 0.0006300977 0.0 0.0 2.7923895e-06 0.001137932
5.236132e-07 0.00029450026 0.002768696 7.654982e-06 6.844904e-07 3.5393026e-05 5.2841686e-05 2.1090382e-05
0.0 0.0 8.640605e-07 0.000108384964 3.7410512e-08 3.1667348e-06 7.632229e-05 1.3271998e-06
1.3334231e-05 0.00042282176 0.0008240108 0.00022842908 0.0 0.0 8.9621635e-06 0.0014323996
1.3266532e-06 0.00028156437 0.0012026464 1.977333e-05 1.5675258e-06 4.6247478e-05 7.8298974e-05 2.4269995e-05
0.0 0.0 1.08718e-06 9.071023e-05 1.0684284e-07 4.384721e-06 0.00014337902 2.1796316e-06
4.8251172e-06 0.00022088538 0.0004099553 0.00012904294 0.0 0.0 3.2142682e-06 0.00054532534
9.6340614e-08 1.2591759e-05 0.00054054376 4.1726503e-06 1.0873628e-05 0.0003839297 0.0007158531 0.00019228486
0.0 0.0 7.327957e-06 0.00073827663 5.1717774e-07 6.625172e-05 0.0010992322 1.9628345e-05
2.7925958e-06 0.00011541619 0.00061281834 0.00022202938 0.0 0.0 5.1254583e-06 0.0013180661
2.4138646e-07 0.0001177283 0.000923561 1.36575545e-05 8.716888e-06 6.4536864e-05 0.00015179395 0.0003499239
0.0 0.0 4.355398e-06 0.00049238454 5.6115546e-06 1.6544596e-05 0.00055194955 3.3464337e-05
1.3439719e-06 8.6831365e-05 0.00011966715 2.0344285e-05 0.0 0.0 1.1155068e-06 9.803614e-05
5.4337414e-07 5.4201355e-06 0.00014362657 3.1309971e-06 7.4327927e-06 0.00029805137 0.00068317144 0.00016353487
00000000: 0853 a335 ed7f 0238 fd27 9d38 0221 1b38
00000010: 0000 0000 0000 0000 5e68 7435 0d4f c938
00000020: 54b8 4c33 5446 8237 5d2d a338 d11b 0136
00000030: 702c 2c37 75a2 4839 6c23 353a 4139 c439
00000040: 0000 0000 0000 0000 15ad 2f35 b48f c939
00000050: 99de e731 a896 1f38 0556 093a 0185 a734
00000060: 40a1 0535 cbbe 2437 335b e337 5c13 3837
00000070: 0000 0000 0000 0000 9357 cd33 de84 7f37
00000080: 76b2 b131 a5e6 4435 890f 1838 6e4d 0a34
00000090: ab6c 9d36 74a8 d438 f757 3a39 fc07 bc38
000000a0: 0000 0000 0000 0000 2d6a 1f36 19c5 4b39
000000b0: 5340 2134 9e25 cf36 8cb5 4e39 8d84 9336
000000c0: 766d a036 8382 d839 afc3 6e3a 274d e538
000000d0: 0000 0000 0000 0000 7c6d 8836 baaa 673a
000000e0: 65dd 1734 7ba1 7d37 458e dd3a 3ad5 3436
000000f0: 19ba ca36 6d41 ba38 a867 7539 a6c0 1f39
00000100: 0000 0000 0000 0000 fb64 8a35 18b2 0339
00000110: f38e e833 8174 8137 b04d 2039 22aa 6736
00000120: eee3 1637 40a1 d639 e5e0 e639 c938 3d39
00000130: 0000 0000 0000 0000 5eb4 1338 998c 193b
00000140: aa7c 2036 ec93 9639 ce29 483a 82fc f238
00000150: c16f 5d36 dad1 0439 c1b5 4739 61f9 8b38
00000160: 0000 0000 0000 0000 d533 8a35 dd6c 5239
00000170: 380c cd33 9de7 4b38 ed95 8d39 20de aa35
00000180: 4c50 ca36 125a 7139 faa9 343a f7e0 0139
00000190: 0000 0000 0000 0000 94db 8d35 ec11 c939
000001a0: f4d5 c434 9ac5 7a37 dceb a43a da7e 3236
000001b0: 4bff 7736 1fde b738 83d8 9f39 35f2 5c39
000001c0: 0000 0000 0000 0000 8110 4c35 1267 9239
000001d0: af6f 5933 cda6 8f38 25a0 063a 8c54 cb35
000001e0: a02c b536 95fd f138 8bf1 7639 34b2 a939
000001f0: 0000 0000 0000 0000 1436 8637 55f0 e23a
00000200: cc9c b836 bc56 a037 9225 013a 2609 e338
00000210: d454 e636 0abb 7639 a294 9e39 49ba ed38
00000220: 0000 0000 0000 0000 82cc 8836 2d7f f739
00000230: 3c93 b634 0e54 7338 6987 d939 3c60 1f37
00000240: 4201 9c37 3760 f039 c1bd 063b 242d 253a
00000250: 0000 0000 0000 0000 e364 3b36 a926 953a
00000260: 6d8e 0c35 2867 9a39 0373 353b e66d 0037
00000270: d2bd 3735 f972 1438 54a2 5d38 40eb b037
00000280: 0000 0000 0000 0000 c9f1 6735 bc4c e338
00000290: 4bad 2033 1784 5436 380f a038 3d22 b235
000002a0: 16b6 5f37 2dae dd39 6e02 583a 7786 6f39
000002b0: 0000 0000 0000 0000 335c 1637 5bbf bb3a
000002c0: 750f b235 ee9e 9339 1ea2 9d3a e7de a537
000002d0: c763 d235 daf9 4138 7134 a438 6b97 cb37
000002e0: 0000 0000 0000 0000 38eb 9135 af3b be38
000002f0: 7971 e533 7720 9336 0358 1639 c945 1236
00000300: 71e7 a136 789d 6739 45ef d639 b34f 0739
00000310: 0000 0000 0000 0000 b5b4 5736 2af4 0e3a
00000320: d0e3 ce33 3141 5337 47b3 0d3a cb02 8c36
00000330: e06d 3637 2c4a c939 17a8 3b3a 13a0 4939
00000340: 0000 0000 0000 0000 ace2 f536 e888 413a
00000350: 2fd4 0a35 9ff0 8a38 1d14 903a 8da7 a437
00000360: 6e68 3b36 980b f238 8ba5 203a 8fd0 6839
00000370: 0000 0000 0000 0000 5afb ab36 f6c2 ac3a
00000380: e797 8134 e6e4 f638 211b 723a c022 6537
00000390: c03e 1237 f757 8738 e12a 1f39 fe75 b739
000003a0: 0000 0000 0000 0000 9524 9236 5e13 013a
000003b0: e34a bc36 40c9 8a37 b5b0 103a 0f5c 0c38
000003c0: 8662 b435 3c19 b638 d0f5 fa38 05a9 aa37
000003d0: 0000 0000 0000 0000 86b8 9535 c098 cd38
000003e0: 63dc 1135 9cde b536 779a 1639 1f1e 5236
000003f0: 3467 f936 c743 9c39 dc16 333a 8f7a 2b39

exp_avg f4 [12]
0.0071569495 -0.0076944167 -0.013026725 0.019460183 0.0 0.0 -0.007106727 0.026603926
0.00043241112 0.009100405 -0.0042290688 0.0038736127
00000000: d884 ea3b 7221 fcbb 0b6e 55bc f66a 9f3c
00000010: 0000 0000 0000 0000 8cdf e8bb 7af0 d93c
00000020: 3db5 e239 dd19 153c 0094 8abb 70dc 7d3b

exp_avg_sq f4 [12]
0.0008653025 0.010798399 0.004222398 0.007351746 0.0 0.0 0.00032677717 0.0042484263
8.08431e-06 0.0041913656 0.0015190929 0.0047231354
00000000: 78d5 623a c5eb 303c 0b5c 8a3b eae6 f03b
00000010: 0000 0000 0000 0000 4a53 ab39 6236 8b3b
00000020: d9a1 0737 b957 893b 4d1c c73a 88c4 9a3b

exp_avg f4 [24]
-0.0036179745 -0.0047456305 -0.0007657637 0.0021136897 0.003287682 -0.0043708086 -0.004236009 -0.0045411354
-0.0067830584 -0.0007903544 0.003594929 -0.007102131 -0.008766755 0.0020461506 0.00417804 -0.0023048983
0.0006467991 -0.0034937137 0.0038597544 -0.0049630255 0.0010711802 -0.005975199 0.0009949246 -0.0026625341
00000000: 8a1b 6dbb 3c81 9bbb 88bd 48ba d485 0a3b
00000010: 2776 573b 0039 8fbb 38ce 8abb cecd 94bb
00000020: 6b44 debb c92f 4fba e698 6b3b feb8 e8bb
00000030: 70a2 0fbc b618 063b f1e7 883b c70d 17bb
00000040: f48d 293a caf6 64bb eff3 7c3b e0a0 a2bb
00000050: d866 8c3a 9acb c3bb 2168 823a e97d 2ebb

exp_avg_sq f4 [24]
5.605304e-05 0.00036676723 1.7521113e-05 0.00013691702 0.0007913856 0.00011281072 0.00068294286 0.00015700386
0.0004947356 0.00021559488 0.00027358768 0.00028673053 0.0011316632 6.377783e-05 0.0007204658 5.6698118e-05
0.0003689972 0.00056766684 0.0005572961 0.00016533404 9.068896e-05 0.00057113374 0.00027221657 0.00042030626
00000000: 7e1a 6b38 aa4a c039 4efa 9237 6291 0f39
00000010: fd74 4f3a cb94 ec38 8507 333a 67a1 2439
00000020: 25b1 013a 4f11 6239 5170 8f39 5254 9639
00000030: 5154 943a 76c0 8538 a4dd 3c3a 24cf 6d38
00000040: f775 c139 7acf 143a 8217 123a 855d 2d39
00000050: 4430 be38 23b8 153a 4ab8 8e39 8d5c dc39
