Model/epoch100/Model_7/model7.ckpt (torch_old, 286080 bytes, 464 tensors)

exp_avg f4 [72]
0	0x3b9f87c5	0.00486848
1	0x3b9ed074	0.004846627
2	0xbb1293e9	-0.0022365993
3	0x3a82141b	0.0009924205
4	0x3b0ee01c	0.002180106
5	0x39ad3f6b	0.0003304438
6	0x3ba8e445	0.005154165
7	0x3c141c4b	0.009039949
8	0xbbc16c10	-0.0059027746
9	0x3c0c3b8a	0.008559117
10	0x3b7a1dd2	0.0038164747
11	0x3b0c30fc	0.0021391502
12	0x3c93eda1	0.018057646
13	0x3c28bb10	0.010298505
14	0x3b91e37a	0.004452166
15	0x3b8aaa56	0.0042317314
16	0x3aa329c5	0.0012448361
17	0x3a258be5	0.00063150964
18	0xb8dd3ea6	-0.000105497704
19	0xbae20998	-0.0017245291
20	0x39d0185c	0.00039691
21	0xbabd3c52	-0.0014437533
22	0x3aee8387	0.0018197157
23	0xbaf890c2	-0.001896404
24	0x3c191b06	0.009344822
25	0x3bb0dfd1	0.0053977747
26	0x3ba001ad	0.0048830123
27	0x39cde6b0	0.00039272523
28	0x3aadf496	0.0013271745
29	0xba227091	-0.0006196583
30	0x3bb5695e	0.0055362424
31	0x3ba6d2fc	0.0050910693
32	0x3b292e46	0.0025814935
33	0xba9032e0	-0.001100149
34	0xb8e5326d	-0.000109289635
35	0x39569497	0.00020463984
36	0xbaf6137f	-0.0018774121
37	0xbaa335d5	-0.0012451956
38	0x3a999e1c	0.0011720094
39	0xbbfb105e	-0.007661863
40	0xbbaa936f	-0.0052055637
41	0xbb5ca71b	-0.0033668939
42	0xba3dafc2	-0.0007235968
43	0xba062fb8	-0.0005118805
44	0xbb30dae1	-0.002698593
45	0x3c8f9d2d	0.017531002
46	0x3be49d9d	0.006976797
47	0x3b70f1df	0.003676526
48	0x3a4d7199	0.0007837057
49	0x3ad61005	0.0016331678
50	0xb96673c8	-0.00021977641
51	0x38cf116d	9.873775e-05
52	0x3a67c454	0.0008841206
53	0xb9e50429	-0.00043681383
54	0x3a1288e5	0.0005589857
55	0x3b4a5783	0.0030874915
56	0xbadf4968	-0.0017035427
57	0xba054a01	-0.0005084575
58	0xb9c352ca	-0.0003725498
59	0xba1a0c80	-0.00058764964
60	0x3aee27b8	0.0018169796
61	0x3adb655f	0.0016738585
62	0xb861337b	-5.3692125e-05
63	0xbae1dbff	-0.0017231702
64	0x3a854861	0.0010168665
65	0xbb4f9312	-0.0031673354
66	0xbb6c2dec	-0.0036038114
67	0x3af9f5f7	0.0019070496
68	0xbb97d90d	-0.0046340288
69	0x3941fbcb	0.00018499714
70	0x3b4b0bd2	0.0030982387
71	0x3b2bddd3	0.0026224747

exp_avg_sq f4 [72]
0	0x3a9108ba	0.0011065223
1	0x3a49662d	0.0007682767
2	0x3a36195c	0.0006946528
3	0x3a81d37e	0.0009904949
4	0x39825166	0.0002485618
5	0x39f034f0	0.0004581581
6	0x3b700966	0.0036626696
7	0x3c9bc547	0.019014968
8	0x3ad6143b	0.0016332933
9	0x3b1b08d6	0.002365639
10	0x3bc95910	0.0061446503
11	0x3af41d4d	0.0018624455
12	0x3b114319	0.0022165237
13	0x3c0222ec	0.007942896
14	0x3b0f5ab8	0.002187414
15	0x3ae23a64	0.0017259833
16	0x39f4c896	0.00046688755
17	0x398654aa	0.0002562155
18	0x3a16170d	0.0005725481
19	0x3900bbd9	0.0001227701
20	0x3ae1721a	0.0017200143
21	0x3b080eda	0.0020760805
22	0x39c03b8a	0.00036665454
23	0x3a31ff97	0.00067901
24	0x3b47b50e	0.0030472907
25	0x3b73541e	0.0037128995
26	0x3a26854a	0.0006352259
27	0x3b131e9c	0.0022448665
28	0x39ffeff1	0.0004881616
29	0x3a218d5e	0.0006162728
30	0x3be016ba	0.0068386467
31	0x3907ed71	0.00012963057
32	0x3b6462a3	0.003484883
33	0x3b94b29b	0.004537893
34	0x3966b160	0.00022000587
35	0x3a9ffd2c	0.0012206188
36	0x39b4bad3	0.0003447147
37	0x38387b17	4.3983655e-05
38	0x38c9b620	9.61835e-05
39	0x3a9aa73f	0.0011799111
40	0x3b8e18d4	0.004336456
41	0x3adfdfa7	0.0017080203
42	0x3ba0d5a2	0.0049082795
43	0x3a2e863e	0.0006657577
44	0x3bb13fa5	0.0054091983
45	0x3c161872	0.009161102
46	0x3b01d3b3	0.001981002
47	0x3a888324	0.001041506
48	0x3aa97250	0.0012927745
49	0x3a63d534	0.00086911325
50	0x3af8156f	0.0018927286
51	0x39e165ee	0.00042991288
52	0x392570c1	0.0001577763
53	0x39a5f3c6	0.00031652878
54	0x3a83e239	0.0010061926
55	0x3a44eaf9	0.00075118203
56	0x3a1cb37e	0.0005977674
57	0x39ed977a	0.0004531702
58	0x3935f47c	0.00017352583
59	0x3891dc73	6.955201e-05
60	0x3a6b1e1d	0.0008969026
61	0x38dfbacc	0.00010668262
62	0x39d55caa	0.00040695566
63	0x39133fd9	0.00014042798
64	0x37c2221c	2.3142486e-05
65	0x38fc88eb	0.00012041799
66	0x3a59a5e4	0.00083026127
67	0x389adc4a	7.384324e-05
68	0x3b2a87ea	0.0026020953
69	0x3ae88225	0.0017738981
70	0x38bc8d8d	8.9909045e-05
71	0x3b6d8259	0.0036241023

exp_avg f4 [24]
0	0x3bf50e45	0.0074785077
1	0x3b65920b	0.0035029675
2	0x3c07d869	0.008291342
3	0x3c6dcf40	0.014514744
4	0x3d066203	0.032808315
5	0x3bc8264d	0.0061080814
6	0xbabbd770	-0.0014331173
7	0xbac7498f	-0.0015204417
8	0x3ca0c5e3	0.01962561
9	0x3a9035e2	0.0011002386
10	0x3c5869c4	0.01320881
11	0xba83b372	-0.0010047986
12	0xbaffab3a	-0.0019505986
13	0xbc84fdd6	-0.01623432
14	0xbb80e965	-0.003934073
15	0x3ce6e2d0	0.028184325
16	0x3b0ffd29	0.0021970964
17	0x3a0f246d	0.0005460445
18	0x3afea9ec	0.0019429303
19	0xbac07ffc	-0.001468658
20	0x3b6141bd	0.0034371458
21	0xbb7ddce2	-0.0038736393
22	0xbbcf7285	-0.0063307905
23	0x3bc184b2	0.005905711

exp_avg_sq f4 [24]
0	0x3b6e45ec	0.0036357595
1	0x3b5c7dc3	0.0033644296
2	0x3cd255b5	0.025675634
3	0x3b4fae1e	0.0031689475
4	0x3c256a77	0.010096184
5	0x3b98d427	0.0046639624
6	0x3a45838f	0.00075345574
7	0x3b855a39	0.0040695933
8	0x3c3b7502	0.011441471
9	0x3ba4ab4f	0.0050253044
10	0x3ca3bd19	0.01998763
11	0x3c4e0664	0.012574766
12	0x3a89f76c	0.0010526008
13	0x3ba18861	0.0049295877
14	0x3ce13819	0.02749257
15	0x3c8909c0	0.016728282
16	0x3b395f21	0.002828546
17	0x3b2119f3	0.0024582117
18	0x3b321a6f	0.00271764
19	0x3ada3eec	0.0016650832
20	0x3a76885b	0.0009404474
21	0x39f969d5	0.00047571832
22	0x3af8e4ab	0.0018989047
23	0x3c245ac5	0.010031407

exp_avg f4 [12, 12]
0	0x35182591	5.667908e-07
1	0x38492592	4.7957124e-05
2	0x3a1960eb	0.0005850929
3	0x3b1509f5	0.002274153
4	0x3b90b93d	0.0044166134
5	0x3b9c7339	0.004774478
6	0x3b10974a	0.0022062832
7	0x395df104	0.00021165988
8	0x3770c499	1.4350889e-05
9	0x35f9027a	1.8552666e-06
10	0xb85184f3	-4.99533e-05
11	0xb7c6d505	-2.3702634e-05
12	0xb78f4819	-1.7080501e-05
13	0xb90b079a	-0.00013258905
14	0xb9624c49	-0.00021581458
15	0xb6fb5a2a	-7.4908794e-06
16	0xb898adf6	-7.2803276e-05
17	0xba2dd7f4	-0.0006631606
18	0xb9fb766a	-0.00047962676
19	0xb871594e	-5.754205e-05
20	0x3587af9d	1.0109394e-06
21	0x379182b5	1.7346212e-05
22	0x38067fce	3.2067117e-05
23	0x37a0e04b	1.917793e-05
24	0x00000000	0.0
25	0x00000000	0.0
26	0x00000000	0.0
27	0x00000000	0.0
28	0x00000000	0.0
29	0x00000000	0.0
30	0x00000000	0.0
31	0x00000000	0.0
32	0x00000000	0.0
33	0x00000000	0.0
34	0x00000000	0.0
35	0x00000000	0.0
36	0xb80d0d9b	-3.362969e-05
37	0xb96c5171	-0.00022537053
38	0xb9e95526	-0.00044504664
39	0xba1f2044	-0.00060701766
40	0xba028ae2	-0.00049798016
41	0xba383fa1	-0.00070285244
42	0xb74883bf	-1.19516035e-05
43	0x3a33c8e7	0.0006858245
44	0x39cab6e0	0.00038664695
45	0x388250e2	6.213949e-05
46	0xb60b1526	-2.0724924e-06
47	0xb5f1e388	-1.802212e-06
48	0xb59e01d3	-1.1772448e-06
49	0xb68d1a06	-4.205157e-06
50	0x3813c1da	3.522807e-05
51	0x39c6144b	0.00037780622
52	0x3a7348c0	0.0009280555
53	0x3a30d11c	0.0006745027
54	0x3892676d	6.981087e-05
55	0xb98c57db	-0.00026768338
56	0xb9587170	-0.00020641624
57	0xb7bd2252	-2.2546537e-05
58	0x36af1051	5.217306e-06
59	0xb517e465	-5.658424e-07
60	0xb7b4c58f	-2.1549668e-05
61	0xb9476ad9	-0.00019017923
62	0xb9eabacd	-0.00044771135
63	0xba269e75	-0.00063560094
64	0xba853e7e	-0.0010165719
65	0xbac0281f	-0.0014660395
66	0xba8d7c24	-0.0010794443
67	0xb9904375	-0.0002751608
68	0xb892dd27	-7.003015e-05
69	0xb80cb7ec	-3.354989e-05
70	0x36b9034f	5.513815e-06
71	0x36b7c378	5.4765806e-06
72	0x3662b52f	3.3782087e-06
73	0x391387d1	0.00014069608
74	0x3a18fd29	0.00058360636
75	0x397925f3	0.00023760628
76	0x371c8d84	9.331274e-06
77	0x3315901c	3.4822833e-08
78	0x2d56ed74	1.2217217e-11
79	0x25e6b5b1	4.002176e-16
80	0x1cb83e1c	1.2192154e-21
81	0x11da6fa8	3.446315e-28
82	0x054002e3	9.028327e-36
83	0x00000009	1.3e-44
84	0x38115db1	3.465795e-05
85	0x39a95352	0.0003229627
86	0x3a31710e	0.00067688606
87	0x3a4e9db5	0.00078817765
88	0x3ab65f43	0.0013913888
89	0x3b0e0ec6	0.0021676286
90	0x3b1a6f1a	0.0023564757
91	0x3ad1d566	0.0016009032
92	0x3a030b8d	0.00049989746
93	0x38842354	6.300831e-05
94	0xb726aa15	-9.933971e-06
95	0xb752e04b	-1.2569198e-05
96	0x3292f231	1.7106773e-08
97	0xb46be416	-2.1969058e-07
98	0xb89f8074	-7.605637e-05
99	0xb9e18f4f	-0.00043022117
100	0xb99ae8a0	-0.00029546488
101	0xb7e9b29c	-2.7858936e-05
102	0xb4a96083	-3.1548925e-07
103	0xafd033c1	-3.7871753e-10
104	0xa94be050	-4.5269615e-14
105	0xa11a9a04	-5.238107e-19
106	0x97330427	-5.784326e-25
107	0x8b9cf1a3	-6.045259e-32
108	0x00000000	0.0
109	0x00000000	0.0
110	0x00000000	0.0
111	0x00000000	0.0
112	0x00000000	0.0
113	0x00000000	0.0
114	0x00000000	0.0
115	0x00000000	0.0
116	0x00000000	0.0
117	0x00000000	0.0
118	0x00000000	0.0
119	0x00000000	0.0
120	0xb8a72066	-7.969215e-05
121	0xb9f59ac0	-0.0004684534
122	0xb9ea4433	-0.0004468277
123	0xba5cfc5e	-0.00084299396
124	0xbb05aea4	-0.0020398283
125	0xbbbecc73	-0.005822712
126	0xbba25212	-0.004953631
127	0xbadc5be8	-0.0016812058
128	0xb93f606d	-0.00018251101
129	0xb6675410	-3.4470613e-06
130	0xb4e257ad	-4.2159573e-07
131	0xb6571a37	-3.2052756e-06
132	0x190cfa5e	7.288392e-24
133	0x229f06b5	4.3104138e-18
134	0x2a87d2e0	2.412714e-13
135	0x30b35789	1.3048843e-09
136	0x353f6c81	7.131094e-07
137	0x38332092	4.270726e-05
138	0x39a0b0a2	0.0003064918
139	0x398aad92	0.0002645073
140	0x38104ca6	3.440366e-05
141	0x378d482d	1.684212e-05
142	0x36208ad8	2.3922676e-06
143	0x332bb61a	3.997966e-08

exp_avg_sq f4 [12, 12]
0	0x2d2c3456	9.788689e-12
1	0x33681ca0	5.4042744e-08
2	0x36c9ac3d	6.010318e-06
3	0x38ad9abf	8.2781065e-05
4	0x3980f2d2	0.00024594978
5	0x3999a92a	0.0002930847
6	0x38a7600f	7.981073e-05
7	0x3572df56	9.047702e-07
8	0x33aebc92	8.136807e-08
9	0x35b614f9	1.356616e-06
10	0x35a7e1ac	1.2508149e-06
11	0x34f38e84	4.536597e-07
12	0x32c2893b	2.2646978e-08
13	0x360ae590	2.0697225e-06
14	0x36f70317	7.3615333e-06
15	0x38163944	3.581612e-05
16	0x37cec30f	2.4647945e-05
17	0x37d521a3	2.5407242e-05
18	0x378cb8f3	1.6775424e-05
19	0x3490b283	2.6951975e-07
20	0x31bec0e4	5.551657e-09
21	0x3486ec3a	2.5131322e-07
22	0x34cca038	3.8114536e-07
23	0x34206fa0	1.494177e-07
24	0x00000000	0.0
25	0x00000000	0.0
26	0x00000000	0.0
27	0x00000000	0.0
28	0x00000000	0.0
29	0x00000000	0.0
30	0x00000000	0.0
31	0x00000000	0.0
32	0x00000000	0.0
33	0x00000000	0.0
34	0x00000000	0.0
35	0x00000000	0.0
36	0x32c13715	2.2493206e-08
37	0x3628a582	2.513029e-06
38	0x372f2ea1	1.04416695e-05
39	0x37aae279	2.0371039e-05
40	0x3766a9cd	1.3748603e-05
41	0x37d8e65a	2.5856472e-05
42	0x3811b07e	3.4735065e-05
43	0x376c57fa	1.408718e-05
44	0x374940aa	1.1995589e-05
45	0x3619bcaf	2.2908605e-06
46	0x343d0c6b	1.7606514e-07
47	0x32e70359	2.6893462e-08
48	0x30114507	5.2848786e-10
49	0x320a0956	8.03478e-09
50	0x3514d6ec	5.544705e-07
51	0x37bae33e	2.2278746e-05
52	0x38447d52	4.6846755e-05
53	0x382aad66	4.069265e-05
54	0x37981576	1.8129806e-05
55	0x36c9a5ea	6.0095817e-06
56	0x361cd1f5	2.3368023e-06
57	0x34bc92dc	3.5124583e-07
58	0x32f70a98	2.8759402e-08
59	0x324c8250	1.19039925e-08
60	0x3302cfb8	3.0456903e-08
61	0x35e86a57	1.7316296e-06
62	0x36df72e4	6.659293e-06
63	0x37ef052e	2.8493432e-05
64	0x388f8c3d	6.844893e-05
65	0x388607d6	6.3910775e-05
66	0x37ca5415	2.411943e-05
67	0x369e2854	4.7134617e-06
68	0x352b3f67	6.3794727e-07
69	0x33c7fc5d	9.312564e-08
70	0x3351580a	4.8741676e-08
71	0x33022833	3.0304545e-08
72	0x2fc84f21	3.6436013e-10
73	0x353d53e5	7.053007e-07
74	0x375894f6	1.2909286e-05
75	0x3611f415	2.1748758e-06
76	0x31623647	3.2918182e-09
77	0x29461b8f	4.3988735e-14
78	0x1dc1ecee	5.1331654e-21
79	0x0ed2d3f1	5.197309e-30
80	0x00007ed7	4.5502e-41
81	0x00000000	0.0
82	0x00000000	0.0
83	0x00000000	0.0
84	0x3345a3d5	4.601664e-08
85	0x36201687	2.385497e-06
86	0x372216d4	9.6612675e-06
87	0x380491d8	3.160708e-05
88	0x38aada12	8.1468505e-05
89	0x38944d6e	7.071612e-05
90	0x392ce3c4	0.00016488048
91	0x39184679	0.00014522103
92	0x37cfc35f	2.47673e-05
93	0x35d15e62	1.5599182e-06
94	0x33f9407b	1.1606695e-07
95	0x32dc4acc	2.5645384e-08
96	0x2933d147	3.9927503e-14
97	0x30affe64	1.2805228e-09
98	0x3567390d	8.6137226e-07
99	0x379995b4	1.8308732e-05
100	0x373005ad	1.0491739e-05
101	0x33e2c22b	1.0559264e-07
102	0x2d77c875	1.4084835e-11
103	0x23c1c52a	2.1008604e-17
104	0x16c3aaf0	3.1611826e-25
105	0x067053b0	4.5200467e-35
106	0x00000000	0.0
107	0x00000000	0.0
108	0x00000000	0.0
109	0x00000000	0.0
110	0x00000000	0.0
111	0x00000000	0.0
112	0x00000000	0.0
113	0x00000000	0.0
114	0x00000000	0.0
115	0x00000000	0.0
116	0x00000000	0.0
117	0x00000000	0.0
118	0x00000000	0.0
119	0x00000000	0.0
120	0x33a412fb	7.6402976e-08
121	0x3634d42c	2.694559e-06
122	0x363f50b8	2.8508202e-06
123	0x375c52c5	1.3132293e-05
124	0x385e30f4	5.2974516e-05
125	0x399c5abc	0.0002982224
126	0x3922fd71	0.00015543938
127	0x3854a373	5.0696963e-05
128	0x35b0dc31	1.3177106e-06
129	0x30544791	7.722685e-10
130	0x2fa3bc27	2.9783218e-10
131	0x32c07e56	2.2409193e-08
132	0x000001f4	7e-43
133	0x0a54cda8	1.0246108e-32
134	0x192179a6	8.348072e-24
135	0x256a3c63	2.0316724e-16
136	0x2e702bea	5.4608686e-11
137	0x342f3959	1.6319008e-07
138	0x3700e34f	7.682319e-06
139	0x37b24bb5	2.1254507e-05
140	0x3789779d	1.6387372e-05
141	0x361fb737	2.3799491e-06
142	0x32c06f92	2.2402478e-08
143	0x2cb3397c	5.093868e-12

exp_avg f4 [24, 12]
0	0x3b01aa71	0.001978543
1	0x39fc4a4b	0.00048120538
2	0x00000000	0.0
3	0x3abdb552	0.0014473593
4	0x3a2a08ed	0.00064863154
5	0x3ac0c43d	0.0014706921
6	0x36abc6cf	5.1193415e-06
7	0x3a5397d9	0.00080716383
8	0x3983d438	0.00025144382
9	0x00000000	0.0
10	0x3a286254	0.00064233434
11	0x38acc6f5	8.238658e-05
12	0xb53aaa60	-6.953833e-07
13	0xb80cf12c	-3.360321e-05
14	0x00000000	0.0
15	0xb805e626	-3.1924013e-05
16	0x371a80e5	9.209126e-06
17	0x37707f70	1.4334786e-05
18	0xb5d2053b	-1.5647742e-06
19	0x3846efdc	4.7430265e-05
20	0xb7ea1680	-2.7905451e-05
21	0x00000000	0.0
22	0x385f42ea	5.322966e-05
23	0xb4e207b7	-4.2101394e-07
24	0xba055861	-0.0005086717
25	0xb9088a6f	-0.00013021541
26	0x00000000	0.0
27	0xb980cbfb	-0.0002456604
28	0xb9014139	-0.00012326696
29	0xb98dec8d	-0.0002706986
30	0xb61b8e9c	-2.317981e-06
31	0xb92f4e9b	-0.00016718583
32	0xb86ec3d2	-5.6925994e-05
33	0x00000000	0.0
34	0xb898c7a4	-7.285111e-05
35	0x366ab621	3.497473e-06
36	0x3abd40d0	0.0014438871
37	0x39c540a0	0.00037622917
38	0x00000000	0.0
39	0x3ad68ef0	0.0016369503
40	0x3a2da0b8	0.0006623375
41	0x3ac57ad6	0.0015066515
42	0x36a5f432	4.9458113e-06
43	0x3a3febc1	0.0007321202
44	0x393d0081	0.00018024632
45	0x00000000	0.0
46	0x3a3db554	0.0007236798
47	0x392ac734	0.00016286672
48	0x3ab30361	0.0013657623
49	0x395a4a8e	0.00020817874
50	0x00000000	0.0
51	0x3a038855	0.00050175685
52	0x398f242e	0.0002730204
53	0x3a26394a	0.0006340934
54	0x35c57448	1.4711486e-06
55	0x39f7e480	0.00047281757
56	0x3923db89	0.00015626675
57	0x00000000	0.0
58	0x39cdb545	0.00039235703
59	0xb88461ee	-6.312491e-05
60	0x3955eebb	0.00020402197
61	0x377faa58	1.5238846e-05
62	0x00000000	0.0
63	0xb86742ac	-5.5136785e-05
64	0x37d40318	2.527381e-05
65	0x36e00729	6.6765538e-06
66	0x352edfd4	6.5145764e-07
67	0x3819bd16	3.6654143e-05
68	0x3702185c	7.754275e-06
69	0x00000000	0.0
70	0xb79ef4c8	-1.8949053e-05
71	0xb79901ac	-1.82398e-05
72	0xbba33dd7	-0.004981737
73	0xbab169cb	-0.0013535557
74	0x00000000	0.0
75	0xbba8cd49	-0.005151425
76	0xbb0a9438	-0.0021145474
77	0xbba25844	-0.0049543697
78	0xb71332cc	-8.77371e-06
79	0xbb22b9b7	-0.0024829933
80	0xba29e31a	-0.0006480679
81	0x00000000	0.0
82	0xbb131068	-0.0022440199
83	0xba03fa85	-0.0005034584
84	0xbb166b8f	-0.0022952294
85	0xba0a0545	-0.00052650674
86	0x00000000	0.0
87	0xbaef7bb8	-0.0018271124
88	0xba535b13	-0.00080625823
89	0xbaeb8e54	-0.0017971494
90	0xb6d2db20	-6.283997e-06
91	0xba678fb7	-0.0008833366
92	0xb9540282	-0.0002021883
93	0x00000000	0.0
94	0xba63e7d1	-0.0008693906
95	0xb8e2e4df	-0.0001081915
96	0xb9ff65f8	-0.00048713363
97	0xb8a369bb	-7.7921395e-05
98	0x00000000	0.0
99	0xba7b45e5	-0.0009585305
100	0xb9ef9793	-0.00045698564
101	0xba7d7f80	-0.0009670183
102	0xb5f38d7e	-1.814609e-06
103	0xb9d7167e	-0.00041024754
104	0xb6dc48da	-6.564992e-06
105	0x00000000	0.0
106	0xb9e0d1d0	-0.00042880932
107	0xb94d780b	-0.00019595043
108	0x39fad716	0.00047843967
109	0x394a8e34	0.00019317196
110	0x00000000	0.0
111	0x39dc3ba2	0.000420061
112	0x38f26f29	0.000115601644
113	0x39b34653	0.00034193936
114	0x347f13e7	2.3755966e-07
115	0x392764ef	0.00015963962
116	0x38a0216d	7.6356206e-05
117	0x00000000	0.0
118	0x3931edc5	0.00016968611
119	0xb5acad9f	-1.2865529e-06
120	0xbb616fe9	-0.003439898
121	0xba639f4a	-0.0008683099
122	0x00000000	0.0
123	0xbb5ae066	-0.0033397912
124	0xbac42663	-0.0014965053
125	0xbb561249	-0.0032664707
126	0xb6998d17	-4.5761803e-06
127	0xbaca593a	-0.0015437969
128	0xb9cf199c	-0.00039501197
129	0x00000000	0.0
130	0xbabd11fa	-0.0014424913
131	0xb9bdf215	-0.00036229254
132	0x3bba814b	0.0056916825
133	0x3ac35a42	0.0014904218
134	0x00000000	0.0
135	0x3bb40b74	0.0054945294
136	0x3b14b67a	0.0022691772
137	0x3bad6fde	0.0052928766
138	0x374e9504	1.2313252e-05
139	0x3b367c94	0.002784525
140	0x3a2c4489	0.0006571492
141	0x00000000	0.0
142	0x3b1c5e13	0.0023859784
143	0x39e42b49	0.000435198
144	0x3b905244	0.004404338
145	0x3a93f874	0.0011289255
146	0x00000000	0.0
147	0x3b902704	0.0043991823
148	0x3af0d14c	0.0018372922
149	0x3b891cf1	0.0041843583
150	0x374f0472	1.23391965e-05
151	0x3b09fa05	0.0021053564
152	0x3a04e0eb	0.0005068916
153	0x00000000	0.0
154	0x3afb1275	0.0019155281
155	0x39cc512b	0.00038970387
156	0xba02db1e	-0.00049917575
157	0xb906d462	-0.00012858355
158	0x00000000	0.0
159	0xba24050f	-0.00062568573
160	0xb988cc26	-0.00026092044
161	0xba1997b2	-0.0005859091
162	0xb6301afa	-2.6241746e-06
163	0xb990e3b0	-0.0002763546
164	0xb83310ae	-4.269246e-05
165	0x00000000	0.0
166	0xb98a7981	-0.0002641194
167	0xb89e00b7	-7.53416e-05
168	0x37b08a50	2.1045242e-05
169	0xb6712383	-3.593247e-06
170	0x00000000	0.0
171	0xb9b39a79	-0.00034256632
172	0xb94e3891	-0.00019666764
173	0xb9b37d0d	-0.0003423471
174	0x35b2556f	1.3286898e-06
175	0xb8d415b0	-0.000101129874
176	0xb7fbdc1b	-3.0024026e-05
177	0x00000000	0.0
178	0xb8e6c059	-0.00011003082
179	0xb913b7e9	-0.00014087524
180	0xb94a0f69	-0.00019269962
181	0xb9118722	-0.00013878618
182	0x00000000	0.0
183	0xba7fc51c	-0.00097568496
184	0xb9ad62c3	-0.00033070715
185	0xba496b35	-0.00076835166
186	0x33ee31d4	1.1091802e-07
187	0xb984a1d7	-0.00025297582
188	0xb680f2d1	-3.842965e-06
189	0x00000000	0.0
190	0xb9d93ed1	-0.00041436267
191	0xb923aaf6	-0.00015608579
192	0x3acfdf0f	0.0015859323
193	0x39b7d0e2	0.0003506011
194	0x00000000	0.0
195	0x3aa9a451	0.0012942647
196	0x3a186a3b	0.00058141694
197	0x3ab2330c	0.0013595535
198	0x35c38dad	1.4569865e-06
199	0x3a3c8cdc	0.00071926205
200	0x393181fa	0.00016928455
201	0x00000000	0.0
202	0x3a246466	0.0006271064
203	0x38d22006	0.00010019545
204	0x3b7aa174	0.0038243206
205	0x3a31d0ab	0.0006783108
206	0x00000000	0.0
207	0x3a0e16c4	0.00054202625
208	0x39c9530a	0.00038399576
209	0x3a80dd07	0.0009831496
210	0x3720e223	9.589395e-06
211	0x3a8bd143	0.0010667223
212	0x39d45f78	0.0004050692
213	0x00000000	0.0
214	0x3a045f49	0.0005049599
215	0xb9d61531	-0.0004083305
216	0xbab91b05	-0.0014122432
217	0xb9c11617	-0.00036828287
218	0x00000000	0.0
219	0xba4f8e7a	-0.0007917654
220	0xb9b25671	-0.0003401521
221	0xba5223ce	-0.00080161996
222	0xb6932f06	-4.3864156e-06
223	0xba09c48a	-0.0005255422
224	0xb94c83b8	-0.00019504025
225	0x00000000	0.0
226	0xb994e811	-0.00028401663
227	0x37954352	1.7793533e-05
228	0x3b383c6b	0.0028112184
229	0x3a23e643	0.0006252268
230	0x00000000	0.0
231	0x3af9d73f	0.0019061341
232	0x3a5e3dd2	0.000847784
233	0x3afeae93	0.0019430689
234	0x364da4e0	3.064335e-06
235	0x3a96873a	0.0011484392
236	0x39b0d8d0	0.00033730874
237	0x00000000	0.0
238	0x3a7cd671	0.00096449914
239	0x38215457	3.846394e-05
240	0x3b6491b9	0.0034876897
241	0x3a55dee4	0.00081585185
242	0x00000000	0.0
243	0x3b163d4a	0.0022924715
244	0x3a892b85	0.001046524
245	0x3b1cc412	0.0023920578
246	0x36e4fc72	6.824318e-06
247	0x3ab35cea	0.0013684307
248	0x39e92eeb	0.0004447618
249	0x00000000	0.0
250	0x3a8cf14b	0.0010753063
251	0x38afa245	8.374875e-05
252	0x39b4f040	0.00034511276
253	0x38fd7f6d	0.00012087715
254	0x00000000	0.0
255	0x3a08a1c7	0.0005212095

exp_avg_sq f4 [24, 12]
0	0x38809446	6.131134e-05
1	0x36559fdc	3.1832524e-06
2	0x00000000	0.0
3	0x378f0a1d	1.7051638e-05
4	0x368dfcbe	4.2315505e-06
5	0x37a9bf18	2.0235355e-05
6	0x2face1af	3.1446976e-10
7	0x36ec6e29	7.0461724e-06
8	0x3560ff9d	8.381847e-07
9	0x00000000	0.0
10	0x3660708a	3.3444107e-06
11	0x35900b22	1.0732076e-06
12	0x37a1018b	1.9193414e-05
13	0x3601ac0a	1.9322638e-06
14	0x00000000	0.0
15	0x361f248e	2.3714124e-06
16	0x34a41bc1	3.0567574e-07
17	0x3611acab	2.170719e-06
18	0x30bc5536	1.3703019e-09
19	0x3586cd6a	1.0043561e-06
20	0x3566c1ee	8.596388e-07
21	0x00000000	0.0
22	0x3435c50d	1.6928625e-07
23	0x3412b592	1.3663364e-07
24	0x362c9a0a	2.571966e-06
25	0x3448bef5	1.8695921e-07
26	0x00000000	0.0
27	0x354d5bfc	7.6502306e-07
28	0x34604644	2.0887188e-07
29	0x3580f15c	9.606988e-07
30	0x2e5af4de	4.9784947e-11
31	0x34ce7424	3.8454994e-07
32	0x333afc29	4.3535838e-08
33	0x00000000	0.0
34	0x33c41829	9.131356e-08
35	0x32cfbb96	2.4183276e-08
36	0x389cf98c	7.4851414e-05
37	0x3690de5d	4.317421e-06
38	0x00000000	0.0
39	0x383a016f	4.434719e-05
40	0x37436d37	1.1648334e-05
41	0x385b6337	5.230607e-05
42	0x2ff98702	4.5388765e-10
43	0x379a93ba	1.8427021e-05
44	0x3594c06d	1.1082863e-06
45	0x00000000	0.0
46	0x371930a1	9.130833e-06
47	0x36a370b6	4.8709e-06
48	0x386c394b	5.6320143e-05
49	0x368dc045	4.2245106e-06
50	0x00000000	0.0
51	0x37fd1667	3.0170382e-05
52	0x366cc565	3.528164e-06
53	0x37b56508	2.1623928e-05
54	0x2fd85035	3.9347162e-10
55	0x36d17383	6.2421327e-06
56	0x35825a2c	9.711998e-07
57	0x00000000	0.0
58	0x3700cdc4	7.677303e-06
59	0x3580a21a	9.583921e-07
60	0x366b6ddd	3.5081678e-06
61	0x3495426f	2.780175e-07
62	0x00000000	0.0
63	0x3619cdcf	2.2918573e-06
64	0x34c5ccb4	3.684305e-07
65	0x3609284b	2.0438044e-06
66	0x2f16fd04	1.373231e-10
67	0x352496cc	6.13142e-07
68	0x338855d4	6.3486056e-08
69	0x00000000	0.0
70	0x35030acb	4.881701e-07
71	0x32f59c0d	2.8592718e-08
72	0x3a3b9927	0.00071563054
73	0x381fc293	3.8089765e-05
74	0x00000000	0.0
75	0x39992f21	0.00029217548
76	0x38905f90	6.884255e-05
77	0x39b089a9	0.000336719
78	0x3185e93c	3.897325e-09
79	0x38f5a462	0.00011713129
80	0x3750bdc3	1.24419485e-05
81	0x00000000	0.0
82	0x3858d283	5.1694467e-05
83	0x372486f3	9.806582e-06
84	0x394b17d7	0.0001936847
85	0x3724f3ee	9.831956e-06
86	0x00000000	0.0
87	0x39181498	0.00014503521
88	0x3789f00f	1.6443459e-05
89	0x38beaf3b	9.092545e-05
90	0x3183c65c	3.8351526e-09
91	0x37f89aa4	2.9635914e-05
92	0x3699fb83	4.589035e-06
93	0x00000000	0.0
94	0x3835386c	4.320631e-05
95	0x35a867fc	1.2547239e-06
96	0x38647bd0	5.4474745e-05
97	0x368b0620	4.143236e-06
98	0x00000000	0.0
99	0x3706329a	7.998804e-06
100	0x35f9f002	1.8621797e-06
101	0x37157986	8.909386e-06
102	0x302812bb	6.114466e-10
103	0x3689bdb3	4.105002e-06
104	0x35a7031e	1.2443377e-06
105	0x00000000	0.0
106	0x35cc16a0	1.5205769e-06
107	0x358ab495	1.0334358e-06
108	0x38b8f64e	8.8196815e-05
109	0x36bf92a5	5.7093152e-06
110	0x00000000	0.0
111	0x37cb4be7	2.423483e-05
112	0x369f8894	4.754469e-06
113	0x37e9a53a	2.7852704e-05
114	0x2f94fbaf	2.7099875e-10
115	0x37125ba0	8.723611e-06
116	0x3617c072	2.2612771e-06
117	0x00000000	0.0
118	0x36b5065b	5.39496e-06
119	0x33fcc2b4	1.1770081e-07
120	0x39cecd88	0.00039444515
121	0x379b7bd9	1.8535111e-05
122	0x00000000	0.0
123	0x3963d612	0.00021728154
124	0x3836bf37	4.3570264e-05
125	0x3965a603	0.00021900986
126	0x31262b2c	2.418072e-09
127	0x389174da	6.935904e-05
128	0x36c08087	5.7370085e-06
129	0x00000000	0.0
130	0x38092aea	3.2703312e-05
131	0x36aef3dc	5.213993e-06
132	0x39b77a05	0.00034995392
133	0x379691e4	1.7949329e-05
134	0x00000000	0.0
135	0x39966758	0.00028687227
136	0x383f80d6	4.5657936e-05
137	0x397eff70	0.00024318486
138	0x31217208	2.3493403e-09
139	0x3883daac	6.2872976e-05
140	0x36b2aee6	5.3251742e-06
141	0x00000000	0.0
142	0x38220766	3.86307e-05
143	0x371d9beb	9.394232e-06
144	0x3985b4b7	0.0002550238
145	0x3780d246	1.5356705e-05
146	0x00000000	0.0
147	0x392d23dd	0.00016511926
148	0x3834e6b4	4.3130203e-05
149	0x3951ac73	0.00019996036
150	0x3167ea2d	3.3748038e-09
151	0x389be3fb	7.4334406e-05
152	0x36b101d7	5.2752252e-06
153	0x00000000	0.0
154	0x37e8e123	2.7761393e-05
155	0x36d838d8	6.443919e-06
156	0x37da97b2	2.6058264e-05
157	0x35bb7c1b	1.3968705e-06
158	0x00000000	0.0
159	0x36a5a858	4.936981e-06
160	0x3593f1c2	1.1022714e-06
161	0x36ba518d	5.5527257e-06
162	0x2f908a4e	2.629172e-10
163	0x361b67c9	2.315721e-06
164	0x350b5343	5.1902697e-07
165	0x00000000	0.0
166	0x35552274	7.939882e-07
167	0x344976c7	1.8762795e-07
168	0x38ad112f	8.2524835e-05
169	0x36a6ec6f	4.97471e-06
170	0x00000000	0.0
171	0x384a8a01	4.828908e-05
172	0x378e17bc	1.6938771e-05
173	0x3881f9a2	6.197697e-05
174	0x30520416	7.640336e-10
175	0x379014a6	1.7175753e-05
176	0x35b0a71a	1.3161655e-06
177	0x00000000	0.0
178	0x36ef66ac	7.1347076e-06
179	0x36dbc487	6.5495874e-06
180	0x3890dc36	6.9074726e-05
181	0x35b3c3a5	1.3393479e-06
182	0x00000000	0.0
183	0x3755158d	1.2700807e-05
184	0x35ea3985	1.7451099e-06
185	0x37174e4f	9.018534e-06
186	0x2f9c7837	2.8461652e-10
187	0x3651dfa9	3.1273614e-06
188	0x3598ad46	1.1375312e-06
189	0x00000000	0.0
190	0x35e3345c	1.6928057e-06
191	0x35faa25a	1.8673702e-06
192	0x385e5e51	5.3016764e-05
193	0x36fda0d3	7.55871e-06
194	0x00000000	0.0
195	0x38859c91	6.371097e-05
196	0x36b13878	5.281585e-06
197	0x383163af	4.2292926e-05
198	0x31024450	1.895632e-09
199	0x37383c8e	1.0981354e-05
200	0x35b93ec9	1.3801847e-06
201	0x00000000	0.0
202	0x36f8ab70	7.410934e-06
203	0x34702f82	2.2369025e-07
204	0x39d2c93e	0.00040204258
205	0x37ff3535	3.0423145e-05
206	0x00000000	0.0
207	0x39811840	0.00024622865
208	0x381db696	3.7601763e-05
209	0x39442c3f	0.000187085
210	0x31894490	3.9950194e-09
211	0x385a9042	5.21096e-05
212	0x36b7bdea	5.475934e-06
213	0x00000000	0.0
214	0x387df042	6.0543658e-05
215	0x3794047a	1.764506e-05
216	0x387880bd	5.9247704e-05
217	0x36686922	3.463189e-06
218	0x00000000	0.0
219	0x3801c3af	3.093824e-05
220	0x36d73342	6.4134665e-06
221	0x3801f3e0	3.0983123e-05
222	0x3015d2f9	5.4505694e-10
223	0x371f97f7	9.512521e-06
224	0x3560bbdf	8.371989e-07
225	0x00000000	0.0
226	0x36bb1fbc	5.5767287e-06
227	0x35a44ccd	1.2241304e-06
228	0x38dfb51f	0.00010667205
229	0x3722e2bd	9.708744e-06
230	0x00000000	0.0
231	0x38e620fc	0.000109733985
232	0x375ac4ba	1.30396165e-05
233	0x38a6fe27	7.9628364e-05
234	0x2faf8439	3.1926264e-10
235	0x37a42f89	1.9572459e-05
236	0x35e51209	1.7067078e-06
237	0x00000000	0.0
238	0x37bbbd2e	2.238023e-05
239	0x35df4848	1.6635831e-06
240	0x392ee7fe	0.00016680357
241	0x370403b9	7.86868e-06
242	0x00000000	0.0
243	0x39074a96	0.00012902389
244	0x37a0efbf	1.9185127e-05
245	0x38d93145	0.000103565435
246	0x30883070	9.909069e-10
247	0x37eadbaf	2.7997272e-05
248	0x362ffe53	2.6225068e-06
249	0x00000000	0.0
250	0x378c6819	1.6737775e-05
251	0x36ab9df0	5.1145835e-06
252	0x38dc286f	0.00010497949
253	0x36c4e800	5.8682635e-06
254	0x00000000	0.0
255	0x38168954	3.5890684e-05

exp_avg f4 [12]
0	0x3c11a85a	0.008890236
1	0xba7b28ce	-0.00095809705
2	0x00000000	0.0
3	0xba5f2480	-0.0008512214
4	0x3a7d1373	0.0009654082
5	0xbb52f1f4	-0.0032187672
6	0x3a1d35be	0.0005997083
7	0x3bc70e87	0.00607473
8	0xba05ed68	-0.00051089237
9	0x00000000	0.0
10	0xbc26758d	-0.010159862
11	0x39d7a0e6	0.00041127874

exp_avg_sq f4 [12]
0	0x3a7b09ca	0.0009576349
1	0x390ea2db	0.00013602844
2	0x00000000	0.0
3	0x391744dd	0.00014426136
4	0x3948bee1	0.00019144594
5	0x39b82902	0.00035125768
6	0x3762006f	1.3470751e-05
7	0x3a389aa6	0.00070420874
8	0x37f40f08	2.9094066e-05
9	0x00000000	0.0
10	0x3a555736	0.00081383006
11	0x386a6376	5.5882578e-05

exp_avg f4 [24]
0	0x3ab1dd82	0.0013570043
1	0x376b3aca	1.4020779e-05
2	0xb99d3393	-0.000299838
3	0x3aa061ae	0.0012236142
4	0x3a4618d1	0.00075567985
5	0x388b2163	6.634255e-05
6	0xbb84c9f9	-0.0040523973
7	0xbadbeffa	-0.0016779893
8	0xba1f3acb	-0.00060741295
9	0x39b80ca5	0.00035104636
10	0xbb322c01	-0.0027186873
11	0x3b930148	0.0044862367
12	0x3b6698d1	0.00351863
13	0xb9eed473	-0.00045553184
14	0xb8e7de8c	-0.00011056391
15	0xb9fa654d	-0.0004775919
16	0x3a9a6491	0.0011779239
17	0x3ae8ff35	0.0017776253
18	0xba5eb8e7	-0.00084961805
19	0x3af87c88	0.0018958012
20	0x3b169ee2	0.0022982885
21	0x399ec5df	0.00030283534
22	0x3a223986	0.0006188381
23	0xb98fbfc8	-0.00027417974

exp_avg_sq f4 [24]
0	0x37a9a319	2.0222318e-05
1	0x368116ad	3.8471394e-06
2	0x35719875	9.000135e-07
3	0x37fc0548	3.00432e-05
4	0x37c4f693	2.347984e-05
5	0x35d51886	1.5876874e-06
6	0x398ff223	0.0002745549
7	0x389689d6	7.178231e-05
8	0x3740a51c	1.1482534e-05
9	0x37ff075c	3.0401796e-05
10	0x39253dee	0.00015758697
11	0x391aa662	0.00014748567
12	0x38fa91a2	0.00011948055
13	0x36dfa13c	6.664688e-06
14	0x380b7c60	3.3256016e-05
15	0x372ee3cd	1.0424247e-05
16	0x380868e3	3.252261e-05
17	0x3930e45e	0.00016869741
18	0x37ce1394	2.456623e-05
19	0x38808f5d	6.130219e-05
20	0x387ebaa3	6.0732138e-05
21	0x380f8cb5	3.42249e-05
22	0x38ccc137	9.763467e-05
23	0x371d523a	9.377074e-06

exp_avg f4 [12, 12]
0	0xb4e80854	-4.3219427e-07
1	0x37ae0db3	2.0748796e-05
2	0xb95122a6	-0.00019944701
3	0xbb2867ee	-0.0025696713
4	0xbb335c16	-0.002736812
5	0x39a3337e	0.00031128147
6	0x393347e2	0.00017097549
7	0x35befbb9	1.4229364e-06
8	0xb2d3cb20	-2.4656003e-08
9	0xae04435f	-3.0073163e-11
10	0xb1859ca0	-3.8886157e-09
11	0xb4b4eb94	-3.3699018e-07
12	0xb78165ca	-1.5425398e-05
13	0x394bcee3	0.0001943666
14	0x3ad5bfc8	0.0016307766
15	0x3a84cdbe	0.0010132117
16	0x398589c8	0.00025470392
17	0x3afd80c2	0.0019340741
18	0x3a9324fd	0.0011226233
19	0x387cc764	6.026718e-05
20	0xb6df8e54	-6.662487e-06
21	0xb3c0cc1a	-8.9778226e-08
22	0xaeb29b4d	-8.12209e-11
23	0xa7de6e18	-6.173674e-15
24	0xb909092f	-0.0001306876
25	0xba60d9ad	-0.0008577358
26	0xbad3af4b	-0.0016150264
27	0xbb7d7497	-0.003867423
28	0xbbeb9cc9	-0.007190321
29	0xbbe29ab5	-0.006915415
30	0xbb7011e4	-0.0036631757
31	0xb9fccd4b	-0.0004821814
32	0x39690ca8	0.00022225326
33	0x394cec4e	0.00019542986
34	0x3838a7b9	4.4025222e-05
35	0x360b65b5	2.0771815e-06
36	0x38b349e3	8.5491476e-05
37	0x39c9f71b	0.00038521815
38	0x384db00d	4.903977e-05
39	0x3a19a8cb	0.0005861639
40	0xba4b7c9d	-0.0007762404
41	0xba90855d	-0.0011026073
42	0xb810a56b	-3.4486333e-05
43	0x38f686c0	0.00011755293
44	0xb7a619c5	-1.9800742e-05
45	0xb8056fd2	-3.181381e-05
46	0x356c6432	8.8062654e-07
47	0xb6994bbd	-4.5685724e-06
48	0x00000000	0.0
49	0x00000000	0.0
50	0x00000000	0.0
51	0x00000000	0.0
52	0x00000000	0.0
53	0x00000000	0.0
54	0x00000000	0.0
55	0x00000000	0.0
56	0x00000000	0.0
57	0x00000000	0.0
58	0x00000000	0.0
59	0x00000000	0.0
60	0x00000000	0.0
61	0x00000000	0.0
62	0x00000000	0.0
63	0x00000000	0.0
64	0x00000000	0.0
65	0x00000000	0.0
66	0x00000000	0.0
67	0x00000000	0.0
68	0x00000000	0.0
69	0x00000000	0.0
70	0x00000000	0.0
71	0x00000000	0.0
72	0xb7e46ad3	-2.7229462e-05
73	0xb985fd4d	-0.0002555646
74	0x392e150a	0.00016601771
75	0x3a11ba6f	0.0005559092
76	0x38db7ae4	0.00010465624
77	0x37e2f142	2.7053644e-05
78	0xb97a46da	-0.00023868252
79	0xb953c68e	-0.00020196495
80	0xb7a7bcee	-1.9995929e-05
81	0xb7f98280	-2.9743882e-05
82	0xb8318030	-4.2319472e-05
83	0xb791793b	-1.73418e-05
84	0x37d988a4	2.5932044e-05
85	0x39820510	0.00024799304
86	0x3a869e35	0.0010270538
87	0x3b38ae68	0.0028180126
88	0x3ba89f86	0.00514597
89	0x3bf31ce1	0.007419214
90	0x3b9b34d1	0.004736521
91	0x3a55c94b	0.00081553
92	0xb853648b	-5.0399958e-05
93	0xb8f3b162	-0.00011620183
94	0xb848eed9	-4.790616e-05
95	0x37b68a2b	2.176043e-05
96	0x2157051c	7.2851596e-19
97	0x22c09cd9	5.2207773e-18
98	0x22802138	3.472964e-18
99	0x1fdc1928	9.321524e-20
100	0xa75e074e	-3.0812649e-15
101	0x2e2105ed	3.6612425e-11
102	0x33aaf478	7.9607105e-08
103	0x37339190	1.0703123e-05
104	0x39149a5d	0.00014171885
105	0x398fbbed	0.000274151
106	0x3902dbde	0.00012479673
107	0xb7c40924	-2.3369277e-05
108	0xb7aae693	-2.0372949e-05
109	0xb821d712	-3.858569e-05
110	0x3a7102d5	0.00091938424
111	0x3a3d7436	0.00072270946
112	0x38ab8b2b	8.1798375e-05
113	0x35ca5112	1.5073767e-06
114	0x31511e7b	3.043083e-09
115	0xb12dfa9d	-2.531727e-09
116	0xb53ec2ff	-7.106427e-07
117	0xb7a486a5	-1.9613022e-05
118	0xb847d8e5	-4.7647296e-05
119	0x36ac46b6	5.1342313e-06
120	0x37aceb52	2.0613577e-05
121	0x391e75ee	0.00015111986
122	0x3a158b76	0.000570468
123	0x3a8c917c	0.001072451
124	0x3a437c34	0.00074571674
125	0xba321ff8	-0.0006794925
126	0xbaad16b6	-0.0013205621
127	0xba239fb9	-0.0006241757
128	0xb97c6cbd	-0.00024073101
129	0xb8e82e2b	-0.000110712215
130	0xb82dc86b	-4.1433068e-05
131	0xb691f6b1	-4.3500554e-06
132	0xb785ee38	-1.5965765e-05
133	0xb89c1dd2	-7.444214e-05
134	0xb8047a69	-3.1585256e-05
135	0xb5a3cde7	-1.2204372e-06
136	0x36047629	1.973831e-06
137	0x38a26fb7	7.7455705e-05
138	0x398e8ab0	0.0002718768
139	0x393a6a4c	0.00017777941
140	0x38db5fb4	0.0001046056
141	0x375aaa6c	1.3033492e-05
142	0x375f2a2f	1.3301657e-05
143	0x35c93979	1.4992394e-06

exp_avg_sq f4 [12, 12]
0	0x3300aafd	2.9957835e-08
1	0x34c78f39	3.7170847e-07
2	0x3829d527	4.0491253e-05
3	0x3aa4002d	0.001251226
4	0x3b7afc9f	0.0038297547
5	0x3b552620	0.0032523945
6	0x39525ea1	0.00020062413
7	0x34876785	2.522103e-07
8	0x2c922f7f	4.1548427e-12
9	0x2ed79f7f	9.8054e-11
10	0x30cba673	1.4817502e-09
11	0x2fee2d4c	4.3324133e-10
12	0x3522a806	6.059421e-07
13	0x384d6828	4.897281e-05
14	0x398aa5e9	0.00026445024
15	0x396de732	0.00022688208
16	0x3a6473a7	0.00087147433
17	0x3b066a54	0.0020510154
18	0x3b7bf6c2	0.003844664
19	0x39cf423a	0.0003953146
20	0x357184ad	8.9972565e-07
21	0x2e035deb	2.9869367e-11
22	0x234fcbbc	1.1264635e-17
23	0x15538ca3	4.2722053e-26
24	0x35ad566c	1.2914657e-06
25	0x3895b34f	7.1382725e-05
26	0x3988c287	0.00026084876
27	0x39c31a75	0.0003721301
28	0x3a1cced2	0.00059817464
29	0x3a474f3a	0.0007603053
30	0x39a111e8	0.00030721654
31	0x375f3f25	1.3306538e-05
32	0x3639eafa	2.7703923e-06
33	0x3551785a	7.80337e-07
34	0x33881470	6.336711e-08
35	0x30568e72	7.8055173e-10
36	0x352cf11f	6.442587e-07
37	0x3773e026	1.4536117e-05
38	0x372b61a9	1.02151325e-05
39	0x3937aeca	0.00017517354
40	0x39921175	0.00027860297
41	0x381bdccb	3.716051e-05
42	0x35ba6e5d	1.38902e-06
43	0x379f221f	1.8970166e-05
44	0x37270096	9.954112e-06
45	0x354ad484	7.5560115e-07
46	0x3334325c	4.1955317e-08
47	0x32a2faa2	1.8973257e-08
48	0x00000000	0.0
49	0x00000000	0.0
50	0x00000000	0.0
51	0x00000000	0.0
52	0x00000000	0.0
53	0x00000000	0.0
54	0x00000000	0.0
55	0x00000000	0.0
56	0x00000000	0.0
57	0x00000000	0.0
58	0x00000000	0.0
59	0x00000000	0.0
60	0x00000000	0.0
61	0x00000000	0.0
62	0x00000000	0.0
63	0x00000000	0.0
64	0x00000000	0.0
65	0x00000000	0.0
66	0x00000000	0.0
67	0x00000000	0.0
68	0x00000000	0.0
69	0x00000000	0.0
70	0x00000000	0.0
71	0x00000000	0.0
72	0x3510cb6a	5.3940187e-07
73	0x36f12ff0	7.1879404e-06
74	0x370240cf	7.763693e-06
75	0x37829c30	1.5569938e-05
76	0x36d0018b	6.1990627e-06
77	0x39868b82	0.00025662413
78	0x3a169472	0.0005744166
79	0x3864af3d	5.452264e-05
80	0x34399bb4	1.7286112e-07
81	0x338a2146	6.432178e-08
82	0x34389f66	1.7194324e-07
83	0x33a5a450	7.7132995e-08
84	0x361979d4	2.286969e-06
85	0x38ca3dea	9.643643e-05
86	0x3933b9d8	0.00017140002
87	0x391ae16c	0.0001477056
88	0x39d8965c	0.00041310757
89	0x3a14fd41	0.000568349
90	0x395ec5e8	0.00021245296
91	0x3858a3f0	5.165109e-05
92	0x3775109e	1.4607007e-05
93	0x36b5d9e9	5.4195884e-06
94	0x35c34cea	1.4551017e-06
95	0x34ea8e68	4.368951e-07
96	0x31cd4d42	5.9750684e-09
97	0x349b5e1b	2.893947e-07
98	0x34082a98	1.2681483e-07
99	0x3009b8d2	5.0102955e-10
100	0x28a018b1	1.7774277e-14
101	0x250520d3	1.1547032e-16
102	0x2e42a51c	4.425714e-11
103	0x345092a3	1.9424856e-07
104	0x37526fea	1.2543032e-05
105	0x37c9381b	2.3987193e-05
106	0x36de78c6	6.6301754e-06
107	0x35c2fdbc	1.4527973e-06
108	0x33a68ce1	7.755603e-08
109	0x386a2ea8	5.58334e-05
110	0x3a90385a	0.0011003122
111	0x39d55340	0.00040688552
112	0x3666fe35	3.4420639e-06
113	0x30375da3	6.670808e-10
114	0x2707d623	1.8851097e-15
115	0x27faf9a5	6.9659604e-15
116	0x2fef3514	4.351156e-10
117	0x34afc73d	3.2741255e-07
118	0x369685cd	4.485925e-06
119	0x3642a4d4	2.9004195e-06
120	0x33c5a55d	9.203607e-08
121	0x372d0281	1.03121865e-05
122	0x38ed9ec8	0.00011330616
123	0x38508df5	4.9723272e-05
124	0x390ed5cf	0.00013621825
125	0x3a0005b3	0.0004883662
126	0x39d4111a	0.00040448533
127	0x3882027d	6.1993465e-05
128	0x3649e1fb	3.0082872e-06
129	0x3532d9b4	6.6626967e-07
130	0x340b26e4	1.2959532e-07
131	0x318d4b61	4.1122097e-09
132	0x329f6f1e	1.8560566e-08
133	0x34b18e76	3.3072473e-07
134	0x33599b8a	5.066571e-08
135	0x2e951abb	6.780484e-11
136	0x31a685a7	4.8464304e-09
137	0x3748b77e	1.1963652e-05
138	0x39fa9422	0.00047794083
139	0x3a127c43	0.00055879744
140	0x38083315	3.24725e-05
141	0x3431c6ee	1.655678e-07
142	0x35b000c2	1.3113242e-06
143	0x36189cd9	2.2741062e-06

exp_avg f4 [24, 12]
0	0xb93ef2d4	-0.00018210273
1	0xb9420901	-0.00018504636
2	0xb954cc95	-0.00020294108
3	0x38ef08e7	0.00011398066
4	0x00000000	0.0
5	0x00000000	0.0
6	0xb8561972	-5.1045274e-05
7	0xb895f23c	-7.149993e-05
8	0x3775f9cd	1.4661299e-05
9	0x356dbf3e	8.8567674e-07
10	0xb978c40d	-0.00023724158
11	0x37a89d6a	2.0100462e-05
12	0xb79a01e4	-1.8359111e-05
13	0xb7c3fc94	-2.3363427e-05
14	0xb9f27365	-0.00046243813
15	0xb59b0f13	-1.1552787e-06
16	0x00000000	0.0
17	0x00000000	0.0
18	0x375534e3	1.2708103e-05
19	0xb9e4a9ef	-0.0004361416
20	0xb5f1c360	-1.8012761e-06
21	0xb952e2b0	-0.00020111608
22	0xba3d0058	-0.0007209829
23	0x37002439	7.637828e-06
24	0x37ea1937	2.7906715e-05
25	0x3835b87f	4.332559e-05
26	0x38cd862e	9.800155e-05
27	0xb7989041	-1.8186985e-05
28	0x00000000	0.0
29	0x00000000	0.0
30	0x38c3beeb	9.333886e-05
31	0x39aad9c1	0.00032587166
32	0x356c5b24	8.804948e-07
33	0xb846071b	-4.7213496e-05
34	0x393b9bb5	0.00017891715
35	0x379106a2	1.7288436e-05
36	0xb9750027	-0.00023365078
37	0xb98e9f24	-0.0002720292
38	0xba03412e	-0.0005006966
39	0x38d9474f	0.000103606486
40	0x00000000	0.0
41	0x00000000	0.0
42	0x38fff470	0.000122048776
43	0x39bea944	0.00036365737
44	0x38063b4b	3.200331e-05
45	0xb7a12e7a	-1.9214338e-05
46	0x397b3a69	0.00023958985
47	0x377d4920	1.5097001e-05
48	0x399177fa	0.00027745945
49	0x39283078	0.00016039785
50	0x3a4110a1	0.00073648436
51	0x38ee7c3d	0.000113718655
52	0x00000000	0.0
53	0x00000000	0.0
54	0x38f6f7a7	0.00011776323
55	0x3a7656bc	0.00093970797
56	0xb706f721	-8.044562e-06
57	0x37c67044	2.3655717e-05
58	0x3a90d5d5	0.0011050055
59	0x37274049	9.968943e-06
60	0xb96cbe2c	-0.00022577558
61	0xb994572b	-0.00028293705
62	0xba828a17	-0.0009959367
63	0xb7fd6ac9	-3.0209676e-05
64	0x00000000	0.0
65	0x00000000	0.0
66	0xb9150b62	-0.00014213988
67	0xbab0780f	-0.0013463515
68	0x354522a8	7.343865e-07
69	0xb9703b12	-0.00022910189
70	0xbad6b134	-0.0016379715
71	0xb702ce38	-7.796618e-06
72	0xbaea6cd0	-0.0017885212
73	0xbad484f7	-0.0016213943
74	0xbb7a65d9	-0.0038207679
75	0xba490e14	-0.00076696393
76	0x00000000	0.0
77	0x00000000	0.0
78	0xb981131b	-0.00024619032
79	0xbaeea7f0	-0.0018208008
80	0x380b6e48	3.324289e-05
81	0x39007d02	0.000122536
82	0xbb5d08a2	-0.003372707
83	0x38b16191	8.458191e-05
84	0x39da3629	0.00041620553
85	0x390a69f7	0.0001320018
86	0x3a46be4d	0.00075814576
87	0x3908f18b	0.00013059952
88	0x00000000	0.0
89	0x00000000	0.0
90	0x3758ffe9	1.2934187e-05
91	0xb984a9be	-0.0002530347
92	0xb75d47cb	-1.3189342e-05
93	0xb8bb3dde	-8.9283785e-05
94	0x3a51825d	0.0007992143
95	0xb8cf0da6	-9.8730714e-05
96	0x3a6606ea	0.0008774834
97	0x3a4a4a78	0.0007716785
98	0x3b122b96	0.0022303811
99	0x3a016959	0.00049366575
100	0x00000000	0.0
101	0x00000000	0.0
102	0x391d1cb3	0.00014983378
103	0x3aae7996	0.0013311382
104	0xb62a571f	-2.5382685e-06
105	0x364e9a68	3.0786268e-06
106	0x3b03fe10	0.0020140447
107	0xb802de6f	-3.1201573e-05
108	0x38fda896	0.00012095382
109	0x38be598e	9.076587e-05
110	0x3a313d84	0.00067611807
111	0x38d0c34d	9.9545905e-05
112	0x00000000	0.0
113	0x00000000	0.0
114	0x392e1d6d	0.00016604895
115	0x3a86acf2	0.001027493
116	0xb6b53773	-5.4006755e-06
117	0x38834d43	6.260958e-05
118	0x3a7d8da8	0.00096722925
119	0x361674aa	2.241965e-06
120	0x3a61bb74	0.00086110015
121	0x3a6f8a92	0.0009137775
122	0x3b34dd8c	0.0027597873
123	0x3a9e4505	0.0012075013
124	0x00000000	0.0
125	0x00000000	0.0
126	0x3983709f	0.00025070176
127	0x3b38f6a2	0.0028223176
128	0x36802bec	3.8198104e-06
129	0x38bbbdf2	8.952235e-05
130	0x3b091adb	0.0020920548
131	0x389f8c19	7.607806e-05
132	0x3abce4fb	0.0014411503
133	0x3ab20ad1	0.0013583546
134	0x3b62f8f9	0.0034633263
135	0x3a35f59c	0.00069412007
136	0x00000000	0.0
137	0x00000000	0.0
138	0x392f206b	0.00016701377
139	0x3b01b486	0.0019791438
140	0xb78bd452	-1.666896e-05
141	0x39744a8f	0.00023297429
142	0x3b49ef07	0.0030812637
143	0xb8986be3	-7.26802e-05
144	0x39b0b5ee	0.00033704884
145	0x396f1478	0.00022800441
146	0x3a91147f	0.001106873
147	0x39699b00	0.00022278354
148	0x00000000	0.0
149	0x00000000	0.0
150	0x39248999	0.00015691518
151	0x3a9b53ff	0.0011850594
152	0x3789b246	1.6414688e-05
153	0x3867efea	5.529813e-05
154	0x3ad18143	0.0015983958
155	0xb6e55641	-6.834773e-06
156	0xb856e651	-5.1236075e-05
157	0x38a7bb23	7.9980375e-05
158	0x388eb4f4	6.804793e-05
159	0x3900197d	0.00012216526
160	0x00000000	0.0
161	0x00000000	0.0
162	0x384941e2	4.7983493e-05
163	0x39e4184f	0.0004350566
164	0x3634e3cb	2.6954683e-06
165	0x38c1b251	9.236171e-05
166	0x387421aa	5.8205485e-05
167	0x37c15e9e	2.3051452e-05
168	0xba8f5373	-0.0010934904
169	0xba76c433	-0.0009413391
170	0xbb03d66d	-0.0020116821
171	0xbaac4e69	-0.0013145927
172	0x00000000	0.0
173	0x00000000	0.0
174	0x391f71d5	0.00015205827
175	0xb990d374	-0.00027623365
176	0xb80c9d0c	-3.3524862e-05
177	0x379e69ad	1.8884277e-05
178	0xba967f3f	-0.0011482014
179	0x38b3d640	8.575292e-05
180	0x3a481514	0.00076325354
181	0x3a0d2ee4	0.00053857104
182	0x3b1c45a0	0.002384521
183	0x3a212588	0.0006147255
184	0x00000000	0.0
185	0x00000000	0.0
186	0x38df8bba	0.00010659495
187	0x3afef1c2	0.0019450712
188	0x378531d9	1.5878048e-05
189	0x390ed62a	0.00013621958
190	0x3b3935d7	0.002826085
191	0xb72e253c	-1.03798775e-05
192	0x39c99f63	0.0003845646
193	0x39591cf6	0.00020705521
194	0x3a472b33	0.0007597685
195	0xba320d46	-0.0006792139
196	0x00000000	0.0
197	0x00000000	0.0
198	0xb99d7c56	-0.0003003801
199	0xba4d7473	-0.00078374817
200	0xb7f5b87e	-2.9292187e-05
201	0x392c6cf2	0.00016443784
202	0x3aa6330b	0.0012680007
203	0xb89b3a87	-7.4018775e-05
204	0xba2d8019	-0.00066185143
205	0xba80b26a	-0.0009818797
206	0xbaf90c1a	-0.0019000799
207	0xba1e40ef	-0.00060368975
208	0x00000000	0.0
209	0x00000000	0.0
210	0xb9e6466a	-0.0004392148
211	0xbb099827	-0.002099523
212	0xb66d3356	-3.5345633e-06
213	0xb911a38c	-0.00013889204
214	0xbabdad29	-0.0014471161
215	0xb7d471aa	-2.5325298e-05
216	0x39807946	0.00024504418
217	0x39e991c7	0.00044549836
218	0x3a8f31c9	0.0010924871
219	0x39b0c6f8	0.0003371758
220	0x00000000	0.0
221	0x00000000	0.0
222	0x3926cb00	0.00015906617
223	0x3a3cab3c	0.0007197147
224	0x35bc519e	1.4030845e-06
225	0x394a97f6	0.00019320831
226	0x3a50ba84	0.00079623633
227	0xb87d7dc1	-6.0437018e-05
228	0xba61741e	-0.00086003717
229	0xba6a521f	-0.00089386286
230	0xbb3d6ad8	-0.0028902795
231	0xba1f2b6f	-0.0006071841
232	0x00000000	0.0
233	0x00000000	0.0
234	0xba13d38f	-0.00056391297
235	0xbb72cc38	-0.0037047993
236	0xb68ef597	-4.26052e-06
237	0xb94d7268	-0.00019592943
238	0xbb70a160	-0.003671728
239	0xb85a245e	-5.200912e-05
240	0x3997a9ac	0.0002892738
241	0x39462f4f	0.00018900375
242	0x3a7be63b	0.0009609197
243	0x390cc9d5	0.00013426629
244	0x00000000	0.0
245	0x00000000	0.0
246	0x391e133d	0.00015075221
247	0x3aa0cd91	0.0012268295
248	0xb2b7885a	-2.136601e-08
249	0x381d414f	3.749254e-05
250	0x3acabcff	0.0015467702
251	0x37568092	1.2785329e-05
252	0xbb2d5cc8	-0.0026453007
253	0xbb1b28d7	-0.0023675465
254	0xbbe1cde6	-0.006891
255	0xba8e4986	-0.0010855652

exp_avg_sq f4 [24, 12]
0	0x36a7da6c	5.0024155e-06
1	0x36d064d2	6.21062e-06
2	0x3841295a	4.6053297e-05
3	0x37122146	8.710025e-06
4	0x00000000	0.0
5	0x00000000	0.0
6	0x368b8a38	4.1586136e-06
7	0x3977b1f7	0.00023622053
8	0x3306de21	3.140133e-08
9	0x348c8767	2.617555e-07
10	0x38db3175	0.00010451946
11	0x35165a24	5.6010526e-07
12	0x376833d1	1.3840342e-05
13	0x3731dd5c	1.0601561e-05
14	0x38e02990	0.00010688894
15	0x3774ff8f	1.4603035e-05
16	0x00000000	0.0
17	0x00000000	0.0
18	0x34be67c9	3.5465771e-07
19	0x38754759	5.8479e-05
20	0x2fea6c18	4.2641157e-10
21	0x34189c91	1.4213062e-07
22	0x38a6344c	7.925238e-05
23	0x31e09413	6.536092e-09
24	0x37a00f51	1.9080619e-05
25	0x37500abc	1.2400265e-05
26	0x38c50937	9.3954084e-05
27	0x36dc06df	6.557311e-06
28	0x00000000	0.0
29	0x00000000	0.0
30	0x352016f0	5.9638023e-07
31	0x387cfef7	6.0318936e-05
32	0x2febc191	4.2883788e-10
33	0x3523ce3b	6.1022337e-07
34	0x38b568cd	8.650273e-05
35	0x330adbb1	3.2330437e-08
36	0x384fb905	4.952496e-05
37	0x38384b12	4.3938933e-05
38	0x39f37187	0.00046433156
39	0x38657783	5.470916e-05
40	0x00000000	0.0
41	0x00000000	0.0
42	0x374fe198	1.2390687e-05
43	0x3a861692	0.0010230115
44	0x33068ed0	3.1329193e-08
45	0x3581c326	9.668045e-07
46	0x3a308e71	0.00067350926
47	0x35c8b6c6	1.4954355e-06
48	0x37939edb	1.7597738e-05
49	0x37b38841	2.1401911e-05
50	0x392f793f	0.00016734468
51	0x378be3b6	1.6676127e-05
52	0x00000000	0.0
53	0x00000000	0.0
54	0x369aaffe	4.610046e-06
55	0x39ac3af2	0.00032850314
56	0x330d4717	3.2893777e-08
57	0x350dcd56	5.2825396e-07
58	0x396245b4	0.00021579006
59	0x3502c57e	4.871616e-07
60	0x3898e800	7.291138e-05
61	0x38a17e3a	7.70059e-05
62	0x3a12d917	0.0005601807
63	0x387d4a27	6.038896e-05
64	0x00000000	0.0
65	0x00000000	0.0
66	0x3612318b	2.1784533e-06
67	0x39ad15e6	0.00033013447
68	0x342425ae	1.5287398e-07
69	0x368547f3	3.972085e-06
70	0x39b52218	0.00034548412
71	0x3524e974	6.143448e-07
72	0x383f2977	4.5576566e-05
73	0x3880a3ce	6.1340266e-05
74	0x3a09fb8b	0.0005263618
75	0x392111f1	0.0001536084
76	0x00000000	0.0
77	0x00000000	0.0
78	0x3836c368	4.3574168e-05
79	0x3ace5b15	0.0015743697
80	0x3609e73d	2.054919e-06
81	0x387aaf20	5.9767743e-05
82	0x3a39e43a	0.00070911983
83	0x3785f418	1.59685e-05
84	0x382469c1	3.9199138e-05
85	0x380dbce4	3.3792938e-05
86	0x39873c95	0.00025794344
87	0x38316d29	4.230175e-05
88	0x00000000	0.0
89	0x00000000	0.0
90	0x36f23d44	7.2192943e-06
91	0x3a147b2e	0.0005664107
92	0x33f923ea	1.1601499e-07
93	0x355e8668	8.289703e-07
94	0x397d994e	0.0002418507
95	0x3632654b	2.6583027e-06
96	0x378b48d9	1.6604014e-05
97	0x37882505	1.6229702e-05
98	0x39170d08	0.00014405337
99	0x3713d94e	8.812478e-06
100	0x00000000	0.0
101	0x00000000	0.0
102	0x36810fbc	3.8463313e-06
103	0x395a6ef0	0.00020831428
104	0x31c0312e	5.5935265e-09
105	0x34d75935	4.0111777e-07
106	0x393d4496	0.00018049995
107	0x34212e09	1.5011041e-07
108	0x36d51b51	6.3510747e-06
109	0x3710aeb1	8.623742e-06
110	0x38733a85	5.7990215e-05
111	0x37f77b5e	2.9502142e-05
112	0x00000000	0.0
113	0x00000000	0.0
114	0x35deb06c	1.6591634e-06
115	0x38ad0464	8.250101e-05
116	0x3327015b	3.888395e-08
117	0x34d1a0e0	3.9046336e-07
118	0x38276991	3.991422e-05
119	0x33e3a415	1.06003576e-07
120	0x39748bd9	0.0002332175
121	0x3993737f	0.00028124076
122	0x3ad76de5	0.0016435949
123	0x39da235f	0.00041606554
124	0x00000000	0.0
125	0x00000000	0.0
126	0x3854b71d	5.0715276e-05
127	0x3b497e49	0.0030745438
128	0x34e29970	4.220742e-07
129	0x360371b2	1.95867e-06
130	0x3ac2aa33	0.0014851749
131	0x36ab967d	5.1137163e-06
132	0x38ef35d7	0.000114064365
133	0x38faa940	0.00011952454
134	0x3a14fbb9	0.00056832616
135	0x392a8074	0.00016260316
136	0x00000000	0.0
137	0x00000000	0.0
138	0x37a520fa	1.9684889e-05
139	0x3abc813c	0.0014381777
140	0x34a4dd4c	3.0708395e-07
141	0x37228fdb	9.689446e-06
142	0x3a019213	0.0004942726
143	0x36d81d5c	6.4407195e-06
144	0x389f6f2c	7.602418e-05
145	0x384dd882	4.9077447e-05
146	0x39a387d4	0.00031190983
147	0x3824f5b5	3.932948e-05
148	0x00000000	0.0
149	0x00000000	0.0
150	0x3671d849	3.6037693e-06
151	0x38e985c4	0.000111352216
152	0x33ef78dc	1.1151289e-07
153	0x358c7b75	1.0466744e-06
154	0x38c71874	9.493614e-05
155	0x3591d9df	1.0866751e-06
156	0x381611fb	3.5779532e-05
157	0x381c2eb5	3.7236798e-05
158	0x39941b82	0.00028249255
159	0x37e569c5	2.734818e-05
160	0x00000000	0.0
161	0x00000000	0.0
162	0x3536b30d	6.8060837e-07
163	0x391b8403	0.0001483113
164	0x324ad904	1.1807291e-08
165	0x360de03b	2.1141157e-06
166	0x394f4cd7	0.00019769683
167	0x33cd95e8	9.573324e-08
168	0x392ee64b	0.00016679724
169	0x391cea72	0.00014964657
170	0x3a6b7f54	0.0008983512
171	0x39879ca9	0.00025865927
172	0x00000000	0.0
173	0x00000000	0.0
174	0x381a3e44	3.677445e-05
175	0x3b27ac5b	0.002558491
176	0x35a26952	1.2100593e-06
177	0x37ab6a62	2.0434327e-05
178	0x3a75e55f	0.0009380187
179	0x3764c6db	1.3636159e-05
180	0x36ea43b0	6.9816233e-06
181	0x370d42e0	8.4198255e-06
182	0x38565af3	5.110628e-05
183	0x36fd8c53	7.5563235e-06
184	0x00000000	0.0
185	0x00000000	0.0
186	0x35be76f3	1.4190722e-06
187	0x38dfa146	0.00010663508
188	0x3214a84d	8.653001e-09
189	0x34a4c086	3.068746e-07
190	0x389ab5a0	7.3771225e-05
191	0x3468d54e	2.1684284e-07
192	0x37b77dbd	2.1873851e-05
193	0x3820a9a6	3.830497e-05
194	0x399d14de	0.0002996092
195	0x38226678	3.871924e-05
196	0x00000000	0.0
197	0x00000000	0.0
198	0x378fd927	1.7148048e-05
199	0x3aa8333c	0.0012832652
200	0x33de1348	1.0341188e-07
201	0x3613fe10	2.205259e-06
202	0x3a213e33	0.0006150931
203	0x363eb258	2.8416016e-06
204	0x38105102	3.440772e-05
205	0x383e824d	4.5420882e-05
206	0x3947f3bc	0.00019068917
207	0x388d05da	6.724494e-05
208	0x00000000	0.0
209	0x00000000	0.0
210	0x37779acf	1.4758391e-05
211	0x3a452833	0.0007520944
212	0x352ab4ae	6.359286e-07
213	0x375896f3	1.2909749e-05
214	0x396d80e4	0.00022650097
215	0x36a61690	4.949812e-06
216	0x38415813	4.609681e-05
217	0x38364621	4.3457494e-05
218	0x39b722b6	0.00034930342
219	0x382ba0e8	4.0919433e-05
220	0x00000000	0.0
221	0x00000000	0.0
222	0x3764eb27	1.364461e-05
223	0x3a169ae1	0.00057451247
224	0x352e1fbd	6.4866236e-07
225	0x3699641d	4.57141e-06
226	0x3965a27d	0.00021899673
227	0x36aa60dc	5.0776707e-06
228	0x38c607c1	9.44282e-05
229	0x391fd232	0.00015241725
230	0x3a96fe23	0.001151983
231	0x38d27ef8	0.0001003723
232	0x00000000	0.0
233	0x00000000	0.0
234	0x383bd8e7	4.478628e-05
235	0x3b7505c9	0.0037387481
236	0x33d0afd5	9.7177384e-08
237	0x36ef1a92	7.1258482e-06
238	0x3aed1762	0.0018088634
239	0x36c1d9aa	5.7771877e-06
240	0x373e0d21	1.1327939e-05
241	0x378967e6	1.6380054e-05
242	0x38fc84a9	0.00012041006
243	0x373dba46	1.1308648e-05
244	0x00000000	0.0
245	0x00000000	0.0
246	0x3603e003	1.9650913e-06
247	0x39515ec9	0.00019967103
248	0x341f8603	1.4856782e-07
249	0x35f13bc1	1.797329e-06
250	0x39044775	0.00012615121
251	0x34e6273b	4.2869382e-07
252	0x38cdc4c8	9.811815e-05
253	0x38cdb07a	9.808033e-05
254	0x3a3f8953	0.00073065347
255	0x38e07e2e	0.00010704655

exp_avg f4 [12]
0	0xbb4af410	-0.0030968226
1	0x3b79b9fa	0.0038105235
2	0xbc74b234	-0.014935065
3	0xb9f8a129	-0.0004742232
4	0x00000000	0.0
5	0x00000000	0.0
6	0x382ba43b	4.092253e-05
7	0x3c5e73be	0.0135774
8	0x39a1a6b2	0.0003083251
9	0x3a819d75	0.0009888845
10	0xb993ec88	-0.00028214254
11	0x39b0454d	0.0003362097
