Model/epoch50/Model_all/modelall.ckpt (torch_old, 286074 bytes, 464 tensors)

exp_avg f4 [72]
0.0024101483 -0.0025165272 -0.00034880085 0.00733243 0.0030609271 0.00071667886 0.0060125273 0.006293107
-0.0026069998 0.020795533 0.014574889 -0.003155869 -0.0063993307 -0.0033300098 -0.0043148343 0.0025998252
0.002429099 -0.0012266214 -0.0004592364 0.0011314874 -0.0019987642 0.00060906203 0.0004930147 -0.0018114562
-0.0024690793 -0.0006482292 -8.0303806e-05 0.0045174765 0.0036837112 0.0024417317 0.0024990102 -0.0036455
0.002786571 0.0007346571 0.001275033 0.0013836435 -3.6161837e-05 -0.0011450101 0.0010199442 -0.006814168
-0.0036095497 0.00028686188 0.018178064 0.013974979 -0.002352101 0.01300026 0.0037843122 0.000535257
-0.002185829 -0.00099896 0.00022037703 0.00020801893 -0.0013120717 7.207805e-05 -0.0074265925 -0.005253942
0.0042269044 -0.0017796659 -0.0014828608 0.00023757241 0.00062954804 -0.00044970211 -0.0033519669 0.0016365929
-4.631683e-05 -0.00028259936 0.0034879819 0.0005084385 0.0044626277 0.007849232 0.0012061278 0.0063847145
00000000: 94f3 1d3b 52ec 24bb 42df b6b9 e244 f03b
00000010: d699 483b 81df 3b3a bc04 c53b 6836 ce3b
00000020: 33da 2abb 655b aa3c 84cb 6e3c b2d2 4ebb
00000030: 7ab1 d1bb 4b3c 5abb 7463 8dbb d461 2a3b
00000040: 8531 1f3b 96c6 a0ba abc5 f0b9 6b4e 943a
00000050: b3fd 02bb 76a9 1f3a a83d 013a 626e edba
00000060: 47d0 21bb eded 29ba c768 a8b8 5707 943b
00000070: 6b6a 713b 7605 203b 6fc6 233b 57e9 6ebb
00000080: e79e 363b 0196 403a 021f a73a 5f5b b53a
00000090: 7aac 17b8 2a14 96ba a6af 853a 6249 dfbb
000000a0: 328e 6cbb f365 9639 2aea 943c 4ff7 643c
000000b0: b525 1abb 0bff 543c 3902 783b 7d50 0c3a
000000c0: 2040 0fbb 89ef 82ba 0215 6739 a81f 5a39
000000d0: d2f9 abba 9c28 9738 c65a f3bb 4329 acbb
000000e0: d881 8a3b ae43 e9ba 8d5c c2ba dc1c 7939
000000f0: 4108 253a ffc5 ebb9 acac 5bbb f282 d63a
00000100: 5144 42b8 d829 94b9 a096 643b bb48 053a
00000110: 3c3b 923b 119a 003c ef16 9e3a de36 d13b

exp_avg_sq f4 [72]
0.0034394986 0.00037447477 0.002787122 0.0003175613 0.00012482362 0.00010181261 0.00072389626 0.0033342578
0.0017622857 0.002058163 0.008715963 0.0028334314 0.0056748018 0.0004653306 0.0061451998 0.0010910869
6.881221e-05 0.00013383225 0.00020554346 3.1841602e-05 0.00013781388 0.001125283 0.00032023524 0.0005603952
0.0009105387 0.00017739109 0.00017904029 0.0013605658 0.001148467 0.00022017254 0.0025416706 0.0035926343
0.0010839106 0.0005469719 0.0006838897 0.000263391 0.0021107646 0.0006720936 6.314123e-05 0.0014149293
0.00018603714 0.0022914805 0.030643497 0.008981005 0.002315296 0.0014023812 0.00033337768 7.723094e-05
0.0002935772 0.00023237026 7.361446e-05 0.00025945855 2.6195732e-05 0.00012728437 0.010395576 0.0088595655
0.0011064854 0.00030249683 2.4490495e-05 9.714526e-05 0.0007330599 4.0264134e-05 0.0016752008 0.00010833865
4.3285276e-05 0.00044826008 0.00046810167 0.00013162731 0.0019518475 0.0064064674 0.00063774176 0.0046055387
00000000: 3669 613b 2755 c439 26a8 363b 5b7e a639
00000010: 16e3 0239 3b84 d538 dbc3 3d3a 9083 5a3b
00000020: 7ffc e63a 3fe2 063b 66cd 0e3c 17b1 393b
00000030: b0f3 b93b 9ef7 f339 ac5d c93b cd02 8f3a
00000040: 464f 9038 5255 0c39 2787 5739 a98d 0538
00000050: 2282 1039 3b7e 933a 3fe5 a739 7ce7 123a
00000060: 38b1 6e3a 0f02 3a39 c3bc 3b39 0355 b23a
00000070: 2888 963a 1ede 6639 2892 263b 6772 6b3b
00000080: 0112 8e3a aa62 0f3a 1047 333a be17 8a39
00000090: c154 0a3b 702f 303a b16a 8438 2675 b93a
000000a0: f712 4339 aa2c 163b 1208 fb3c 1125 133c
000000b0: 39bc 173b 1bd0 b73a 32c9 ae39 0cf7 a138
000000c0: 44eb 9939 6ba8 7339 7661 9a38 f007 8839
000000d0: e8be db37 a377 0539 3552 2a3c b627 113c
000000e0: 7d07 913a 7098 9e39 f070 cd37 77ba cb38
000000f0: d12a 403a 49e1 2838 6992 db3a df33 e338
00000100: 368d 3538 7304 eb39 8b6b f539 7005 0a39
00000110: 22d5 ff3a 58ed d13b 202e 273a 0fea 963b

exp_avg f4 [24]
-0.0004551795 0.011110038 0.009698633 0.032214552 -0.014044176 0.0038023042 -0.0013265131 -0.0007093816
-0.0031976115 0.010642918 0.0016400832 0.0033933322 -0.00016122941 -0.010136851 0.029800944 0.017319826
-0.0029644119 -0.001031976 -0.008453635 -0.0030249553 -0.00317212 0.0013076762 0.008459048 0.015440074
00000000: 29a5 eeb9 e006 363c 04e7 1e3c 68f3 033d
00000010: 8b19 66bc 1430 793b 65de adba cbf5 39ba
00000020: 058f 51bb a25f 2e3c 0ff8 d63a ab62 5e3b
00000030: b10f 29b9 0915 26bc 1c21 f43c 4fe2 8d3c
00000040: 9446 42bb 5e43 87ba 1d81 0abc 543e 46bb
00000050: 58e3 4fbb 5566 ab3a d297 0a3c 5df8 7c3c

exp_avg_sq f4 [24]
0.0020757916 0.0012320052 0.0021927399 0.009379775 0.027286148 0.0011986719 0.0007249859 0.0050860806
0.0023442726 0.006968389 0.01912136 0.0016100156 0.0055848453 0.005612753 0.095257126 0.0029121535
0.00070510147 0.00073504227 0.029300462 0.0008153412 0.0046133283 0.00069429644 0.0019928748 0.026182229
00000000: 010a 083b 3c7b a13a 12b4 0f3b a1ad 193c
00000010: 3387 df3c c11c 9d3a fb0c 3e3a 23a9 a63b
00000020: 5ea2 193b 1557 e43b 66a4 9c3c 2907 d33a
00000030: 1401 b73b 2feb b73b 2b16 c33d d4d9 3e3b
00000040: 8fd6 383a daaf 403a 8607 f03c 9fbc 553a
00000050: 672b 973b 7201 363a e49a 023b 1d7c d63c

exp_avg f4 [12, 12]
-4.656237e-07 -2.9337989e-05 -0.00035433812 -0.0010940771 -0.0015336087 -0.0013241438 -0.00087348174 -0.00018596525
0.00011710149 0.00019105124 0.000114283284 0.00011413853 1.4424705e-05 7.302018e-05 7.38404e-05 0.0004870127
0.0006350958 0.00035505218 0.00014013487 7.717274e-06 -2.1516341e-06 -2.5957142e-05 -5.9331534e-05 -5.3754648e-05
0.0 0.0 0.0 0.0 0.0 0.0 0.0 0.0
0.0 0.0 0.0 0.0 -1.2415189e-05 -8.4737476e-05 -0.00022082953 -0.00017106756
-0.00010847024 -0.00080072216 -0.0012705477 -0.001177819 -0.000721302 -0.0002646774 -0.00011468057 -6.86963e-05
4.072353e-06 2.05691e-05 0.00017557481 0.0015657552 0.003278375 0.003479964 0.002347324 0.0012179991
0.0004642706 0.00012327006 4.6667268e-05 3.707731e-05 3.0285155e-05 0.00030878925 0.0008367941 0.001286771
0.0018547293 0.0020585484 0.0018441603 0.0010303167 0.00023502659 2.406096e-05 -5.077227e-06 -1.1132145e-05
-1.8023889e-06 -7.11721e-05 -0.00025753965 -8.470183e-05 -2.5062875e-06 -6.5678734e-09 -1.4805407e-12 -2.68398e-17
-3.0792255e-23 1.9669876e-30 2.4559173e-37 -4e-45 1.622207e-05 0.00010514865 0.00013896472 0.00028023662
0.0006614057 0.0005589344 -0.00012157306 -0.00021154825 4.6117697e-05 4.807627e-05 2.4528881e-05 2.4075503e-05
3.1845936e-08 6.2490435e-06 0.00014317907 0.0004497763 0.00020979732 1.2996198e-05 9.104574e-08 6.528547e-11
4.564621e-15 3.0411415e-20 1.9088412e-26 1.1220271e-33 0.0 0.0 0.0 0.0
0.0 0.0 0.0 0.0 0.0 0.0 0.0 0.0
-1.5715497e-05 -8.3612824e-05 -0.00012248608 -0.0004152103 -0.00046827874 -0.0008177682 -0.00030069042 -6.656362e-05
-2.3076402e-05 -8.4284835e-07 -7.7619296e-07 -9.956289e-06 1.9440415e-26 3.7878574e-20 7.0236654e-15 1.2552659e-10
2.2115185e-07 4.0129027e-05 0.0008243454 0.0023851222 0.0015410625 0.00036591748 2.4261575e-05 2.462014e-07
00000000: d6fa f9b4 da1a f6b7 75c6 b9b9 2367 8fba
00000010: 5e03 c9ba e58e adba 5efa 64ba abff 42b9
00000020: 6294 f538 ed54 4839 5fab ef38 a85d ef38
00000030: a301 7237 6922 9938 c3da 9a38 bd55 ff39
00000040: 8f7c 263a 4c26 ba39 2bf1 1239 7079 0137
00000050: cb64 10b6 8abe d9b7 c0da 78b8 9d76 61b8
00000060: 0000 0000 0000 0000 0000 0000 0000 0000
00000070: 0000 0000 0000 0000 0000 0000 0000 0000
00000080: 0000 0000 0000 0000 0000 0000 0000 0000
00000090: d54a 50b7 16b5 b1b8 7a8e 67b9 9960 33b9
000000a0: 847a e3b8 8ee7 51ba 8288 a6ba 0c61 9aba
000000b0: c215 3dba 66c4 8ab9 aa80 f0b8 0c11 90b8
000000c0: 3fa5 8836 ce8b ac37 811a 3839 073a cd3a
000000d0: 01da 563b 1c10 643b 90d5 193b 45a5 9f3a
000000e0: 5869 f339 0e42 0139 99bc 4338 7583 1b38
000000f0: e00c fe37 fee4 a139 4d5c 5b3a dfa8 a83a
00000100: 631a f33a b6e8 063b c0b7 f13a b10b 873a
00000110: 7871 7639 85d6 c937 0c5d aab6 33c4 3ab7
00000120: 9ce9 f1b5 3b42 95b8 6306 87b9 f3a1 b1b8
00000130: b131 28b6 a0ab e1b1 1a5e d0ab b08d f7a3
00000140: f7e6 149a bc94 1f0e 1d24 a702 0300 0080
00000150: a114 8837 4083 dc38 0fb7 1139 b9ec 9239
00000160: 2f62 2d3a 7485 123a 0af5 feb8 0dd3 5db9
00000170: 806e 4138 80a5 4938 5fc3 cd37 c0f5 c937
00000180: fac6 0833 e0ae d136 5722 1639 f4cf eb39
00000190: 0afd 5b39 3f0a 5a37 ed84 c333 7490 8f2e
000001a0: 3375 a427 259d 0f1f e00a bd14 c16d ba08
000001b0: 0000 0000 0000 0000 0000 0000 0000 0000
000001c0: 0000 0000 0000 0000 0000 0000 0000 0000
000001d0: 0000 0000 0000 0000 0000 0000 0000 0000
000001e0: c6d4 83b7 4b59 afb8 9b6f 00b9 95b0 d9b9
000001f0: 4f83 f5b9 7f5f 56ba fca5 9db9 1298 8bb8
00000200: 3294 c1b7 1940 62b5 935b 50b5 f009 27b7
00000210: 4f87 c014 63e0 321f e10d fd27 9804 0a2f
00000220: c275 6d34 3750 2838 e218 583a b64f 1c3b
00000230: 7afd c93a 9dd8 bf39 5685 cb37 aa2d 8434

exp_avg_sq f4 [12, 12]
2.9496738e-10 9.026503e-07 6.104416e-05 0.00039614705 0.0011435071 0.0014705773 0.00048203726 1.0459997e-05
2.9744424e-06 1.0941923e-05 4.250384e-06 1.1977767e-06 1.7627029e-08 1.129819e-06 4.257341e-06 1.4511621e-05
1.6304848e-05 2.4412106e-05 5.159848e-06 2.7147752e-08 2.069699e-10 1.9928052e-08 4.9158157e-08 1.7357408e-08
0.0 0.0 0.0 0.0 0.0 0.0 0.0 0.0
0.0 0.0 0.0 0.0 3.521045e-07 2.2121443e-05 0.00015234252 0.00041438834
0.00025504126 0.0006987722 0.0006717435 0.00018453611 3.9574265e-05 4.905716e-06 6.400571e-07 1.4747584e-07
1.0769885e-09 1.6826966e-08 1.1373734e-06 7.877708e-05 0.00037740488 0.0006719205 0.00059688196 0.00016875438
2.2056654e-05 1.9104966e-06 1.7944868e-07 4.3999773e-08 1.8863838e-07 1.4389547e-05 6.589686e-05 0.00015537655
0.00039000588 0.00051908934 0.00032283887 6.0436378e-05 2.214649e-06 6.547953e-07 2.6946591e-07 3.124901e-08
9.2416463e-10 1.929095e-06 3.7569058e-05 6.7435453e-06 1.1029701e-08 1.6278217e-13 2.1507542e-20 2.5284006e-29
2.63216e-40 0.0 0.0 0.0 2.1751417e-07 1.7623413e-05 8.764937e-05 0.00025749704
0.0006801359 0.0006933736 0.00022084986 2.5349205e-05 3.4183897e-06 6.6254586e-07 1.7806634e-07 6.3769654e-08
9.653459e-14 4.3644843e-09 3.3632878e-06 5.608916e-05 1.7112245e-05 6.943899e-08 3.0944843e-12 1.3835081e-18
5.9181743e-27 2.352614e-37 0.0 0.0 0.0 0.0 0.0 0.0
0.0 0.0 0.0 0.0 0.0 0.0 0.0 0.0
6.7868285e-07 3.4172164e-05 4.762899e-05 0.00014017623 0.0003408248 0.0024151942 0.0018697808 0.00023898068
3.4004831e-06 1.4917231e-09 1.5054019e-10 1.5846052e-08 0.0 7.010174e-38 2.5330973e-27 8.4655856e-19
2.719521e-12 9.0405884e-08 3.652946e-05 0.00026766412 9.176331e-05 4.2324177e-06 1.51729e-08 1.3153629e-12
00000000: f828 a22f a84d 7235 d504 8038 f5b1 cf39
00000010: bbe1 953a 63c0 c03a f2b9 fc39 587d 2f37
00000020: 889c 4736 3493 3737 859e 8e36 4bc3 a035
00000030: 3f6a 9732 49a4 9735 48da 8e36 f076 7337
00000040: 65c6 8837 99c8 cc37 c222 ad36 8a32 e932
00000050: d990 632f 402e ab32 f721 5333 5819 9532
00000060: 0000 0000 0000 0000 0000 0000 0000 0000
00000070: 0000 0000 0000 0000 0000 0000 0000 0000
00000080: 0000 0000 0000 0000 0000 0000 0000 0000
00000090: e008 bd34 7091 b937 22be 1f39 4342 d939
000000a0: 0fb7 8539 cf2d 373a f117 303a 0980 4139
000000b0: 8bfc 2538 c89b a436 64d0 2b35 da59 1e34
000000c0: 2a05 9430 e48a 9032 daa7 9835 1f35 a538
000000d0: 6dde c539 d223 303a 1278 1c3a a9f3 3039
000000e0: 4e06 b937 1536 0036 7aae 4034 43fa 3c33
000000f0: 868c 4a34 a26a 7137 1b32 8a38 93ec 2239
00000100: b479 cc39 7f13 083a b342 a939 117d 7d38
00000110: 619f 1436 31c5 2f35 1dab 9034 a636 0633
00000120: 4e08 7e30 9a75 0136 7893 1d38 9d46 e236
00000130: 237d 3d32 c446 372a 0c22 cb1e 8434 0010
00000140: bddd 0200 0000 0000 0000 0000 0000 0000
00000150: d78d 6934 fed5 9337 66d0 b738 ab00 8739
00000160: 264b 323a 84c3 353a ef93 6739 01a5 d437
00000170: 7d67 6536 ced9 3135 8132 3f34 bdf1 8833
00000180: 6760 d929 69f6 9531 d8b4 6136 4741 6b38
00000190: 448c 8f37 7d1e 9533 46c1 592c 752b cc21
000001a0: 6b71 ea13 511c a002 0000 0000 0000 0000
000001b0: 0000 0000 0000 0000 0000 0000 0000 0000
000001c0: 0000 0000 0000 0000 0000 0000 0000 0000
000001d0: 0000 0000 0000 0000 0000 0000 0000 0000
000001e0: bb2e 3635 1554 0f38 3dc5 4738 45fc 1239
000001f0: bbb0 b239 3c48 1e3b 6f13 f53a e396 7a39
00000200: db33 6436 5705 cd30 4c85 252f d61d 8832
00000210: 0000 0000 c8d5 be01 51b1 4813 28dc 7921
00000220: 895e 3f2c 2925 c233 3637 1938 4555 8c39
00000230: 0d71 c038 3104 8e36 8f55 8232 f11e b92b

exp_avg f4 [24, 12]
-0.0015141643 -0.00030674503 0.0 -0.0012825927 -0.00063099817 -0.0013918217 -5.4637717e-06 -0.0005440724
-7.0366965e-05 0.0 -0.00041996222 -9.860931e-05 -0.000387639 -2.1408594e-05 0.0 -0.00055697997
-0.00019124334 -0.0005008513 2.839627e-06 -0.00013522773 -1.02051e-07 0.0 -0.00028203646 -2.5769019e-05
-0.00014594498 -1.7125294e-05 0.0 -1.6652091e-05 -2.586961e-05 -5.816921e-05 1.4772212e-07 -3.492131e-05
-6.786288e-06 0.0 -2.725482e-06 8.8008403e-07 0.0011093171 0.00031187895 0.0 0.002110049
0.0011522119 0.0022577222 4.299423e-06 0.0007551435 3.4513e-05 0.0 0.00059106643 0.00028911507
-0.0019809217 -0.0004363794 0.0 -0.001817443 -0.0007070245 -0.0017442477 -5.8208097e-06 -0.0006353058
-0.00011124112 0.0 -0.0006768894 -7.0399554e-05 0.00051808817 8.707719e-05 0.0 0.0003338849
0.00011690579 0.00032102922 1.5808733e-07 0.0001399556 2.4484745e-05 0.0 0.00017738454 -2.3465288e-06
-0.0030708762 -0.0007411149 0.0 -0.003059376 -0.0021585184 -0.003992646 -1.3256698e-05 -0.0016918103
-0.00013309269 0.0 -0.0006628182 -0.0005241289 -0.00015404962 -6.771071e-05 0.0 -0.0008736065
-0.00056107243 -0.0010087721 -3.542948e-06 -0.00032515137 2.8083667e-05 0.0 -0.0002167477 -0.00017292493
0.0011116114 0.00020320645 0.0 0.00083198206 0.00033582482 0.0008474248 3.5169999e-06 0.00032185987
6.6035274e-05 0.0 0.00032672592 2.6349826e-05 0.0005868455 0.00017249481 0.0 0.0007940282
0.0003310239 0.0007615262 2.5708534e-06 0.0002706738 4.5396777e-05 0.0 0.00025110776 6.221316e-05
-0.007128104 -0.0016563968 0.0 -0.0070658103 -0.0033232376 -0.007425054 -2.6202071e-05 -0.0028648025
-0.00035479054 0.0 -0.00233466 -0.0005526646 -0.0012084679 -0.0002562219 0.0 -0.0025397867
-0.0008031588 -0.0021012141 -1.0198265e-05 -0.00053745805 -2.3364453e-05 0.0 -0.0009621556 -0.00014615493
-0.0033490097 -0.0005800953 0.0 -0.0014677328 -0.00018880657 -0.0011497063 -1.0586642e-05 -0.00048708337
-0.0001907988 0.0 -0.00080812065 0.00021408728 -0.0015003326 -0.0003232457 0.0 -0.0010181055
-0.0005883771 -0.0012354254 -6.13006e-06 -0.0005323182 -7.074092e-05 0.0 -0.00027940195 -8.989171e-05
0.0042008776 0.00088572036 0.0 0.0030348822 0.0016772776 0.0035579628 1.5886482e-05 0.0015220412
0.0002017905 0.0 0.00091613905 0.00025909088 0.0013848031 0.00032090035 0.0 0.0015391107
0.00065608986 0.0015155128 4.6920663e-06 0.00050082 8.3183026e-05 0.0 0.0005131894 0.000117815136
-0.0006381322 -0.00014517919 0.0 -0.0007931406 -0.00019987149 -0.0006298043 -3.3975662e-06 -0.00019453619
-1.7968263e-05 0.0 -0.00035168114 1.3895932e-06 -0.0042086313 -0.00089862326 0.0 -0.0025396356
-0.0007458157 -0.0023160765 -1.5568234e-05 -0.0009509376 -0.00022617665 0.0 -0.0009908619 0.000107167645
-0.0015668116 -0.0002676086 0.0 -0.0011133796 -0.00044848563 -0.0011304908 -3.345417e-06 -0.00046298472
-7.1517024e-05 0.0 -0.0004889818 -2.4616576e-05 0.0026703835 0.0005694288 0.0 0.0025548795
0.0014385869 0.002961235 1.00663365e-05 0.001170312 0.00010776203 0.0 0.00081654155 0.00030001014
-0.00264756 -0.000597228 0.0 -0.0024844587 -0.0011003393 -0.002511977 -1.17581985e-05 -0.00090747024
-0.0001355984 0.0 -0.0008095881 -0.00015809621 0.0015777353 0.0003186373 0.0 0.0009962607
00000000: ec76 c6ba 9fd2 a0b9 0000 0000 ab1c a8ba
00000010: 9269 25ba c96d b6ba 7155 b7b6 15a0 0eba
00000020: fa91 93b8 0000 0000 602e dcb9 78cc ceb8
00000030: 073c cbb9 9b96 b3b7 0000 0000 4b02 12ba
00000040: 7e88 48b9 904b 03ba 6c90 3e36 ebcb 0db9
00000050: 2127 dbb3 0000 0000 4bde 93b9 8c2a d8b7
00000060: cf08 19b9 4aa8 8fb7 0000 0000 18b0 8bb7
00000070: 9102 d9b7 b7fa 73b8 8c9d 1e34 7978 12b8
00000080: c5b5 e3b6 0000 0000 6de7 36b6 ea3e 6c35
00000090: 8166 913a af83 a339 0000 0000 bf48 0a3b
000000a0: d105 973a 4bf6 133b c343 9036 d3f4 453a
000000b0: 0dc2 1038 0000 0000 ccf1 1a3a 5e94 9739
000000c0: 5ad2 01bb dac9 e4b9 0000 0000 4437 eeba
000000d0: 9c57 39ba 3e9f e4ba 6050 c3b6 a78a 26ba
000000e0: 1f4a e9b8 0000 0000 4771 31ba 79a3 93b8
000000f0: 4fd0 073a 369d b638 0000 0000 460d af39
00000100: 512b f538 d04f a839 b7be 2934 0cc1 1239
00000110: 9764 cd37 0000 0000 4d00 3a39 0f79 1db6
00000120: c140 49bb 6147 42ba 0000 0000 d07f 48bb
00000130: ee75 0dbb bed4 82bb 1669 5eb7 bcbf ddba
00000140: cc8e 0bb9 0000 0000 fac0 2dba b265 09ba
00000150: 6188 21b9 e9ff 8db8 0000 0000 bd02 65ba
00000160: ef14 13ba c638 84ba 62c3 6db6 1479 aab9
00000170: 3795 eb37 0000 0000 c546 63b9 2f53 35b9
00000180: 7db3 913a d113 5539 0000 0000 5f19 5a3a
00000190: a511 b039 b725 5e3a 9905 6c36 4dbf a839
000001a0: 6b7c 8a38 0000 0000 694c ab39 d209 dd37
000001b0: 89d6 193a b9df 3439 0000 0000 5526 503a
000001c0: 478d ad39 28a1 473a ed86 2c36 39e9 8d39
000001d0: 6b68 3e38 0000 0000 1da7 8339 7078 8238
000001e0: df92 e9bb 741b d9ba 0000 0000 5088 e7bb
000001f0: adca 59bb de4d f3bb 85cc dbb7 69bf 3bbb
00000200: 2e03 bab9 0000 0000 1801 19bb b2e0 10ba
00000210: 7465 9eba 8555 86b9 0000 0000 8d72 26bb
00000220: 138b 52ba 86b4 09bb 3719 2bb7 33e4 0cba
00000230: c8fe c3b7 0000 0000 2b39 7cba 2a41 19b9
00000240: 0f7b 5bbb 8911 18ba 0000 0000 f160 c0ba
00000250: 61fa 45b9 beb1 96ba 489d 31b7 395f ffb9
00000260: 2a11 48b9 0000 0000 0fd8 53ba 9e7c 6039
00000270: cfa6 c4ba 4e79 a9b9 0000 0000 f471 85ba
00000280: 523d 1aba ffed a1ba d0b0 cdb6 458b 0bba
00000290: be5a 94b8 0000 0000 b27c 92b9 3f84 bcb8
000002a0: 84a7 893b b02f 683a 0000 0000 e0e4 463b
000002b0: 19d8 db3a b62c 693b f643 8537 3a7f c73a
000002c0: ba97 5339 0000 0000 0d29 703a 97d6 8739
000002d0: 4882 b53a 843e a839 0000 0000 fcbb c93a
000002e0: 72fd 2b3a 2ca4 c63a 8b70 9d36 7649 033a
000002f0: 8c72 ae38 0000 0000 8f87 063a 8513 f738
00000300: 5448 27ba 3e3b 18b9 0000 0000 c4ea 4fba
00000310: 9894 51b9 7319 25ba be01 64b6 69fc 4bb9
00000320: 8dba 96b7 0000 0000 d861 b8b9 0f82 ba35
00000330: 8fe8 89bb 9691 6bba 0000 0000 0470 26bb
00000340: d882 43ba 51c9 17bb 8798 82b7 5848 79ba
00000350: d529 6db9 0000 0000 cfdf 81ba 31bf e038
00000360: 795d cdba d14d 8cb9 0000 0000 d2ee 91ba
00000370: b922 ebb9 fa2c 94ba d481 60b6 c2bc f2b9
00000380: 69fb 95b8 0000 0000 032f 00ba b27f ceb7
00000390: 9a01 2f3b b845 153a 0000 0000 c46f 273b
000003a0: f78e bc3a 4711 423b 96e2 2837 2865 993a
000003b0: 4dfe e138 0000 0000 2d0d 563a ae4a 9d39
000003c0: b082 2dbb 4b8f 1cba 0000 0000 4dd2 22bb
000003d0: 4339 90ba fb9f 24bb 1445 45b7 4ce3 6dba
000003e0: 6b2f 0eb9 0000 0000 8a3a 54ba a1c6 25b9
000003f0: 03cc ce3a c60e a739 0000 0000 f694 823a

exp_avg_sq f4 [24, 12]
0.00023852261 7.462919e-06 0.0 1.823253e-05 6.073692e-06 3.4711626e-05 3.244125e-09 1.2277781e-05
4.3744416e-07 0.0 4.0403593e-06 1.9426497e-07 5.1784114e-05 2.5766428e-06 0.0 1.2835418e-05
1.3992039e-06 1.2843614e-05 1.009417e-09 2.7749827e-06 1.3306254e-07 0.0 2.196297e-06 5.3489607e-08
9.391128e-07 1.1244782e-07 0.0 6.687377e-07 1.3031291e-07 6.9210034e-07 4.85558e-11 1.1147624e-07
2.548634e-09 0.0 1.2324318e-07 5.1302163e-09 0.00019564196 1.7793272e-05 0.0 0.0007536842
0.0001344113 0.00066997454 2.8383882e-09 7.1489936e-05 5.206724e-07 0.0 7.736382e-05 7.0170718e-06
0.00019536397 1.3179241e-05 0.0 0.0001663116 1.5527121e-05 0.00012647214 3.4385506e-09 1.7274057e-05
6.397193e-07 0.0 2.6031192e-05 9.148871e-08 4.645337e-05 2.2986972e-06 0.0 3.207151e-06
9.2637384e-07 5.6749345e-06 1.7332127e-09 2.4118265e-06 6.557269e-08 0.0 3.243261e-07 4.27836e-08
0.0009685748 6.483378e-05 0.0 0.0022461398 0.00043844973 0.0020855688 1.2386552e-08 0.00026851226
1.7947505e-06 0.0 0.00025125136 2.1049309e-05 0.0005780826 2.5310275e-05 0.0 0.0002629909
8.0299906e-05 0.0003625611 1.2314955e-08 6.896081e-05 1.3952553e-06 0.0 2.8938233e-05 1.4692332e-06
0.00014652159 6.026177e-06 0.0 2.4099078e-05 6.7627884e-06 3.679158e-05 2.601849e-09 1.0343963e-05
3.168977e-07 0.0 3.1544862e-06 2.0524967e-08 9.971921e-05 7.312417e-06 0.0 6.016683e-05
8.571998e-06 5.8555655e-05 6.4225997e-10 8.913123e-06 4.44975e-07 0.0 8.430228e-06 7.364676e-08
0.009180944 0.0004404461 0.0 0.006331176 0.0010394993 0.0063149435 1.0996658e-07 0.0009825552
1.9239005e-05 0.0 0.00096781034 1.0997521e-05 0.0015369285 6.4538515e-05 0.0 0.000835928
0.00016453618 0.0009218047 2.0388605e-08 0.00017061715 2.7554568e-06 0.0 0.00013127491 1.5972736e-06
0.00095510576 4.5376757e-05 0.0 0.0011658233 0.0002812575 0.0012680248 1.3233301e-08 0.000185786
1.9242348e-06 0.0 0.0001392208 1.1170901e-05 8.7173816e-05 3.06757e-06 0.0 3.227107e-05
3.4107265e-06 1.6081343e-05 1.8435762e-09 1.726088e-06 2.50812e-07 0.0 4.246802e-06 8.797981e-07
0.0001976646 8.36938e-06 0.0 0.00025971897 5.071033e-05 0.00023039781 4.299602e-09 2.5201216e-05
4.8386266e-07 0.0 2.9948049e-05 4.342835e-06 0.0004354541 1.0412552e-05 0.0 1.6582913e-05
7.4822733e-06 3.431621e-05 6.5257946e-09 1.7050555e-05 9.99134e-07 0.0 2.9419969e-06 6.1610024e-07
7.814836e-05 5.125951e-06 0.0 4.1766616e-05 6.2631125e-06 3.8126218e-05 3.0015341e-09 6.2688514e-06
2.5099942e-07 0.0 6.4184055e-06 2.8325093e-07 0.003712831 0.0001093734 0.0 0.0010832031
0.00039493406 0.0016372729 2.6298137e-08 0.00035582867 5.573539e-06 0.0 0.00016998553 4.791026e-06
0.00063115655 2.643289e-05 0.0 0.00035027383 5.3327654e-05 0.00035295798 1.3257167e-08 6.190746e-05
8.746178e-07 0.0 5.9551196e-05 2.3444649e-07 0.001247327 5.8814327e-05 0.0 0.0010787395
0.00023287431 0.0011603324 1.0438627e-08 0.00017342254 2.2828892e-06 0.0 0.00014307076 5.9493814e-06
0.0013173794 3.323936e-05 0.0 0.00015442209 4.2404838e-05 0.00021087241 1.2579313e-08 6.868124e-05
2.0585446e-06 0.0 2.5932011e-05 1.5514236e-06 0.0010667581 3.544719e-05 0.0 0.00031829468
00000000: ed1b 7a39 fc69 fa36 0000 0000 0ff2 9837
00000010: 9ecc cb36 5397 1138 40ef 5e31 abfc 4d37
00000020: ded9 ea34 0000 0000 6c92 8736 2697 5034
00000030: c532 5938 63ea 2c36 0000 0000 b357 5737
00000040: 48cc bb35 e77a 5737 b4bb 8a30 d739 3a36
00000050: f4df 0e34 0000 0000 1864 1336 72bc 6533
00000060: 5717 7c35 d87a f133 0000 0000 4e83 3335
00000070: 24ec 0b34 c6c8 3935 f88c 552e b664 ef33
00000080: 0b24 2f31 0000 0000 d454 0434 dc45 b031
00000090: 3d25 4d39 c342 9537 0000 0000 e492 453a
000000a0: c2f0 0c39 3ba1 2f3a 740d 4331 deec 9538
000000b0: 56c4 0b35 0000 0000 623e a238 3074 eb36
000000c0: 9eda 4c39 691c 5d37 0000 0000 ee63 2e39
000000d0: 3d40 8237 9b9d 0439 9f4b 6c31 c1e7 9037
000000e0: 2db9 2b35 0000 0000 8f5d da37 7378 c433
000000f0: edd6 4238 5143 1a36 0000 0000 6f3a 5736
00000100: edab 7835 516b be36 0036 ee30 ddda 2136
00000110: f8d0 8c33 0000 0000 0a1f ae34 11c1 3733
00000120: f4e7 7d3a 5ff7 8738 0000 0000 f933 133b
00000130: badf e539 0aae 083b a2cc 5432 1bc7 8c39
00000140: 28e3 f035 0000 0000 63ba 8339 0c93 b037
00000150: 778a 173a 6751 d437 0000 0000 0be2 8939
00000160: af66 a838 2116 be39 bf91 5332 0e9f 9038
00000170: 9b44 bb35 0000 0000 62c0 f237 7832 c535
00000180: 97a3 1939 7734 ca36 0000 0000 6028 ca37
00000190: e9eb e236 a950 1a38 36cc 3231 fc8a 2d37
000001a0: 1722 aa34 0000 0000 a9b1 5336 e14e b032
000001b0: 5820 d138 2f5d f536 0000 0000 a45b 7c38
000001c0: 73d0 0f37 a899 7538 078b 3030 9289 1537
000001d0: e6e4 ee34 0000 0000 8e6f 0d37 bc27 9e33
000001e0: ac6b 163c adeb e639 0000 0000 c175 cf3b
000001f0: cf3f 883a 96ed ce3b c426 ec33 15c9 803a
00000200: 7363 a137 0000 0000 a7b4 7d3a fe81 3837
00000210: c372 c93a da58 8738 0000 0000 2e22 5b3a
00000220: 5887 2c39 44a5 713a 0423 af32 b1e7 3239
00000230: 63ea 3836 0000 0000 d7a6 0939 e761 d635
00000240: 1060 7a3a ec52 3e38 0000 0000 8ace 983a
00000250: be75 9339 da33 a63a ac58 6332 8dcf 4239
00000260: 1a22 0136 0000 0000 cdfb 1139 a86a 3b37
00000270: 16d1 b638 74dc 4d36 0000 0000 cc5a 0738
00000280: d6e3 6436 6ce6 8637 1261 fd30 efab e735
00000290: 57a7 8634 0000 0000 c07f 8e36 442b 6c35
000002a0: 3044 4f39 376a 0c37 0000 0000 e42a 8839
000002b0: cdb1 5438 f196 7139 b3bb 9331 3367 d337
000002c0: cae2 0135 0000 0000 f238 fb37 abb8 9136
000002d0: a94d e439 92b1 2e37 0000 0000 891b 8b37
000002e0: 3d10 fb36 c0ee 0f38 7f39 e031 ca07 8f37
000002f0: fc19 8635 0000 0000 1f6f 4536 1662 2535
00000300: 95e3 a338 95ff ab36 0000 0000 902e 2f38
00000310: ba27 d236 b7e9 1f38 8c43 4e31 0659 d236
00000320: 19c1 8634 0000 0000 af5d d736 b611 9834
00000330: f852 733b 665f e538 0000 0000 44fa 8d3a
00000340: 270f cf39 c399 d63a 37e6 e132 848e ba39
00000350: 5604 bb36 0000 0000 253e 3239 9ac2 a036
00000360: 3374 253a 33bc dd37 0000 0000 f5a4 b739
00000370: 22ac 5f38 380d b939 a3c1 6332 51d4 8138
00000380: 47c7 6a35 0000 0000 9cc6 7938 29bc 7b34
00000390: 597d a33a 67af 7638 0000 0000 7e64 8d3a
000003a0: b92f 7439 4b16 983a 9155 3332 c2d8 3539
000003b0: bd33 1936 0000 0000 4405 1639 cca0 c736
000003c0: ebab ac3a 7e6a 0b38 0000 0000 5dec 2139
000003d0: d9db 3138 a21d 5d39 671c 5832 f608 9038
000003e0: 8725 0a36 0000 0000 9288 d937 823a d035
000003f0: 76d2 8b3a 21ad 1438 0000 0000 cae0 a639

exp_avg f4 [12]
-0.0029102713 0.0009894007 0.0 -0.0031183988 0.007856267 0.005818626 -0.00025697393 0.0009813047
0.0005060218 0.0 -0.001434767 0.0031890026
00000000: 40ba 3ebb c7ae 813a 0000 0000 0d5e 4cbb
00000010: 92b7 003c 2caa be3b 75ba 86b9 1f9f 803a
00000020: 8ca6 043a 0000 0000 cb0e bcba 96fe 503b

exp_avg_sq f4 [12]
0.006598232 0.000104638966 0.0 0.0062226746 0.0036712096 0.0032578462 3.9758826e-05 0.0041490966
7.184981e-05 0.0 0.0089097805 0.00044823863
00000000: fb35 d83b 9e71 db38 0000 0000 94e7 cb3b
00000010: ad98 703b 9781 553b b7c2 2638 25f5 873b
00000020: 13ae 9638 0000 0000 54fa 113c 9201 eb39

exp_avg f4 [24]
-0.0010391827 -0.0003570482 -5.944137e-05 0.0012766481 -0.0013675606 0.0003095894 -0.0024052474 -0.00047052425
0.00068374746 0.0004906709 -0.0052917544 -0.0014028179 -0.0016081992 -0.0009438187 0.0026913993 0.0010586563
-0.0005348126 -0.002377547 -0.0009686714 0.0019918329 -0.0018952673 0.0008716065 -0.0044989507 0.00013760958
00000000: 2f35 88ba 3332 bbb9 af50 79b8 3455 a73a
00000010: b83f b3ba 6350 a239 5ba1 1dbb b2b0 f6b9
00000020: 843d 333a 5ea0 003a 7466 adbb c2de b7ba
00000030: 36ca d2ba 9a6a 77ba 3062 303b 9cc2 8a3a
00000040: ab32 0cba 9fd0 1bbb 70ee 7dba 6989 023b
00000050: 9e6a f8ba 867c 643a ef6b 93bb 4a4b 1039

exp_avg_sq f4 [24]
5.0199822e-05 1.466259e-05 3.585351e-07 0.00023701937 9.2514834e-05 9.38292e-06 0.00083320047 0.00022399428
3.791887e-05 4.1863328e-05 0.0042270985 0.00064361724 0.0005827961 6.074129e-06 7.913861e-05 6.453574e-05
3.076654e-05 0.0012056164 0.0002686586 0.0006463004 0.00025932892 0.00035057167 0.0018676397 3.5562234e-06
00000000: a68d 5238 58ff 7537 b07c c034 6788 7839
00000010: 8604 c238 566b 1d37 236b 5a3a 02e0 6a39
00000020: 140b 1f38 6896 2f38 7983 8a3b 6cb8 283a
00000030: c9c6 183a 5fd0 cb36 38f7 a538 5d57 8738
00000040: 520b 0138 c605 9e3a bfda 8c39 7c6c 293a
00000050: 8af6 8739 efcc b739 97cb f43a 74a7 6e36

exp_avg f4 [12, 12]
5.4202075e-05 0.0002791196 0.0002648571 0.0009493277 -0.001526084 -0.00468229 -0.0007873586 -1.3249718e-05
5.096522e-06 -5.170953e-06 -9.37727e-05 -6.6167995e-05 -6.170684e-05 -0.00053701457 -0.0007002333 -0.0010965412
-0.0076870606 -0.015900157 -0.011505794 -0.0027554499 -0.00011985157 -6.846782e-07 -4.3317894e-10 -2.7861727e-14
2.6226324e-05 0.00047683562 0.0023408365 0.0028887156 0.0017886986 0.0002981604 0.00011827183 0.00063883606
0.0005728743 0.00030724375 0.0001384992 2.4076959e-05 1.8980054e-05 0.00013418547 -0.00056914875 -0.0012026752
-0.00040994576 -0.00025091885 3.17376e-05 0.0003689971 0.00027761696 0.00010803643 1.621663e-05 6.505426e-06
0.0 0.0 0.0 0.0 0.0 0.0 0.0 0.0
0.0 0.0 0.0 0.0 0.0 0.0 0.0 0.0
0.0 0.0 0.0 0.0 0.0 0.0 0.0 0.0
2.1979929e-07 1.9397854e-05 0.00021335007 0.0003505553 3.9469487e-05 -0.00055241404 -0.000927127 -0.00031272546
-1.9631672e-05 -1.2080361e-05 -5.776e-05 -7.049104e-05 0.00011194722 0.00055111456 -0.00027265688 -0.00015356432
0.0016233008 0.0010153322 -0.0013190066 -0.0008717886 0.00027708767 0.0003164936 0.00021170803 0.00013697089
2.34347e-30 9.534623e-27 3.587765e-24 -3.0994653e-21 -4.936496e-16 -6.441093e-12 -6.3215633e-09 -1.5647346e-07
1.4158301e-05 4.731468e-05 -3.0911855e-05 -3.8360155e-05 1.1004857e-06 -5.8431036e-05 -0.0007835517 -5.0073126e-05
9.1009286e-05 2.298515e-06 4.5491273e-09 2.1346135e-07 2.7780314e-05 0.00039995398 0.00082077406 0.00048397575
7.949811e-05 0.00029913284 -0.00031360428 -0.0023797587 -0.003588009 -0.0012804428 0.0019721473 0.0009314388
0.00013752247 -5.0510353e-05 -2.9631228e-05 -5.7289335e-06 2.0080404e-05 8.93645e-05 3.6821464e-05 1.3806465e-06
-1.0002054e-05 -0.0004653072 -0.002911689 -0.003667123 -0.0011368259 -0.00011354883 -0.00030845922 -0.00038128402
00000000: 0957 6338 cc56 9239 85dc 8a39 4edc 783a
00000010: e206 c8ba e56d 99bb be66 4eba 1b4b 5eb7
00000020: ca02 ab36 2682 adb6 d6a7 c4b8 acc3 8ab8
00000030: 9c68 81b8 70c6 0cba dc8f 37ba d1b9 8fba
00000040: bde3 fbbb 0c41 82bc cc82 3cbc c794 34bb
00000050: d258 fbb8 baca 37b5 8424 eeaf c5f4 faa8
00000060: 9a00 dc37 cbff f939 b868 193b 9b50 3d3b
00000070: c472 ea3a 6952 9c39 b508 f838 9077 273a
00000080: f22c 163a 8f15 a139 193a 1139 e0f8 c937
00000090: 5b37 9f37 23b4 0c39 ed32 15ba 15a3 9dba
000000a0: fded d6b9 c28d 83b9 fd1d 0538 f475 c139
000000b0: 1e8d 9139 9e91 e238 f308 8837 2f49 da36
000000c0: 0000 0000 0000 0000 0000 0000 0000 0000
000000d0: 0000 0000 0000 0000 0000 0000 0000 0000
000000e0: 0000 0000 0000 0000 0000 0000 0000 0000
000000f0: 0000 0000 0000 0000 0000 0000 0000 0000
00000100: 0000 0000 0000 0000 0000 0000 0000 0000
00000110: 0000 0000 0000 0000 0000 0000 0000 0000
00000120: f801 6c34 93b8 a237 b9b6 5f39 bcca b739
00000130: 0a8c 2538 e1cf 10ba 710a 73ba 4df5 a3b9
00000140: b2ae a4b7 c1ac 4ab7 5443 72b8 97d4 93b8
00000150: 35c5 ea38 ac78 103a 63f3 8eb9 1c06 21b9
00000160: f0c4 d43a e514 853a 84e2 acba be88 64ba
00000170: 1446 9139 0def a539 f1fd 5d39 d89f 0f39
00000180: f81f 3e0e 48da 3c14 81cb 8a18 6130 6a9d
00000190: e948 0ea6 35a0 e2ac 0f35 d9b1 1903 28b4
000001a0: 7189 6d37 c073 4638 5aa7 01b8 e7e4 20b8
000001b0: 67b4 9335 d913 75b8 4467 4dba 9c05 52b8
000001c0: 3ddc be38 3040 1a36 8c4e 9c31 cf33 6534
000001d0: c509 e937 eab0 d139 3729 573a 20be fd39
000001e0: 39b8 a638 eed4 9c39 416b a4b9 baf5 1bbb
000001f0: cd24 6bbb 88d4 a7ba 243f 013b cd2b 743a
00000200: e833 1039 14db 53b8 9490 f8b7 2a3b c0b6
00000210: 5772 a837 3369 bb38 bf70 1a38 a74e b935
00000220: 7fce 27b7 7af4 f3b9 09d2 3ebb 1d54 70bb
00000230: 8c01 95ba 1021 eeb8 b2b8 a1b9 13e7 c7b9

exp_avg_sq f4 [12, 12]
8.0241364e-08 3.4366742e-06 1.271808e-05 0.00046165683 0.003042459 0.0023101259 5.261214e-05 1.7886885e-08
8.070002e-09 1.8817259e-07 2.1234176e-07 1.8784108e-07 9.202212e-08 5.285103e-06 4.0454033e-05 0.0001567297
0.0005320759 0.0007621061 0.00092148525 0.00013048702 3.4955585e-07 1.245931e-11 4.9048584e-18 1.930124e-26
7.996937e-08 5.0433314e-06 4.6325433e-05 0.00024649486 0.0016570938 0.0035204603 0.0017035224 8.6356435e-05
6.946306e-06 1.5322753e-06 1.7240085e-07 4.483106e-09 1.0420786e-07 6.732366e-06 4.2169504e-05 0.00051263644
0.0012447626 0.00023241402 2.8730577e-07 3.7041256e-05 4.0138657e-05 3.921454e-06 1.5817776e-07 4.5320444e-08
0.0 0.0 0.0 0.0 0.0 0.0 0.0 0.0
0.0 0.0 0.0 0.0 0.0 0.0 0.0 0.0
0.0 0.0 0.0 0.0 0.0 0.0 0.0 0.0
2.3795367e-11 2.4917014e-07 3.0400512e-05 5.1987972e-05 3.5629591e-06 0.00019457465 0.001018081 0.0001320259
3.5549203e-07 2.1076692e-09 3.4910578e-08 4.522461e-08 1.2209829e-07 4.936827e-06 5.188654e-05 0.00043005584
0.0027978346 0.0066783633 0.0016506911 2.700621e-05 1.7094148e-05 3.022455e-06 6.07706e-07 2.2514715e-07
5.4095488e-14 2.114362e-12 7.327097e-13 5.1715295e-11 5.371661e-10 4.7768e-11 1.2039813e-11 2.0467914e-09
1.9769224e-07 8.368396e-07 2.1288788e-07 1.1954229e-07 5.4202747e-08 8.499206e-06 0.00024773946 0.0001720549
2.593618e-06 6.3445543e-10 1.7848869e-15 5.657288e-13 8.082709e-09 1.4829981e-06 5.8742003e-06 2.1869519e-06
5.1087346e-07 2.0534817e-05 4.9490318e-05 7.237032e-05 0.0005815849 0.0011300652 0.0001214202 5.927046e-05
1.6153088e-05 2.0735135e-06 6.025998e-08 4.0403675e-10 5.402224e-08 9.703798e-07 1.4973938e-07 2.0682243e-10
1.2903345e-08 2.7865965e-05 0.001026176 0.0013185962 0.00010368954 5.05799e-07 1.2501638e-06 1.9842182e-06
00000000: 2851 ac33 9da1 6636 bd5f 5537 880a f239
00000010: fe63 473b 7b65 173b dbab 5c38 ada5 9932
00000020: 3fa4 0a32 7d0c 4a34 0f00 6434 5db1 4934
00000030: b29d c533 b056 b136 30ad 2938 cf57 2439
00000040: 027b 0b3a 13c8 473a d48f 713a 58d3 0839
00000050: 97aa bb34 be2f 5b2d 14f5 b422 7526 bf14
00000060: a0bb ab33 e339 a936 8e4d 4238 fb3b 8139
00000070: d732 d93a 86b7 663b ba48 df3a 421a b538
00000080: 5014 e936 94a8 cd35 2f1d 3934 d109 9a31
00000090: e0c8 df33 95e6 e136 29df 3038 7362 063a
000000a0: 4d27 a33a 2ab4 7339 013f 9a34 bf5c 1b38
000000b0: 8e5a 2838 0995 8336 92d7 2934 5ba6 4233
000000c0: 0000 0000 0000 0000 0000 0000 0000 0000
000000d0: 0000 0000 0000 0000 0000 0000 0000 0000
000000e0: 0000 0000 0000 0000 0000 0000 0000 0000
000000f0: 0000 0000 0000 0000 0000 0000 0000 0000
00000100: 0000 0000 0000 0000 0000 0000 0000 0000
00000110: 0000 0000 0000 0000 0000 0000 0000 0000
00000120: 674e d12d afc5 8534 9a04 ff37 a90d 5a38
00000130: 2c1b 6f36 bc06 4c39 2171 853a 6f70 0a39
00000140: 74da be34 82d6 1031 96f0 1533 fc3c 4233
00000150: 1f1a 0334 05a7 a536 c0a0 5938 1e79 e139
00000160: e05b 373b 2cd6 da3b 015c d83a 658b e237
00000170: 6765 8f37 62d5 4a36 3d21 2335 fabf 7134
00000180: da9f 7329 f6c8 142c 4c3d 4e2b 3f72 632e
00000190: b4a7 1330 fd15 522e 7fce 532d 89a7 0c31
000001a0: 3b45 5434 2ea3 6035 2d96 6434 895b 0034
000001b0: 8dcc 6833 d097 0e37 07e3 8139 a369 3439
000001c0: 050e 2e36 d565 2e30 5a9d 0027 0e3d 1f2b
000001d0: 21dc 0a32 6d0b c735 ff1a c536 8cc3 1236
000001e0: f522 0935 2f42 ac37 d393 4f38 85c5 9738
000001f0: 8175 183a b21e 943a f9a2 fe38 2c99 7838
00000200: 7e80 8737 b126 0b36 4668 8133 1e1f de2f
00000210: 1506 6833 ff3d 8235 0cc8 2034 5767 632f
00000220: 83ad 5d32 b4c1 e937 c180 863a bfd4 ac3a
00000230: e673 d938 3ec6 0735 4dcb a735 9c28 0536

exp_avg f4 [24, 12]
0.0001037969 0.00028733775 0.0013972416 0.00028890526 0.0 0.0 7.1151735e-05 0.0018056692
5.2785845e-06 0.00029431778 0.0023272864 1.5320382e-05 -0.00019506559 -0.00019541947 -0.0010436894 -0.000488699
0.0 0.0 1.7064427e-05 -0.00046819547 2.5163613e-06 -6.94991e-05 -0.0010842737 4.4205623e-05
-5.451509e-05 -8.2708764e-05 -0.00018425594 -9.049427e-05 0.0 0.0 -2.810657e-06 -2.2356902e-05
2.269429e-06 -1.290271e-05 -0.000110573485 9.629998e-06 -1.8696208e-05 -0.00032553755 -0.0005540294 -0.0006965015
0.0 0.0 -0.00029722837 -0.004100349 -6.546608e-05 5.4391323e-05 -0.0016501349 -0.00041695643
-0.000524135 -0.0015031961 -0.0036880316 -0.001121704 0.0 0.0 -0.0003925043 -0.005924321
-3.545895e-05 -0.0002148207 -0.00540522 -0.00027075148 -0.00040528606 -0.00051517575 -0.0010723377 -0.00089001027
0.0 0.0 -6.171646e-05 -0.00119219 -4.154524e-05 0.00010472095 -0.0008722801 -0.00011790524
-0.0010510009 -0.0016927314 -0.0043276576 -0.0026098895 0.0 0.0 -0.0005856317 -0.008964352
-0.00032237355 -9.913483e-05 -0.0068769115 -0.0007883529 -0.00039817436 -0.00039296845 -0.0008292822 -0.0012139445
0.0 0.0 -4.732626e-05 -0.0013289714 -6.19785e-05 0.00012020139 -0.0002179687 -0.00022999814
-0.00010225086 -0.00013778007 -0.00023121208 0.0001509355 0.0 0.0 2.6121686e-05 0.00047071432
1.8092931e-05 0.000106506624 -0.00020823067 5.33685e-05 -0.00034874515 -0.0005765021 -0.002106443 -0.00051738904
0.0 0.0 -0.00010270362 -0.00240669 -3.9043174e-05 -8.389228e-05 -0.0032790422 -0.00012059107
-0.00042013708 -0.0008243269 -0.0021661962 -0.002089245 0.0 0.0 -0.00051586935 -0.00588029
-8.746571e-05 -0.00018337395 -0.0023761063 -0.00059540843 -0.0017992075 -0.0026797375 -0.007307554 -0.0035490727
0.0 0.0 -0.00017283896 -0.0058897645 -5.217919e-05 -0.00044517513 -0.00728787 -0.00019993231
-0.00057319674 -0.0005724292 -0.002513593 -0.0014765201 0.0 0.0 -5.3151805e-05 -0.0023764798
-6.996554e-05 -0.00029323946 -0.002990779 -0.00012742537 0.00022118328 0.0003521104 0.00076230976 0.00043926403
0.0 0.0 4.462221e-05 0.00070037914 1.2170989e-05 -3.691063e-05 0.00059399 5.022895e-05
0.0011501387 0.0013777816 0.003075046 0.0045531653 0.0 0.0 0.00022637921 0.0074467435
0.00028900697 0.0006528249 0.002525117 0.0008762747 -0.0002928722 -0.00068789354 -0.0013446497 -5.293436e-05
0.0 0.0 -1.8788118e-05 -0.00071393844 6.052847e-05 -0.00012354358 -0.0014822725 1.0898399e-06
-0.0011955604 -0.0026204973 -0.006389091 -0.002466215 0.0 0.0 -0.0005509729 -0.009818077
-8.000516e-05 -0.00068977545 -0.008470464 -0.00059772073 -0.0008732834 -0.0017783932 -0.004890823 -0.001742324
0.0 0.0 -0.00032477974 -0.0069189677 -9.935215e-05 0.00013586762 -0.007773609 -0.00031740937
0.00056579174 0.0011845283 0.0031632541 0.0024416684 0.0 0.0 0.00045980533 0.00872329
0.00015961379 0.0004889167 0.0047162357 0.00076446065 -0.0009379683 -0.00047562004 -0.0032009343 -0.002223004
0.0 0.0 0.00012053858 -0.0015062236 -0.00021602474 -0.00032409938 -0.003869674 -8.558967e-05
8.508974e-05 -0.00016936763 0.00022764143 0.00048432103 0.0 0.0 -8.5713145e-05 0.00050283363
6.607319e-05 0.00015770421 0.0005347384 9.845005e-05 -0.00038545436 -0.00045322758 -0.0003171759 -0.0010392824
00000000: 89ad d938 d2a5 9639 a623 b73a 3578 9739
00000010: 0000 0000 0000 0000 4c37 9538 34ac ec3a
00000020: b21e b136 aa4e 9a39 6385 183b 4584 8037
00000030: 858a 4cb9 84e9 4cb9 68cc 88ba 091c 00ba
00000040: 0000 0000 0000 0000 9425 8f37 2278 f5b9
00000050: c2de 2836 0cc0 91b8 301e 8eba 6d69 3938
00000060: 22a7 64b8 ee73 adb8 d434 41b9 bec7 bdb8
00000070: 0000 0000 0000 0000 b89e 3cb6 158b bbb7
00000080: 7e4c 1836 b878 58b7 b0e3 e7b8 8790 2137
00000090: cdd5 9cb7 e9ac aab9 493c 11ba 6d95 36ba
000000a0: 0000 0000 0000 0000 51d5 9bb9 385c 86bb
000000b0: d64a 89b8 3d22 6438 5749 d8ba f29a dab9
000000c0: 1b66 09ba e406 c5ba e7b2 71bb 2406 93ba
000000d0: 0000 0000 0000 0000 09c9 cdb9 ce20 c2bb
000000e0: c2b9 14b8 7e41 61b9 461e b1bb a6f3 8db9
000000f0: 937c d4b9 dc0c 07ba af8d 8cba 944f 69ba
00000100: 0000 0000 0000 0000 c66d 81b8 4243 9cba
00000110: dd40 2eb8 a29d db38 baa9 64ba e543 f7b8
00000120: bdc1 89ba a4de ddba 06cf 8dbb ae0a 2bbb
00000130: 0000 0000 0000 0000 1485 19ba 38df 12bc
00000140: 3f04 a9b9 9be6 cfb8 b757 e1bb 78a9 4eba
00000150: 0fc2 d0b9 5507 ceb9 3064 59ba 381d 9fba
00000160: 0000 0000 0000 0000 2f80 46b8 e130 aeba
00000170: 74fa 81b8 a114 fc38 878e 64b9 a82b 71b9
00000180: 836f d6b8 0e79 10b9 8571 72b9 7144 1e39
00000190: 0000 0000 0000 0000 e51f db37 35ca f639
000001a0: 46c6 9737 4f5c df38 7f58 5ab9 fed7 5f38
000001b0: c8d7 b6b9 6720 17ba 400c 0abb 64a1 07ba
000001c0: 0000 0000 0000 0000 9662 d7b8 8fb9 1dbb
000001d0: 4ac2 23b8 53ef afb8 33e5 56bb d6e5 fcb8
000001e0: d845 dcb9 a417 58ba bef6 0dbb b7eb 08bb
000001f0: 0000 0000 0000 0000 683b 07ba 73af c0bb
00000200: cc6d b7b8 1248 40b9 73b8 1bbb 2f15 1cba
00000210: 63d3 ebba 899e 2fbb 3574 efbb 8f97 68bb
00000220: 0000 0000 0000 0000 1b3c 35b9 edfe c0bb
00000230: fbda 5ab8 6566 e9b9 16cf eebb eca4 51b9
00000240: 9542 16ba 130f 16ba 18bb 24bb cb87 c1ba
00000250: 0000 0000 0000 0000 51ef 5eb8 b7be 1bbb
00000260: 77ba 92b8 efbd 99b9 f200 44bb 7d9d 05b9
00000270: 6fed 6739 759b b839 bed5 473a 054d e639
00000280: 0000 0000 0000 0000 bc28 3b38 a699 373a
00000290: 0032 4c37 7dd0 1ab8 feb5 1b3a edac 5238
000002a0: 40c0 963a ae96 b43a b686 493b b832 953b
000002b0: 0000 0000 0000 0000 3560 6d39 d003 f43b
000002c0: dc85 9739 5622 2b3a 6f7c 253b cdb5 653a
000002d0: a48c 99b9 c153 34ba f53e b0ba d605 5eb8
000002e0: 0000 0000 0000 0000 2d9b 9db7 9927 3bba
000002f0: f3df 7d38 7a8b 01b9 d048 c2ba 9d46 9235
00000300: 5ab4 9cba a6bc 2bbb 945b d1bb 39a0 21bb
00000310: 0000 0000 0000 0000 2a6f 10ba 00dc 20bc
00000320: 71c8 a7b8 0cd2 34ba b3c7 0abc 5cb0 1cba
00000330: 0fed 64ba f918 e9ba 3243 a0bb b15e e4ba
00000340: 0000 0000 0000 0000 3347 aab9 82b8 e2bb
00000350: 485b d0b8 b077 0e39 c2b9 febb f769 a6b9
00000360: a451 143a 2d42 9b3a 994e 4f3b 6604 203b
00000370: 0000 0000 0000 0000 0712 f139 21ec 0e3c
00000380: 005e 2739 a52a 003a a78a 9a3b 1666 483a
00000390: fde1 75ba a45c f9b9 c4c6 51bb d1af 11bb
000003a0: 0000 0000 0000 0000 a8c9 fc38 7a6c c5ba
000003b0: b384 62b9 e2eb a9b9 5b9a 7dbb 9b7e b3b8
000003c0: 3572 b238 4798 31b9 08b3 6e39 78ec fd39
000003d0: 0000 0000 0000 0000 e5c0 b3b8 98d0 033a
000003e0: c690 8a38 675d 2539 b02d 0c3a f876 ce38
000003f0: cf16 cab9 2d9f edb9 a14a a6b9 8838 88ba

exp_avg_sq f4 [24, 12]
2.1485446e-06 9.5131645e-06 5.4753044e-05 6.150508e-06 0.0 0.0 5.2563536e-07 9.2327886e-05
1.8766662e-09 1.716506e-06 9.995569e-05 2.2701623e-07 2.6773846e-06 4.7986723e-06 8.575082e-05 9.756769e-06
0.0 0.0 6.117105e-08 3.9871382e-05 1.4639664e-09 1.4440818e-06 0.00012106719 2.1418874e-08
4.1521176e-07 1.5445459e-06 1.4297864e-05 1.8388846e-06 0.0 0.0 6.286454e-08 2.1923755e-05
1.05905756e-10 2.0214635e-07 2.3689045e-05 2.7645745e-08 8.203094e-06 2.8627055e-05 0.00021237093 4.757712e-05
0.0 0.0 1.6510462e-06 0.00046512263 7.1725694e-08 8.076175e-07 0.00036995308 1.8407071e-06
5.022779e-05 0.00014718884 0.0014543304 0.00014903497 0.0 0.0 4.145924e-06 0.001217579
1.2185443e-08 6.9327475e-06 0.0021946249 5.521528e-07 4.229354e-06 1.6009526e-05 0.00022040255 6.679644e-05
0.0 0.0 1.3232461e-06 0.0006171708 3.1770117e-08 1.9338486e-05 0.000353973 1.5918258e-06
2.4980982e-05 6.6978064e-05 0.00023978057 0.00029390215 0.0 0.0 6.543875e-06 0.001469239
1.1331265e-06 5.2421688e-06 0.000327897 2.1722639e-05 2.3992801e-05 0.00015973426 0.00081629265 0.00012459965
0.0 0.0 1.2569781e-05 0.0028436827 3.4755747e-08 9.611374e-07 0.0015799714 1.0823364e-05
2.462761e-06 7.88188e-06 5.2512e-05 5.7151037e-06 0.0 0.0 1.1586449e-06 0.00020384851
4.9436735e-09 7.6914057e-07 9.740785e-05 8.0270115e-07 6.1755654e-06 1.794367e-05 0.000171591 3.5777037e-05
0.0 0.0 9.51588e-07 0.00023849687 1.977994e-08 1.1781348e-06 0.00024050007 4.2687284e-07
8.497471e-05 0.0004242387 0.0021690992 0.00019253383 0.0 0.0 1.8194713e-05 0.0031545865
1.367844e-07 5.0193385e-06 0.0036757356 4.5402744e-06 5.4274202e-05 0.000302843 0.0020653803 0.00037938863
0.0 0.0 2.651175e-05 0.006872681 3.0272638e-08 4.7760986e-05 0.0035044237 2.653038e-05
3.5588717e-05 6.49427e-05 0.00082931214 0.00010777902 0.0 0.0 8.3871004e-07 0.00034569317
3.0304122e-08 5.343822e-06 0.0010195321 1.3417854e-06 5.489648e-06 2.4402707e-05 0.00019831031 2.4087467e-05
0.0 0.0 1.2922019e-06 0.0003463975 2.0446378e-09 1.6818013e-06 0.00033673728 4.7085908e-07
7.3581745e-05 0.00044919905 0.0021478594 0.00064718415 0.0 0.0 3.8602553e-05 0.010758002
7.507518e-07 2.1560732e-05 0.0039991084 6.3146435e-05 3.0826156e-06 1.3052676e-05 7.630525e-05 4.784822e-06
0.0 0.0 2.3677921e-06 0.0003646665 1.8057495e-08 9.4472136e-07 0.00018761259 1.2342538e-06
0.0001274139 0.0004400303 0.0035612925 0.00064421125 0.0 0.0 1.6695485e-05 0.005278198
7.9326e-08 2.7460506e-05 0.0049704546 8.92078e-06 2.444897e-05 9.59687e-05 0.0008944522 3.514279e-05
0.0 0.0 2.1129451e-06 0.00071101304 8.831277e-08 3.2308014e-06 0.0020054819 1.3604194e-06
1.3406956e-05 4.6182235e-05 0.00023301129 9.2192655e-05 0.0 0.0 2.4979581e-06 0.0008532812
2.7535495e-07 3.9700803e-06 0.00036308513 7.7815375e-06 6.09547e-06 1.5127855e-05 0.000103800965 9.709842e-05
0.0 0.0 1.5983817e-06 0.00023858351 3.0135027e-07 4.5770184e-06 0.00043753322 4.0973106e-07
3.789392e-06 1.6320611e-05 0.00013269423 5.6993493e-05 0.0 0.0 1.7512527e-06 0.0006541326
5.2842463e-08 3.916706e-06 0.00022956076 4.0013124e-06 9.9625606e-05 0.00019909059 0.0023273802 0.0003095833
00000000: b72f 1036 bb9a 1f37 a2a6 6538 7660 ce36
00000010: 0000 0000 0000 0000 6319 0d35 28a0 c138
00000020: a9f6 0031 b262 e635 4d9f d138 bfc1 7334
00000030: 1ead 3336 4804 a136 1fd5 b338 01b1 2337
00000040: 0000 0000 0000 0000 245d 8333 923b 2738
00000050: bd34 c930 46d2 c135 74e5 fd38 9afc b732
00000060: 45ea de34 314e cf35 dce0 6f37 98cf f635
00000070: 0000 0000 0000 0000 2500 8733 e8e8 b737
00000080: a4e3 e82e 910d 5934 d6b7 c637 a379 ed32
00000090: 05a0 0937 2224 f037 e3af 5e39 8b8d 4738
000000a0: 0000 0000 0000 0000 8499 dd35 b4db f339
000000b0: 9e07 9a33 0dcb 5835 43f6 c139 370e f735
000000c0: aeab 5238 b456 1a39 3b9f be3a 4546 1c39
000000d0: 0000 0000 0000 0000 371d 8b36 2c97 9f3a
000000e0: 2558 5132 d99f e836 b2d3 0f3b a737 1435
000000f0: e0e9 8d36 324c 8637 dc1b 6739 1115 8c38
00000100: 0000 0000 0000 0000 649a b135 a2c9 213a
00000110: 9d73 0833 1539 a237 7495 b939 b8a6 d535
00000120: 408e d137 9376 8c38 9b6d 7b39 e116 9a39
00000130: 0000 0000 0000 0000 7593 db36 7b93 c03a
00000140: ee15 9835 e3e5 af36 97e9 ab39 0339 b637
00000150: 2644 c937 577e 2739 79fc 553a f7a6 0239
00000160: 0000 0000 0000 0000 cce2 5237 145d 3a3b
00000170: 5946 1533 6e00 8135 0b17 cf3a ff95 3537
00000180: e945 2536 6b3c 0437 5540 5c38 5ec4 bf36
00000190: 0000 0000 0000 0000 bc82 9b35 2bc0 5539
000001a0: 03dd a931 f076 4e35 7147 cc38 3479 5735
000001b0: b437 cf36 bd85 9637 1ced 3339 4d0f 1638
000001c0: 0000 0000 0000 0000 a170 7f35 0415 7a39
000001d0: 8ce8 a932 6720 9e35 bf2e 7c39 f52c e534
000001e0: 7334 b238 5b6c de39 7227 0e3b e8e2 4939
000001f0: 0000 0000 0000 0000 d9a0 9837 2ebd 4e3b
00000200: 02df 1234 ca6b a836 9ce4 703b a958 9836
00000210: 7ba4 6338 e6c6 9e39 555b 073b aee8 c639
00000220: 0000 0000 0000 0000 8d65 de37 3a34 e13b
00000230: 1e05 0233 f852 4838 79aa 653b 8f8d de37
00000240: 1845 1538 d931 8838 3266 593a 6c07 e238
00000250: 0000 0000 0000 0000 b723 6135 273e b539
00000260: bc27 0233 154f b336 d2a1 853a 6517 b435
00000270: b833 b836 6ab4 cc37 85f1 4f39 710f ca37
00000280: 0000 0000 0000 0000 b86f ad35 af9c b539
00000290: a681 0c31 41ba e135 1d8c b039 61ca fc34
000002a0: e64f 9a38 7a82 eb39 1ac3 0c3b cba7 293a
000002b0: 0000 0000 0000 0000 2de9 2138 5542 303c
000002c0: 4587 4935 52dd b437 f40a 833b 7c6d 8438
000002d0: efde 4e36 d1fc 5a37 1206 a038 4f8d a036
000002e0: 0000 0000 0000 0000 5ce6 1e36 b630 bf39
000002f0: da1c 9b32 c298 7d35 dfb9 4439 a3a8 a535
00000300: 699a 0539 deb3 e639 9364 693b 49e0 283a
00000310: 0000 0000 0000 0000 480d 8c37 bcf4 ac3b
00000320: ee59 aa33 fd5a e637 32df a23b 75aa 1537
00000330: c317 cd37 ce42 c938 ac79 6a3a 4966 1338
00000340: 0000 0000 0000 0000 1fcc 0d36 4763 3a3a
00000350: 75a6 bd33 bfd0 5836 676e 033b a897 b635
00000360: 70ee 6037 ccb3 4138 7e54 7439 8e57 c138
00000370: 0000 0000 0000 0000 98a2 2736 bbae 5f3a
00000380: 7fd4 9334 bb36 8536 765c be39 738d 0237
00000390: b087 cc36 a4cd 7d37 b8af d938 51a1 cb38
000003a0: 0000 0000 0000 0000 fa87 d635 462c 7a39
000003b0: 44c9 a134 4a94 9936 b764 e539 02f9 db34
000003c0: 424d 7e36 3fe8 8837 d623 0b39 4c0c 6f38
000003d0: 0000 0000 0000 0000 960c eb35 187a 2b3a
000003e0: e7f4 6233 406c 8336 3fb6 7039 0343 8636
000003f0: 17ee d038 f9c2 5039 f686 183b 914f a239

exp_avg f4 [12]
-0.003449135 -0.024844725 0.005923059 -0.00090240734 0.0 0.0 -0.0008457774 0.001038255
-1.3347388e-05 0.000668452 -0.0026324368 -0.0055832155
00000000: e20a 62bb 2a87 cbbc 3816 c23b 888f 6cba
00000010: 0000 0000 0000 0000 29b7 5dba 0f16 883a
00000020: 98ee 5fb7 0e3b 2f3a f684 2cbb 68f3 b6bb

exp_avg_sq f4 [12]
0.0069805714 0.0024498235 0.01055782 0.0016444748 0.0 0.0 0.0018650381 0.014035486
1.1378378e-06 0.00033844498 0.0014369253 0.0029694235
00000000: 47bd e43b 388d 203b b5fa 2c3c 6b8b d73a
00000010: 0000 0000 0000 0000 4b74 f43a 18f5 653c
00000020: cfb7 9835 5171 b139 3657 bc3a a99a 423b

exp_avg f4 [24]
0.001171078 -0.0006369808 -9.25477e-05 -0.0015188078 -0.0035139052 -0.00094190513 -0.0049756514 -0.0008386556
-3.0721276e-05 -0.0018052366 -0.0026685803 -0.0052932943 -0.0019565017 0.00058014673 0.0036854292 -0.0008665209
-0.005900047 -0.00469474 0.0040278495 -0.002197719 0.00029693544 -2.1608885e-05 0.0012617179 0.0021445975
00000000: db7e 993a 0ffb 26ba 2b16 c2b8 bc12 c7ba
00000010: 8c49 66bb 2fea 76ba ca0a a3bb 39d9 5bba
00000020: b8da 00b8 b09d ecba 59e3 2ebb 5f73 adbb
00000030: a738 00bb fd14 183a 3e87 713b 3c27 63ba
00000040: 2e55 c1bb 55d6 99bb 0dfc 833b 9b07 10bb
00000050: 00ae 9b39 ba44 b5b7 3a60 a53a 608c 0c3b

exp_avg_sq f4 [24]
4.2499934e-05 3.744634e-05 9.548744e-06 0.00016929419 0.00079372886 0.00017319046 0.00029456767 0.000841057
4.3921787e-05 0.00011027782 0.0015325294 0.0018892197 0.00034645345 0.00014127228 0.0025782434 8.067747e-05
0.002363927 0.00050882564 0.00022658748 8.873179e-05 0.00015307305 0.0011583492 0.00033772795 0.00017330486
00000000: f541 3238 b40f 1d38 8b33 2037 9084 3139
00000010: 3e12 503a 769a 3539 3470 9a39 617a 5c3a
00000020: a938 3838 f444 e738 27df c83a b29f f73a
00000030: 32a4 b539 7d22 1439 bff7 283b 6331 a938
00000040: 1dec 1a3b b662 053a 1d98 6d39 8415 ba38
00000050: 3c82 2039 c0d3 973a 1411 b139 2bb9 3539
