Model/epoch100/Model_6/mode6.ckpt (torch_old, 286080 bytes, 464 tensors)

exp_avg f4 [72]
000000 2d 86 9b bb 5f be cd bb 21 57 73 3b 6f f9 be ba
       -0.0047462196 -0.0062787975 0.003713079 -0.0014570187
000010 99 4d da ba 2b 28 80 39 ca 40 0c bb 3a 66 ae bb
       -0.0016655206 0.0002444399 -0.0021400922 -0.005322245
000020 fc 50 28 3b 03 e5 29 3c 82 93 dd bb 6c 9a 08 3c
       0.0025683036 0.010369542 -0.006761969 0.008337598
000030 40 9c 89 3b 96 23 b3 ba 3a f4 ec 39 6a b9 45 b9
       0.0041995347 -0.0013667222 0.0004519539 -0.00018856456
000040 27 3b 56 3b e4 f9 02 bb 93 a9 d1 3a b4 ab 82 3a
       0.0032689066 -0.0019985372 0.0015995972 0.0009969384
000050 f1 d5 33 b9 12 5b d4 ba ee 13 91 bb 59 5a b3 3a
       -0.0001715047 -0.0016201457 -0.0044274246 0.0013683542
000060 8c 99 eb ba 67 1a c9 ba 2f 36 88 bb e7 3f 62 3a
       -0.0017974838 -0.0015342952 -0.00415685 0.0008630738
000070 d4 45 ad ba 25 cd ea b9 bc d2 35 3c 37 21 b8 3b
       -0.0013219663 -0.00044784803 0.011097606 0.005619194
000080 60 8f 70 3b a9 7c 9d bb 4c 3d d5 bb d1 d4 4d 3b
       0.0036706552 -0.0048061204 -0.0065075513 0.0031407366
000090 8b 31 47 3b 74 22 d4 3a 67 9c ae 3a 60 4f dd 3b
       0.003039452 0.0016184584 0.0013321758 0.006753847
0000a0 65 81 d7 3b c6 d1 ed 39 49 f1 e8 ba 11 a2 3d b9
       0.0065767043 0.00045360456 -0.0017772104 -0.00018084819
0000b0 33 e3 1b bb 2d fd fd ba 18 56 57 b7 0d ea 1a bb
       -0.0023786544 -0.001937782 -1.2835044e-05 -0.002363804
0000c0 df 65 45 3b 7e 0c cb 3a ee 27 2d b9 c0 ed 9f bb
       0.0030120534 0.0015491394 -0.0001651344 -0.004880637
0000d0 6b fc 10 bb 6b ca 1a 39 6a ea 5f 3c cd b2 d4 3b
       -0.002212311 0.00014761991 0.0136667285 0.0064910413
0000e0 58 c0 a1 3b 1a e6 93 bb 66 52 a0 ba 86 5a 07 bb
       0.0049362592 -0.004513514 -0.0012231588 -0.0020653321
0000f0 fa 15 26 3a 54 d1 30 3b 33 35 00 bb 48 22 1b 39
       0.0006335672 0.0026980238 -0.001956296 0.00014794723
000100 c7 ba 97 ba ab 61 c4 3a c7 14 33 bb f8 df f8 ba
       -0.001157605 0.0014982721 -0.0027325617 -0.0018987646
000110 18 fa c9 3a 0b a9 c7 ba 41 38 d9 b9 73 10 4d ba
       0.0015409617 -0.0015232874 -0.00041431378 -0.00078225805

exp_avg_sq f4 [72]
000000 5d c1 b4 3a 4f 53 ad 39 72 d7 32 3a 3b 18 a7 3a
       0.0013790537 0.000330592 0.0006822265 0.001274831
000010 a3 69 dd 38 46 d3 cb 39 2e 03 57 3b 99 28 05 3b
       0.000105577776 0.00038876588 0.0032808292 0.0020318388
000020 2e e2 75 3a 36 0e a0 3b 6c df 1d 3b ee 43 23 3b
       0.00093797117 0.0048845066 0.0024089469 0.0024912315
000030 64 9b f4 3a c7 7d d5 3a f4 c2 ff 39 99 7c cf 3a
       0.0018662033 0.0016288095 0.00048782642 0.001582998
000040 b0 1f c6 3a e5 c6 3c 3a a3 2d 9d 39 12 22 f9 37
       0.0015115645 0.00072012685 0.00029979376 2.9698978e-05
000050 4a 57 0f 39 30 d9 a0 3a d2 7d e3 39 38 db 81 39
       0.0001367006 0.0012271758 0.00043390557 0.00024768128
000060 53 10 1c 3a 3f bb 1e 3a 1a fe 98 39 72 07 0e 3a
       0.000595336 0.00060551235 0.0002918102 0.00054179796
000070 9d 44 f8 39 24 16 d9 39 fa de 48 3a 8c 18 89 3a
       0.00047353367 0.0004140596 0.00076626206 0.0010459586
000080 d8 a2 84 39 39 72 bd 3b f3 64 1b 3b 7a 1f 5d 39
       0.0002529833 0.0057814387 0.0023711293 0.00021087928
000090 61 c6 03 3a 49 b1 d6 38 58 92 d3 39 80 89 e2 3a
       0.0005026814 0.00010237337 0.0004035409 0.001728341
0000a0 63 9d b9 3a a5 3b be 39 48 aa 03 3b 73 22 07 39
       0.0014161285 0.00036284063 0.002009051 0.00012887437
0000b0 9b 80 02 3b 1a 7e 7c 3a 6f dd 99 3a 51 bc 08 3a
       0.001991308 0.00096318277 0.0011738966 0.00052160496
0000c0 7b f1 91 39 69 c0 83 38 2e d6 aa 38 a8 c1 d8 38
       0.00027836472 6.282406e-05 8.146126e-05 0.00010335754
0000d0 04 e6 93 39 f1 a4 ff 39 b9 32 bf 3a 32 50 68 3a
       0.000282094 0.0004876028 0.001458726 0.00088620477
0000e0 d0 e7 b1 39 78 d9 8e 3a 34 c7 13 38 f2 b8 0f 3a
       0.00033932785 0.0010898551 3.5233053e-05 0.0005482576
0000f0 a6 98 30 38 89 fd 96 39 ac 8b af 39 f2 01 0b 39
       4.2103835e-05 0.00028799128 0.00033482665 0.00013256798
000100 73 4f 8b 38 a9 0c 5a 39 0c b5 c4 38 f4 03 f6 38
       6.642835e-05 0.00020794816 9.379731e-05 0.000117309304
000110 52 71 a9 3a aa a1 86 3a 89 27 28 39 56 bd cc 39
       0.0012927449 0.0010271568 0.00016036457 0.00039050978

exp_avg f4 [24]
000000 f7 98 ef bb 7a 9e 3c bb 1b 5e a0 bb b2 b5 43 3c
       -0.007311936 -0.0028780983 -0.0048940307 0.011945175
000010 4d 45 57 3b 4f cb 8d 3a 44 ed 1e 3b 1d 54 99 bb
       0.0032847703 0.0010818037 0.0024250308 -0.0046792165
000020 29 63 f5 bb 59 b2 6d ba 97 03 a7 3c c4 e7 05 bc
       -0.0074886275 -0.00090674084 0.020387454 -0.008172933
000030 7e 48 c4 3b ee d6 61 3c 05 1b 8e bb f5 5f 8d bb
       0.005990087 0.013784153 -0.004336717 -0.0043144175
000040 cf 0c 90 3b a1 95 e3 bb 00 92 cd 3c f5 a7 ff bb
       0.004396058 -0.0069453274 0.025094032 -0.0078020045
000050 41 43 b4 3a 60 16 00 3a bb 87 4a bb 9e 3f 32 bb
       0.0013752953 0.00048861466 -0.0030903656 -0.0027198563

exp_avg_sq f4 [24]
000000 a8 b8 3c 3b 77 29 65 3b d2 2c f8 3b b1 d2 c0 3c
       0.0028796587 0.0034967342 0.0075737024 0.023537965
000010 43 d3 0f 3c 05 de a6 3b 6b 6e a5 39 ca f5 83 3b
       0.008778396 0.0050923848 0.0003155352 0.004027103
000020 39 36 37 3b 7d 39 76 3a a4 01 38 3b a4 65 6f 3c
       0.0027955903 0.00093927217 0.002807715 0.014611635
000030 68 e5 1d 3b 91 4a 0b 3c 3a 5b 1f 3c bb f2 52 3b
       0.0024093036 0.008501665 0.00972634 0.0032188136
000040 c7 f7 48 3a 62 44 92 39 b2 18 d5 3b a7 71 55 3b
       0.0007666316 0.0002789824 0.006503188 0.0032568963
000050 cf 34 fd 38 2e ed e0 39 71 55 5b 3a 6f bf 25 3b
       0.000120738165 0.00042901322 0.0008366919 0.0025291105

exp_avg f4 [12, 12]
000000 10 58 1c b5 12 e7 b6 37 72 fc b3 39 a9 bb 9d 3a
       -5.8242676e-07 2.1803691e-05 0.00034329627 0.0012034076
000010 a6 4d 19 3b de 4c 2b 3b 72 b4 6d 3a f7 e4 f2 37
       0.002339223 0.0026138346 0.0009067721 2.8955268e-05
000020 e8 80 44 b8 44 d1 a7 b8 d8 8c 9d b7 94 10 6e 36
       -4.6850095e-05 -8.002159e-05 -1.8781444e-05 3.5474413e-06
000030 33 08 55 b8 9a 07 03 ba 7c 1d 9f ba cc be ab ba
       -5.0790793e-05 -0.0004998386 -0.0012139524 -0.0013103127
000040 12 31 e0 b9 26 b2 a0 b7 2b 57 b9 b3 20 b0 9f 32
       -0.0004276117 -1.9156443e-05 -8.6305896e-08 1.8590129e-08
000050 e1 d8 8c 34 0e 5a 9b b6 3f bc 25 b7 eb 34 eb b5
       2.6234832e-07 -4.6298437e-06 -9.878596e-06 -1.7524266e-06
000060 00 00 00 00 00 00 00 00 00 00 00 00 00 00 00 00
       0.0 0.0 0.0 0.0
000070 00 00 00 00 00 00 00 00 00 00 00 00 00 00 00 00
       0.0 0.0 0.0 0.0
000080 00 00 00 00 00 00 00 00 00 00 00 00 00 00 00 00
       0.0 0.0 0.0 0.0
000090 27 e0 a6 b8 98 a7 39 ba c7 51 be ba 10 fc c4 ba
       -7.9572485e-05 -0.00070821634 -0.0014520221 -0.0015028734
0000a0 e8 8a 3e ba d9 04 ea ba de 7a d7 ba 5b 40 a7 39
       -0.00072686234 -0.0017854228 -0.0016439816 0.0003190067
0000b0 49 26 ae 39 e3 6e be 38 51 18 ce 36 ff 22 67 b6
       0.0003321639 9.08056e-05 6.142109e-06 -3.4442053e-06
0000c0 d9 4e ce 2f 05 e5 bd 34 ea 4d 1d 38 43 50 10 3a
       3.7527206e-10 3.5370627e-07 3.750428e-05 0.0005505124
0000d0 c9 dc df 3a 8b 61 f6 3a 9c 38 fc 39 46 a3 b3 b9
       0.0017079349 0.0018797381 0.00048107363 -0.0003426319
0000e0 82 d4 38 b9 d3 30 00 b8 8a d5 46 b6 26 f6 79 b6
       -0.00017626773 -3.056305e-05 -2.9628595e-06 -3.7247169e-06
0000f0 c9 f1 0f b8 bd 73 87 b9 e4 35 ae b9 5d ea e6 b9
       -3.4319037e-05 -0.00025835438 -0.00033228018 -0.00044043633
000100 20 66 33 ba c7 53 f2 b9 fe 86 92 b9 9a 53 e0 b9
       -0.0006843526 -0.00046220256 -0.00027947867 -0.00042786897
000110 2f 94 a4 b9 33 0c 6a b8 23 51 a6 b5 d8 a7 37 b6
       -0.00031390923 -5.580131e-05 -1.2391578e-06 -2.7366823e-06
000120 f5 d7 75 38 e6 9b 81 3a a3 81 3f 3b ba ba 90 3a
       5.8613678e-05 0.000988838 0.0029221557 0.0011041977
000130 6e 62 32 38 d9 2b 28 34 59 b9 6e 2e e1 c2 fd 26
       4.2530177e-05 1.5662171e-07 5.4279557e-11 1.7608224e-15
000140 9d 70 c9 1d 5e 6a ee 12 ad 1a 52 06 36 00 00 00
       5.3320696e-21 1.5046133e-27 3.9516208e-35 7.6e-44
000150 38 47 b2 b7 61 a7 28 b9 75 31 07 b9 ff de f6 b7
       -2.1252417e-05 -0.00016084082 -0.00012893027 -2.9429326e-05
000160 5b 02 44 37 42 23 e9 b8 9c b4 f9 b9 ba 5f c2 b9
       1.1683059e-05 -0.00011116873 -0.00047627545 -0.00037073885
000170 d3 4a d3 b8 7d 3c 53 b7 fa c2 1d b7 1a 77 69 b7
       -0.00010075201 -1.2590664e-05 -9.403326e-06 -1.3915613e-05
000180 58 3d d7 b3 9c 24 b0 b7 88 c3 1a ba 70 3c 25 bb
       -1.0022876e-07 -2.0997883e-05 -0.000590377 -0.0025213026
000190 a6 6d c9 ba e0 6f f3 b8 28 04 83 b5 04 63 6a b0
       -0.0015367761 -0.00011607981 -9.76147e-07 -8.5269414e-10
0001a0 62 b5 a6 a9 a0 91 37 a1 fc 06 1a 97 29 2d 43 8b
       -7.403346e-14 -6.2195545e-19 -4.97689e-25 -3.758961e-32
0001b0 00 00 00 00 00 00 00 00 00 00 00 00 00 00 00 00
       0.0 0.0 0.0 0.0
0001c0 00 00 00 00 00 00 00 00 00 00 00 00 00 00 00 00
       0.0 0.0 0.0 0.0
0001d0 00 00 00 00 00 00 00 00 00 00 00 00 00 00 00 00
       0.0 0.0 0.0 0.0
0001e0 1d ec c0 37 c8 b4 05 39 73 e7 8a 38 c8 03 74 38
       2.2998132e-05 0.00012751215 6.6234636e-05 5.8177655e-05
0001f0 ec 45 97 3a e0 f7 6e 3b 26 be 32 3b 95 47 86 3a
       0.0011541224 0.0036463663 0.0027273982 0.0010244722
000200 e6 17 8f 39 11 8e e0 38 7d 74 92 37 92 fe c8 36
       0.0002729289 0.00010707614 1.74588e-05 5.9901004e-06
000210 63 8b c7 97 d8 fb 90 a1 a9 7c a3 a9 19 fc 11 b0
       -1.289526e-24 -9.824482e-19 -7.260279e-14 -5.3108945e-10
000220 cf b0 d5 b4 8e be 09 b8 a1 54 b6 b9 a3 f3 1d ba
       -3.9802987e-07 -3.2840813e-05 -0.000347768 -0.00060253794
000230 b2 0d 7c b9 ba f5 df b7 44 19 35 37 2b 6b 78 b5
       -0.00024037695 -2.6698097e-05 1.0794323e-05 -9.254315e-07

exp_avg_sq f4 [12, 12]
000000 10 b9 fa 30 9a 15 e8 32 91 4e 95 36 74 d5 4a 38
       1.8242492e-09 2.7018178e-08 4.4496924e-06 4.8359347e-05
000010 3d 2a 3b 39 71 93 8e 39 f4 8b c2 38 64 71 07 36
       0.00017849445 0.00027194203 9.276709e-05 2.018257e-06
000020 45 15 14 34 3e fe 2a 35 4d 11 91 34 2a 7a b2 33
       1.3791312e-07 6.3699906e-07 2.7020943e-07 8.3109924e-08
000030 6b 58 2b 33 26 80 6d 36 63 97 86 37 f6 d2 24 38
       3.9894456e-08 3.5390344e-06 1.604454e-05 3.929712e-05
000040 8d 4b 32 37 8f a4 27 33 8b 67 cc 2b 4d bc da 2a
       1.0627217e-05 3.9032383e-08 1.4523811e-12 3.885524e-13
000050 af 53 9f 30 a8 11 65 33 8c 90 a0 33 92 e5 c4 31
       1.1592557e-09 5.3334276e-08 7.4768735e-08 5.73045e-09
000060 00 00 00 00 00 00 00 00 00 00 00 00 00 00 00 00
       0.0 0.0 0.0 0.0
000070 00 00 00 00 00 00 00 00 00 00 00 00 00 00 00 00
       0.0 0.0 0.0 0.0
000080 00 00 00 00 00 00 00 00 00 00 00 00 00 00 00 00
       0.0 0.0 0.0 0.0
000090 65 82 7c 33 fd 8e c7 36 ec 5f be 37 e8 fb 00 38
       5.8791915e-08 5.947308e-06 2.2694432e-05 3.0752184e-05
0000a0 6e c5 f7 36 cd 8c aa 38 c5 83 80 39 54 2b 15 38
       7.3841575e-06 8.132458e-05 0.00024512238 3.556472e-05
0000b0 e0 29 bf 36 64 93 e2 35 d9 cf 85 33 0d b7 ea 30
       5.6971185e-06 1.6881208e-06 6.2311024e-08 1.7077767e-09
0000c0 69 6d 56 24 d4 77 11 2e f9 21 88 34 46 84 d2 37
       4.6496527e-17 3.307561e-11 2.5356692e-07 2.5095545e-05
0000d0 cf 23 7d 38 bc c6 1f 38 52 c3 ce 37 53 47 9d 36
       6.035325e-05 3.809364e-05 2.4648067e-05 4.687268e-06
0000e0 28 81 7c 35 22 e4 a4 33 f7 9e 18 33 c3 13 f2 32
       9.406526e-07 7.678342e-08 3.5534836e-08 2.8181494e-08
0000f0 59 4b d2 32 06 b1 eb 35 b1 da 7c 37 5a 5c 8d 38
       2.4481482e-08 1.7560385e-06 1.50712885e-05 6.740606e-05
000100 c0 c7 f2 38 cf 1d 9c 38 8e 5d 78 37 ca 3f 49 37
       0.000115766656 7.444212e-05 1.4803734e-05 1.1995386e-05
000110 33 0c 85 36 c1 fe a2 34 34 5b b8 32 a2 8d 41 30
       3.965129e-06 3.036021e-07 2.1461894e-08 7.0414263e-10
000120 44 b9 f7 33 a8 cd ca 37 70 27 38 39 b2 0f c7 37
       1.15355334e-07 2.4176043e-05 0.00017562299 2.3729957e-05
000130 b6 54 14 33 2a 68 02 2b d6 03 82 1f 7b 35 91 10
       3.453598e-08 4.6329835e-13 5.506349e-20 5.7274815e-29
000140 b7 a5 05 00 00 00 00 00 00 00 00 00 00 00 00 00
       5.18625e-40 0.0 0.0 0.0
000150 3b cc 45 33 8f db 62 36 7f 3c da 37 64 4a cd 38
       4.6053383e-08 3.3804424e-06 2.6015796e-05 9.789018e-05
000160 ba 39 c2 38 e8 69 eb 36 b2 ef 5c 37 cf d0 f2 36
       9.261393e-05 7.015875e-06 1.316883e-05 7.2364705e-06
000170 11 48 59 35 33 0f be 33 14 6e 91 33 28 a5 12 33
       8.094367e-07 8.850329e-08 6.772112e-08 3.4143483e-08
000180 1d fa c7 2a 78 9b 13 32 99 21 9d 36 08 a9 ba 38
       3.5523052e-13 8.591876e-09 4.682876e-06 8.900656e-05
000190 a8 15 23 38 0a 93 80 34 41 0e 94 2d 8c 5c 62 23
       3.8882397e-05 2.3948843e-07 1.6831982e-11 1.2271082e-17
0001a0 10 d9 d8 15 74 65 fa 04 00 00 00 00 00 00 00 00
       8.758417e-26 5.8867888e-36 0.0 0.0
0001b0 00 00 00 00 00 00 00 00 00 00 00 00 00 00 00 00
       0.0 0.0 0.0 0.0
0001c0 00 00 00 00 00 00 00 00 00 00 00 00 00 00 00 00
       0.0 0.0 0.0 0.0
0001d0 00 00 00 00 00 00 00 00 00 00 00 00 00 00 00 00
       0.0 0.0 0.0 0.0
0001e0 bf 9b 75 32 26 cf d7 34 41 47 d7 33 ab c3 1f 33
       1.42962895e-08 4.019759e-07 1.0024679e-07 3.719803e-08
0001f0 16 df 70 37 14 e9 12 39 b4 d1 c8 38 64 51 d9 37
       1.4357056e-05 0.00014010473 9.5758034e-05 2.5906316e-05
000200 b2 b2 5a 36 9b 91 f6 35 cb 3c 1f 35 1b 43 2c 34
       3.2588546e-06 1.8370805e-06 5.932058e-07 1.6043161e-07
000210 f4 01 00 00 24 2e 99 07 de ad b7 17 6f c8 84 24
       7e-43 2.3048e-34 1.1869988e-24 5.758542e-17
000220 91 0c f6 2d 59 dc 27 34 ad 04 74 37 76 96 72 38
       2.7972543e-11 1.5633249e-07 1.4544622e-05 5.7837424e-05
000230 ac 4f 0f 38 30 98 96 36 f9 35 b6 34 0a 17 7a 33
       3.4168057e-05 4.4880653e-06 3.3939412e-07 5.8228615e-08

exp_avg f4 [24, 12]
000000 75 43 d9 ba 4b 23 71 b9 00 00 00 00 ee f5 4d ba
       -0.001657589 -0.00022996699 0.0 -0.0007856776
000010 e4 ae e7 b9 2d 4f 96 ba 0f 85 3d b6 27 ff 45 b9
       -0.00044190057 -0.0011467688 -2.8240645e-06 -0.00018882436
000020 bd 15 14 b9 00 00 00 00 fd 8b dc b9 8d 62 94 b8
       -0.00014122478 0.0 -0.0004206597 -7.0755465e-05
000030 fd 56 8c 39 a5 be a1 38 00 00 00 00 91 af 36 39
       0.00026767692 7.7125886e-05 0.0 0.00017422276
000040 11 31 71 38 12 36 47 39 45 ae 59 36 f8 4b a5 37
       5.7504574e-05 0.00018998262 3.2436958e-06 1.9704908e-05
000050 91 03 34 38 00 00 00 00 a9 ef 87 38 a6 8c 8b b7
       4.2918666e-05 0.0 6.481942e-05 -1.6635586e-05
000060 ef c5 62 ba e9 49 17 b9 00 00 00 00 c2 ee 71 b9
       -0.000865071 -0.00014428016 0.0 -0.00023072495
000070 5f 2f 06 b9 dc 30 e3 b9 de cc c5 b6 f2 b0 4e 36
       -0.00012796883 -0.00043333217 -5.894907e-06 3.0799388e-06
000080 0d 03 28 b8 00 00 00 00 34 7a 32 b9 30 f8 0f 39
       -4.0057163e-05 0.0 -0.00017020927 0.0001373
000090 93 4b 5a 3a 3d aa 04 39 00 00 00 00 24 cc 53 39
       0.00083273015 0.0001265192 0.0 0.00020198576
0000a0 68 fd 0a 39 99 f0 a8 39 5a cd be 35 76 28 e8 b7
       0.00013255107 0.00032222716 1.4215868e-06 -2.7675396e-05
0000b0 f5 06 b2 38 00 00 00 00 47 ef 58 39 37 88 2c b9
       8.488997e-05 0.0 0.00020688503 -0.00016453942
0000c0 89 c0 05 3a 8a 99 4e 38 00 00 00 00 86 ff 5a 39
       0.00051022373 4.925722e-05 0.0 0.0002088529
0000d0 56 11 18 39 2b 0e 9b 39 0b d7 f0 35 50 09 64 38
       0.00014502308 0.0002957446 1.7943979e-06 5.436811e-05
0000e0 a3 c3 a5 38 00 00 00 00 29 ed 23 39 de e0 d4 37
       7.904253e-05 0.0 0.0001563324 2.5377081e-05
0000f0 58 64 a1 3a 65 c0 5b 39 00 00 00 00 b3 0a de 39
       0.001231323 0.0002095714 0.0 0.0004235111
000100 9b 85 64 39 7d c0 45 3a 0f 7f 25 37 17 b9 d0 38
       0.00021793546 0.00075436366 9.8643495e-06 9.9526886e-05
000110 69 a6 ec 38 00 00 00 00 55 36 2e 39 e8 4a 4e b8
       0.00011284353 0.0 0.00016614173 -4.918399e-05
000120 cc 5b af bb fe 65 29 ba 00 00 00 00 58 3d e5 ba
       -0.005351519 -0.00064620364 0.0 -0.0017489595
000130 40 32 a0 ba df bc 61 bb 9d 4e b5 b7 2e 34 0d ba
       -0.0012222007 -0.0034444851 -2.1613489e-05 -0.00053864985
000140 9d b7 f5 b9 00 00 00 00 8a 3e 59 ba b0 2c 74 b9
       -0.00046866844 0.0 -0.0008287212 -0.000232863
000150 0a e6 5f bb 37 5e ec b9 00 00 00 00 2c 2f cd ba
       -0.0034164214 -0.00045083623 0.0 -0.0015654317
000160 eb f5 68 ba 84 93 16 bb 54 53 17 b7 5c 48 c5 b9
       -0.0008886742 -0.002297611 -9.019703e-06 -0.0003762868
000170 a2 d8 9d b9 00 00 00 00 62 bc 66 ba 07 3d e4 b8
       -0.00030106778 0.0 -0.0008801875 -0.000108832544
000180 41 ed 61 3a 17 85 cb 38 00 00 00 00 a2 f9 e3 39
       0.00086184224 9.704584e-05 0.0 0.00043482805
000190 ce cf 75 39 8b a8 21 3a 33 96 b6 36 86 11 d0 38
       0.00023442434 0.00061667775 5.441508e-06 9.921477e-05
0001a0 6b 15 59 38 00 00 00 00 a6 17 8b 39 d3 b7 b2 37
       5.175678e-05 0.0 0.00026529765 2.1304853e-05
0001b0 23 bf 59 ba fd d0 1e b9 00 00 00 00 81 50 13 ba
       -0.00083063747 -0.00015145908 0.0 -0.0005619601
0001c0 3d 86 86 b9 ec 66 27 ba 5a 72 36 b5 dc 8e f3 b8
       -0.00025658487 -0.0006385881 -6.7966687e-07 -0.000116137526
0001d0 84 8e c2 b8 00 00 00 00 bb 19 a0 b9 70 17 29 b8
       -9.2771865e-05 0.0 -0.0003053675 -4.0314568e-05
0001e0 fd e8 3c ba 74 1b 96 38 00 00 00 00 da c1 88 3a
       -0.0007206349 7.157671e-05 0.0 0.0010433749
0001f0 6e 24 5c 39 3b ea 1f 3a 61 b8 b9 b6 4f 7b b9 39
       0.00020994406 0.0006100272 -5.534894e-06 0.00035377822
000200 78 8a b7 37 00 00 00 00 c8 4a dd 38 44 48 1a 3a
       2.187978e-05 0.0 0.0001055203 0.0005885402
000210 83 7e 41 bb 1a 0a c9 b9 00 00 00 00 02 39 d3 ba
       -0.002952487 -0.00038345234 0.0 -0.0016115012
000220 04 d1 5b ba 95 af 11 bb 5d f2 34 b7 08 53 ef b9
       -0.0008385333 -0.00222299 -1.0785266e-05 -0.00045647495
000230 b1 a2 97 b9 00 00 00 00 06 67 49 ba a7 9b 6b b9
       -0.0002892218 0.0 -0.0007682893 -0.00022469331
000240 ca b2 39 3a 46 69 9d 38 00 00 00 00 51 26 70 ba
       0.00070838316 7.505952e-05 0.0 -0.0009160983
000250 cc 35 89 b9 d4 a6 ee b9 49 77 53 b5 c6 f5 a4 b9
       -0.00026170758 -0.00045519194 -7.877721e-07 -0.00031463633
000260 e2 96 87 36 00 00 00 00 b3 8c 55 b9 e4 1f 0c ba
       4.0408786e-06 0.0 -0.00020365677 -0.0005345328
000270 27 71 4f ba 27 f4 c6 b8 00 00 00 00 2f ca 25 b9
       -0.00079132844 -9.486853e-05 0.0 -0.00015810945
000280 33 ef 14 b9 70 8e df b9 35 8c 71 b6 9f 3b 2f b8
       -0.00014203489 -0.0004264 -3.599341e-06 -4.1778778e-05
000290 1d ed 89 b8 00 00 00 00 f6 e8 af b8 9b 33 97 37
       -6.576835e-05 0.0 -8.3880426e-05 1.8024633e-05
0002a0 4c c4 8f 3b a9 58 16 3a 00 00 00 00 64 07 e7 3a
       0.004387414 0.00057352573 0.0 0.0017626104
0002b0 1e e7 84 3a 21 25 38 3b 39 b5 92 37 22 b0 da 39
       0.0010139679 0.0028098302 1.7488945e-05 0.0004171143
0002c0 3d 0b b5 39 00 00 00 00 7b ef 79 3a c4 e0 8f 36
       0.00034531383 0.0 0.00095342816 4.2878983e-06
0002d0 1b 69 a9 3a 09 18 24 39 00 00 00 00 db 34 1e 3a
       0.0012925001 0.00015649213 0.0 0.0006035098
0002e0 af f6 ca 39 67 28 5c 3a ee b8 3f b6 22 3a 02 39
       0.00038712236 0.00083983544 -2.856886e-06 0.00012419422
0002f0 2d 61 f1 38 00 00 00 00 d8 47 e2 39 86 44 59 38
       0.00011509876 0.0 0.00043159607 5.180065e-05
000300 16 1a ca 39 23 09 0e 39 00 00 00 00 54 62 c6 b7
       0.00038547878 0.00013545579 0.0 -2.3649227e-05
000310 25 17 7a b8 c4 b7 e1 38 04 f1 04 35 92 04 1a b8
       -5.96262e-05 0.00010763065 4.9524556e-07 -3.6720718e-05
000320 1a ab a1 38 00 00 00 00 b0 d7 8d b7 41 a1 22 b9
       7.7089484e-05 0.0 -1.6908947e-05 -0.00015509596
000330 ab 53 ab 3b 73 18 6a 3a 00 00 00 00 d2 86 43 3b
       0.00522848 0.0008930035 0.0 0.0029834998
000340 8e b7 af 3a b9 c3 7e 3b 51 be 8e 37 ed 48 29 3a
       0.0013406144 0.0038873984 1.7016342e-05 0.0006457705
000350 27 d8 19 3a 00 00 00 00 09 e0 cb 3a 29 0e fa 38
       0.0005868696 0.0 0.0015554439 0.000119235665
000360 e1 b6 1a 3b ac 51 ac 39 00 00 00 00 9e 05 be 3a
       0.002360754 0.00032867247 0.0 0.0014497524
000370 e1 f0 3a 3a 3c b8 fb 3a 62 4e fa 36 41 fc bf 39
       0.00071312307 0.0019204686 7.4597056e-06 0.00036618303
000380 34 d4 6e 39 00 00 00 00 c2 d4 3d 3a b6 d2 5a 39
       0.000227765 0.0 0.0007241481 0.00020868596
000390 06 08 2e 3b 0b 7f 93 39 00 00 00 00 0a 5e 55 39
       0.0026555075 0.0002813268 0.0 0.00020348295
0003a0 13 cc c7 39 8b 63 87 3a d3 5b 99 36 7a 53 c5 b7
       0.00038108285 0.0010329349 4.570445e-06 -2.3523102e-05
0003b0 2d 79 40 39 00 00 00 00 86 0d e3 39 43 98 b2 b9
       0.00018355688 0.0 0.0004330689 -0.0003406425
0003c0 18 94 a6 ba 58 fd 6f b9 00 00 00 00 1e fd 8c ba
       -0.001270893 -0.00022887194 0.0 -0.0010756587
0003d0 15 bc fc b9 b6 63 9b ba 44 81 c1 b4 09 60 8e b9
       -0.00048205318 -0.0011855278 -3.6043105e-07 -0.00027155902
0003e0 99 49 ee b8 00 00 00 00 e0 a0 fb b9 c2 e9 60 b9
       -0.00011362433 0.0 -0.00047994312 -0.00021449386
0003f0 80 bf aa ba dd f1 17 b9 00 00 00 00 da a4 6b ba
       -0.0013027042 -0.00014490583 0.0 -0.00089891034

exp_avg_sq f4 [24, 12]
000000 04 12 45 38 85 14 12 35 00 00 00 00 24 ff ea 37
       4.698524e-05 5.44191e-07 0.0 2.8013783e-05
000010 ec 42 7d 36 a5 96 96 37 ac 4a 15 31 ab 0a b1 35
       3.7738891e-06 1.7951543e-05 2.17248e-09 1.3190632e-06
000020 47 8e 00 35 00 00 00 00 0a 0a b1 36 4f 16 54 36
       4.7890757e-07 0.0 5.2761798e-06 3.1603447e-06
000030 1f 22 09 37 3a bd 4c 35 00 00 00 00 41 7a b6 36
       8.173781e-06 7.6271283e-07 0.0 5.438255e-06
000040 84 74 1d 35 a5 26 c1 36 fb 0f c0 30 5a ba 34 34
       5.865661e-07 5.756347e-06 1.397438e-09 1.68316e-07
000050 89 d7 84 34 00 00 00 00 c7 3d 1a 35 c7 a8 65 34
       2.4743738e-07 0.0 5.745937e-07 2.1388688e-07
000060 1d b8 b5 37 b7 95 92 34 00 00 00 00 72 b4 9c 36
       2.1662616e-05 2.730355e-07 0.0 4.670169e-06
000070 37 1f 8c 35 8b fe 18 37 1e 34 8c 30 41 f9 2b 35
       1.0439898e-06 9.119171e-06 1.0201153e-09 6.4065176e-07
000080 da 8f 2d 35 00 00 00 00 25 68 a0 35 0b 52 7e 35
       6.4656854e-07 0.0 1.1951239e-06 9.474176e-07
000090 9a 8c 8d 37 d2 27 10 35 00 00 00 00 c9 69 9f 37
       1.6873983e-05 5.3702126e-07 0.0 1.9003537e-05
0000a0 21 ec 35 36 0f fb 58 37 99 6d ac 30 d8 a4 8a 35
       2.7108547e-06 1.2933057e-05 1.2545797e-09 1.0329777e-06
0000b0 21 d8 30 34 00 00 00 00 d3 32 95 36 c3 ea 8c 35
       1.6469905e-07 0.0 4.4464628e-06 1.0499137e-06
0000c0 ed 51 2b 38 2b 38 90 34 00 00 00 00 c2 33 1a 36
       4.0845876e-05 2.6862958e-07 0.0 2.2977915e-06
0000d0 9d 95 a0 35 a3 69 dd 36 5d 87 d1 2f 4e a3 a7 34
       1.1964472e-06 6.598611e-06 3.811306e-10 3.1224994e-07
0000e0 a6 e1 27 35 00 00 00 00 d4 f2 19 36 2a 85 ba 35
       6.254071e-07 0.0 2.2940121e-06 1.3896836e-06
0000f0 42 06 61 37 9c 15 eb 34 00 00 00 00 26 1d 5a 36
       1.3412502e-05 4.3787884e-07 0.0 3.2501498e-06
000100 0f 10 59 35 88 56 a9 36 ef 23 f8 30 6a e0 cd 34
       8.086217e-07 5.046666e-06 1.8054588e-09 3.8347508e-07
000110 cd 8c 60 33 00 00 00 00 c1 0c 59 35 b7 94 8a 35
       5.228212e-08 0.0 8.085736e-07 1.0325083e-06
000120 5e b5 47 3a 88 f3 31 37 00 00 00 00 48 46 10 39
       0.00076182734 1.0606724e-05 0.0 0.00013759092
000130 2b 0b 44 38 e3 4b 9e 39 3a fb a3 32 a2 74 14 37
       4.6740442e-05 0.00030192648 1.9089942e-08 8.848643e-06
000140 49 4c b5 36 00 00 00 00 51 d6 08 38 97 42 be 36
       5.403101e-06 0.0 3.2624524e-05 5.6701933e-06
000150 a5 9a 40 39 93 75 56 36 00 00 00 00 94 bd ed 38
       0.00018368156 3.1956922e-06 0.0 0.00011336352
000160 41 7d e9 37 15 35 09 39 e2 0f 3b 31 5e ec e5 36
       2.783409e-05 0.00013085113 2.722111e-09 6.8522486e-06
000170 94 f6 94 35 00 00 00 00 40 70 06 38 61 a7 ac 36
       1.1098623e-06 0.0 3.205263e-05 5.145485e-06
000180 5a e0 e6 38 4c d0 84 36 00 00 00 00 c7 d7 14 36
       0.000110090434 3.9581555e-06 0.0 2.2179318e-06
000190 53 9e 9a 35 36 cd da 37 2f 18 78 31 c5 22 84 34
       1.1519973e-06 2.6083184e-05 3.6102497e-09 2.4612214e-07
0001a0 82 9c 28 36 00 00 00 00 32 77 91 35 c4 0f 34 35
       2.512505e-06 0.0 1.0838032e-06 6.707817e-07
0001b0 9e 55 4c 37 f2 a7 d8 35 00 00 00 00 3f 4b a7 37
       1.2179282e-05 1.6142133e-06 0.0 1.994299e-05
0001c0 ea be fc 35 68 ef 8f 37 69 f8 87 2f f9 78 a2 35
       1.8831026e-06 1.715841e-05 2.4732863e-10 1.2105148e-06
0001d0 48 39 af 34 00 00 00 00 32 31 08 36 ad 8d 53 35
       3.2637968e-07 0.0 2.0294215e-06 7.880979e-07
0001e0 e0 b0 2e 39 46 8d 37 36 00 00 00 00 3d 75 38 39
       0.00016659824 2.7351357e-06 0.0 0.00017591282
0001f0 d7 38 b2 37 7c 62 07 39 12 76 83 31 9c 35 c8 37
       2.1245722e-05 0.00012911292 3.826025e-09 2.3866822e-05
000200 24 90 a6 35 00 00 00 00 a1 97 7a 37 86 ef 5b 38
       1.2409914e-06 0.0 1.4936465e-05 5.2436742e-05
000210 fb 65 a2 38 c1 a3 db 35 00 00 00 00 3e fe 4e 38
       7.743757e-05 1.636443e-06 0.0 4.935101e-05
000220 56 87 2d 37 79 bc 82 38 98 b8 05 31 32 1d bd 36
       1.0343114e-05 6.233989e-05 1.9458977e-09 5.6360377e-06
000230 2d ca 1d 35 00 00 00 00 20 34 1d 37 1a a3 d3 36
       5.878126e-07 0.0 9.3700655e-06 6.3072775e-06
000240 c4 45 9e 38 67 1f bf 35 00 00 00 00 0c a2 66 38
       7.547022e-05 1.4239748e-06 0.0 5.498719e-05
000250 bd 09 2d 37 41 80 8a 38 6a 28 2f 31 36 06 20 37
       1.0313871e-05 6.604242e-05 2.5488824e-09 9.538189e-06
000260 af 62 79 35 00 00 00 00 fa 82 09 37 ad e6 89 37
       9.290333e-07 0.0 8.196332e-06 1.643909e-05
000270 15 83 4d 37 9f 15 67 34 00 00 00 00 2c 44 61 36
       1.2249472e-05 2.1521417e-07 0.0 3.3567294e-06
000280 12 44 59 35 ed 3d a7 36 a9 c3 f4 2f 82 05 79 34
       8.0937855e-07 4.984197e-06 4.4522366e-10 2.3191936e-07
000290 68 af 0a 34 00 00 00 00 f6 bb 4b 35 bc 18 c1 34
       1.2916064e-07 0.0 7.589691e-07 3.5967048e-07
0002a0 a3 c1 b5 39 d4 10 02 37 00 00 00 00 7f da 6d 38
       0.0003466728 7.752522e-06 0.0 5.6708694e-05
0002b0 e3 59 49 37 13 e5 c2 38 56 9d 7f 32 1d f3 49 36
       1.2001462e-05 9.293309e-05 1.4878728e-08 3.0092845e-06
0002c0 36 11 06 37 00 00 00 00 2f 86 b7 37 d6 24 a0 36
       7.99103e-06 0.0 2.1877784e-05 4.77266e-06
0002d0 af 11 57 38 89 8d 03 35 00 00 00 00 a6 2d 32 37
       5.1276464e-05 4.9007264e-07 0.0 1.0620255e-05
0002e0 88 85 a5 36 e6 ad 92 37 d7 03 d4 30 02 98 6d 34
       4.9329283e-06 1.7485534e-05 1.5426121e-09 2.2127645e-07
0002f0 53 77 af 34 00 00 00 00 0a 20 02 37 98 c5 87 34
       3.268311e-07 0.0 7.7560635e-06 2.5289478e-07
000300 06 e4 86 38 7e 15 d4 36 00 00 00 00 35 34 7a 38
       6.4320906e-05 6.3205944e-06 0.0 5.9653266e-05
000310 d3 d8 ce 36 2a 0f 84 38 7e 12 8f 31 6c 56 04 36
       6.16452e-06 6.297075e-05 4.16395e-09 1.9719837e-06
000320 53 7e dd 35 00 00 00 00 53 74 b4 36 79 8c 3e 35
       1.6502548e-06 0.0 5.37796e-06 7.098493e-07
000330 1f b8 45 3a 8e fc fd 37 00 00 00 00 d4 aa 0d 3a
       0.000754239 3.0277555e-05 0.0 0.00054041785
000340 70 90 ba 38 4f 98 19 3a 21 37 7c 32 7d cd ba 37
       8.896075e-05 0.00058591826 1.4680865e-08 2.2268616e-05
000350 c6 a9 0b 37 00 00 00 00 f5 da e7 38 f2 64 16 37
       8.324574e-06 0.0 0.00011055722 8.9642e-06
000360 af 45 ba 38 4e 7b cf 35 00 00 00 00 34 b1 ed 38
       8.882151e-05 1.5458588e-06 0.0 0.00011334047
000370 66 bd 82 37 ed 2d 9c 38 de b5 47 31 16 a4 c6 36
       1.5585403e-05 7.447214e-05 2.906169e-09 5.919962e-06
000380 a3 86 2d 35 00 00 00 00 c0 e5 c0 37 9f 28 1e 37
       6.4643444e-07 0.0 2.299517e-05 9.426992e-06
000390 43 16 87 39 a8 0a 97 36 00 00 00 00 04 a8 72 38
       0.00025765793 4.5013912e-06 0.0 5.7853773e-05
0003a0 48 8a 77 37 ac 9e b0 38 ed 0e 34 31 c5 50 14 37
       1.4754543e-05 8.421889e-05 2.6201932e-09 8.840293e-06
0003b0 3c 0f 07 36 00 00 00 00 88 e5 9b 37 ae 9e b9 37
       2.0125435e-06 0.0 1.8584324e-05 2.212761e-05
0003c0 20 47 5b 39 04 7f 78 35 00 00 00 00 77 e9 93 38
       0.00020911964 9.257203e-07 0.0 7.0529924e-05
0003d0 30 78 b5 36 97 63 ee 37 4c 73 05 32 74 88 b8 36
       5.408212e-06 2.8418186e-05 7.767834e-09 5.4995126e-06
0003e0 49 87 d0 35 00 00 00 00 7a 37 f2 36 55 18 a8 37
       1.5536581e-06 0.0 7.2186203e-06 2.0038491e-05
0003f0 be 0a 02 39 00 02 99 36 00 00 00 00 06 57 66 37
       0.00012401768 4.559988e-06 0.0 1.372933e-05

exp_avg f4 [12]
000000 a6 6f 94 3b 03 11 10 bb 00 00 00 00 58 ec 90 bb
       0.004529911 -0.0021982796 0.0 -0.0044227056
000010 5b 61 26 3b 4a e2 04 bb 59 5b 4e 3b a7 49 70 ba
       0.0025387618 -0.002027648 0.0031487553 -0.00091662485
000020 72 17 41 bb 00 00 00 00 8c c2 b9 3b 82 2d 48 ba
       -0.0029463437 0.0 0.0056689437 -0.0007636176

exp_avg_sq f4 [12]
000000 65 db 61 3a f2 2a 9e 38 00 00 00 00 61 2f 01 3a
       0.0008615761 7.542026e-05 0.0 0.00049280195
000010 14 5c 23 39 a9 bd d0 39 48 42 5a 39 54 88 a3 39
       0.00015579193 0.0003981416 0.00020814792 0.00031191355
000020 58 6c 06 39 00 00 00 00 0b 21 c6 39 ee 6b 18 39
       0.00012819597 0.0 0.00037790122 0.00014536057

exp_avg f4 [24]
000000 84 48 8e ba 8a 9a 46 39 0b c0 09 ba b0 a5 f1 39
       -0.0010855352 0.00018940322 -0.0005254752 0.0004609055
000010 7d 95 9b 39 53 ce 42 3a 06 f8 4f bb da 6f 10 bb
       0.0002967528 0.00074312574 -0.0031733527 -0.0022039325
000020 10 31 1b 3a fa 90 1f ba 73 91 6a 38 1a c7 01 bb
       0.00059200916 -0.0006086972 5.5925408e-05 -0.0019802512
000030 86 b4 0e 37 33 f6 e0 b9 47 2c 34 3b 62 b9 5c 3a
       8.505891e-06 -0.00042908042 0.0027492212 0.0008419958
000040 e4 1c 39 39 19 a7 6d 3b a5 d6 dc 3a 61 e5 b0 3a
       0.00017653737 0.0036262928 0.0016848637 0.0013496095
000050 ef 77 85 ba c9 d7 7d ba 61 b6 3e 3b d5 2c 47 b9
       -0.0010182838 -0.00096833386 0.0029100406 -0.0001899482

exp_avg_sq f4 [24]
000000 15 c9 70 37 18 c8 99 36 91 d7 d0 36 4b cc 27 37
       1.4351933e-05 4.5830493e-06 6.2239783e-06 1.0001541e-05
000010 cf c2 20 37 93 30 a0 36 f9 d6 8f 39 3c 6b e0 38
       9.582101e-06 4.7740264e-06 0.00027435253 0.00010701126
000020 ff ce c6 37 9a 08 33 37 42 6d 83 38 dc f8 37 38
       2.369983e-05 1.0671234e-05 6.2669176e-05 4.386237e-05
000030 98 d7 1d 38 07 f3 93 36 25 05 af 38 0b 02 b1 37
       3.7632504e-05 4.4092335e-06 8.3456085e-05 2.1100996e-05
000040 7d dd 36 38 f4 21 f6 39 77 95 4c 38 9e 67 be 38
       4.359846e-05 0.00046946073 4.877659e-05 9.079206e-05
000050 75 ec fe 37 80 ee bf 37 ab 79 22 39 b6 b9 d3 36
       3.0389268e-05 2.2880035e-05 0.00015494849 6.3099096e-06

exp_avg f4 [12, 12]
000000 5c 3b 42 b8 16 46 e8 b9 62 a3 94 b9 23 ab 03 3a
       -4.6308487e-05 -0.00044302706 -0.0002835049 0.0005022755
000010 13 fd b5 3a 6a eb 5a b8 76 a1 f4 b8 7a 4e 64 b6
       0.0013884626 -5.2194497e-05 -0.00011664901 -3.4020327e-06
000020 10 ba 93 36 93 80 87 38 3e 31 e9 38 d5 12 37 37
       4.402602e-06 6.4612505e-05 0.00011119478 1.0912035e-05
000030 9a 1f 41 b1 e4 f5 03 36 3e 60 16 39 89 70 86 3a
       -2.810316e-09 1.9663648e-06 0.00014340968 0.0010256927
000040 69 e5 05 3b 8f a2 d7 3a bf 3c 52 3a 78 49 4a 39
       0.0020430929 0.0016451644 0.0008019916 0.0001929159
000050 f8 a5 02 37 28 a2 02 33 32 c1 41 2d ff b3 d7 25
       7.787246e-06 3.0415464e-08 1.1013678e-11 3.7418525e-16
000060 af 41 84 36 b0 7b 00 39 08 34 1c 3a c6 65 80 3a
       3.941553e-06 0.00012253108 0.0005958681 0.0009795956
000070 fd 52 42 3b 5c 8a cd 3b 90 0a 1b 3b f7 2e 07 ba
       0.0029651516 0.0062725972 0.0023657419 -0.00051568396
000080 ec 1c e0 ba e5 34 9d ba 3b 46 a2 b9 7d b1 ba b7
       -0.0017098463 -0.0011993913 -0.00030951374 -2.2255577e-05
000090 cd 3a 01 39 47 87 2c 3a 7c c0 ee 39 d2 64 f6 b9
       0.00012324304 0.0006581437 0.0004553831 -0.00046995893
0000a0 4d 95 f3 ba 0d 0b be ba e1 04 c7 b8 ba 53 e4 39
       -0.0018583924 -0.0014499143 -9.489968e-05 0.0004354993
0000b0 eb ab 92 3a ac 4e 41 3a 58 8a 3f 39 5c 82 b3 37
       0.0011190152 0.0007374089 0.00018266717 2.1399166e-05
0000c0 00 00 00 00 00 00 00 00 00 00 00 00 00 00 00 00
       0.0 0.0 0.0 0.0
0000d0 00 00 00 00 00 00 00 00 00 00 00 00 00 00 00 00
       0.0 0.0 0.0 0.0
0000e0 00 00 00 00 00 00 00 00 00 00 00 00 00 00 00 00
       0.0 0.0 0.0 0.0
0000f0 00 00 00 00 00 00 00 00 00 00 00 00 00 00 00 00
       0.0 0.0 0.0 0.0
000100 00 00 00 00 00 00 00 00 00 00 00 00 00 00 00 00
       0.0 0.0 0.0 0.0
000110 00 00 00 00 00 00 00 00 00 00 00 00 00 00 00 00
       0.0 0.0 0.0 0.0
000120 1b bb 1c b9 20 f3 30 ba 0e fb ee b9 73 99 24 ba
       -0.00014947022 -0.00067500956 -0.00045581948 -0.0006278969
000130 53 d4 34 b9 8d 80 94 b6 c2 aa 15 b2 d2 c7 34 b3
       -0.00017245235 -4.425709e-06 -8.711767e-09 -4.209125e-08
000140 35 75 a5 b6 07 89 89 b8 77 3f c2 b8 61 80 a4 37
       -4.931028e-06 -6.5581924e-05 -9.262462e-05 1.9610105e-05
000150 2e cc 82 38 27 ca b6 38 8f 81 9c ba 47 23 b5 ba
       6.2369145e-05 8.71609e-05 -0.0011940467 -0.0013819718
000160 03 1b fa ba 2e ba b3 bb 8e 67 cc ba 9f c9 03 3b
       -0.0019081536 -0.005484841 -0.0015594827 0.002010919
000170 d6 b4 49 3a 8c 49 8a 39 7b 01 7a 39 2b 57 b8 38
       0.0007694488 0.00026376208 0.0002384241 8.79004e-05
000180 00 00 00 00 00 00 00 00 00 00 00 00 00 00 00 00
       0.0 0.0 0.0 0.0
000190 00 00 00 00 00 00 00 00 00 00 00 00 00 00 00 00
       0.0 0.0 0.0 0.0
0001a0 00 00 00 00 00 00 00 00 00 00 00 00 00 00 00 00
       0.0 0.0 0.0 0.0
0001b0 f2 8b 64 39 ab fb aa 3a ad 41 46 3a 72 8d 3d ba
       0.00021795908 0.0013044974 0.0007562887 -0.0007230855
0001c0 0e 0c c5 b9 64 a6 68 b7 1f 8c 42 b3 13 89 29 b2
       -0.0003758375 -1.3867018e-05 -4.5296584e-08 -9.868262e-09
0001d0 ce 7f ec b5 90 32 00 b8 4b 06 39 b8 cd d3 b1 37
       -1.7620566e-06 -3.0564668e-05 -4.4113298e-05 2.1198672e-05
0001e0 ef 8a 88 38 f1 63 cc 38 7a 5d 89 ba 50 61 3d bb
       6.510864e-05 9.7460936e-05 -0.0010480129 -0.0028897114
0001f0 76 46 a0 bb 82 e1 9f bb 01 e7 cd ba d9 c6 e4 b9
       -0.004891212 -0.0048791775 -0.0015709103 -0.00043635702
000200 76 8c 09 ba cc 6f 82 b9 0c 6c 5d b8 4d 49 47 b7
       -0.00052470656 -0.00024878827 -5.2791132e-05 -1.1878391e-05
000210 b1 b2 17 b8 ff ac 1c b9 c7 dd 6f b8 04 0b 08 b6
       -3.6167625e-05 -0.00014941765 -5.7188587e-05 -2.0271991e-06
000220 e6 1c 36 34 3c 48 6d 36 5a 06 82 35 66 4b 8a 39
       1.6960584e-07 3.5357798e-06 9.687603e-07 0.00026377587
000230 72 da 88 39 31 24 a3 37 72 73 1f b8 ba 33 18 b8
       0.00026102696 1.9447967e-05 -3.801607e-05 -3.6287798e-05

exp_avg_sq f4 [12, 12]
000000 a4 44 4c 34 be 70 16 37 da 8f 57 38 98 22 7c 39
       1.9023952e-07 8.966947e-06 5.1393967e-05 0.0002404548
000010 d9 8c 30 3a b6 22 a7 39 eb 3f eb 36 04 df 28 31
       0.0006734855 0.00031878584 7.010987e-06 2.4573987e-09
000020 71 df a4 31 ae 07 82 35 44 13 94 36 84 a7 0a 36
       4.7984305e-09 9.68799e-07 4.4129865e-06 2.066111e-06
000030 f3 a3 92 29 8f 7f 4a 31 7c aa 55 36 cc 86 f0 38
       6.512143e-14 2.9467377e-09 3.1838708e-06 0.000114692
000040 e1 8d c8 39 4e fb 79 3a e8 4c a1 39 e1 2d d0 36
       0.0003825268 0.00095360435 0.00030765613 6.204224e-06
000050 7c 66 9f 31 1a 68 7e 29 52 2e 0f 1e 51 74 49 0f
       4.63916e-09 5.6489623e-14 7.579936e-21 9.932467e-30
000060 bf 4f dc 33 9e 10 f1 36 11 b9 0e 38 3a 6a 08 39
       1.0259054e-07 7.184294e-06 3.4027795e-05 0.00013009543
000070 45 93 85 39 da 44 fb 39 e2 70 4e 39 60 62 c8 37
       0.0002547746 0.0004792575 0.00019687743 2.3887667e-05
000080 38 cc 73 38 db e9 ea 37 d3 05 53 36 c0 08 44 33
       5.812591e-05 2.8003871e-05 3.144484e-06 4.5642764e-08
000090 3c f4 ee 33 cb e6 07 37 d4 19 36 38 23 fc 08 39
       1.11271646e-07 8.100363e-06 4.3416236e-05 0.00013063899
0000a0 65 1a af 39 77 9f a5 38 af b1 5c 35 2a 74 65 37
       0.00033398267 7.897516e-05 8.221495e-07 1.367651e-05
0000b0 b9 9b 69 38 0a 6b 47 37 67 bd be 35 32 f0 f5 34
       5.5696557e-05 1.1886246e-05 1.4211226e-06 4.580957e-07
0000c0 00 00 00 00 00 00 00 00 00 00 00 00 00 00 00 00
       0.0 0.0 0.0 0.0
0000d0 00 00 00 00 00 00 00 00 00 00 00 00 00 00 00 00
       0.0 0.0 0.0 0.0
0000e0 00 00 00 00 00 00 00 00 00 00 00 00 00 00 00 00
       0.0 0.0 0.0 0.0
0000f0 00 00 00 00 00 00 00 00 00 00 00 00 00 00 00 00
       0.0 0.0 0.0 0.0
000100 00 00 00 00 00 00 00 00 00 00 00 00 00 00 00 00
       0.0 0.0 0.0 0.0
000110 00 00 00 00 00 00 00 00 00 00 00 00 00 00 00 00
       0.0 0.0 0.0 0.0
000120 3a fd 78 34 80 48 dc 36 1f e9 43 37 9b 8f f8 37
       2.3188923e-07 6.564951e-06 1.16771835e-05 2.9630775e-05
000130 91 a8 4a 36 14 4c a6 31 e1 b9 b1 29 fc a2 e7 29
       3.0198464e-06 4.839885e-09 7.892624e-14 1.0286734e-13
000140 75 4b bc 30 18 62 85 34 be ea 9f 35 f3 84 54 35
       1.3700246e-09 2.4844553e-07 1.1914742e-06 7.916962e-07
000150 ab 91 1f 35 08 05 b6 37 d8 a2 1f 38 21 7a 2e 39
       5.944409e-07 2.1698434e-05 3.8060214e-05 0.0001663943
000160 34 45 bb 39 f5 7e 4c 3a 80 39 78 39 2b 87 37 39
       0.0003571898 0.00078009005 0.00023672543 0.00017502594
000170 7b 21 9f 37 a6 b9 a2 34 84 9e 06 35 db a5 3d 34
       1.8969868e-05 3.0309928e-07 5.014956e-07 1.7662335e-07
000180 00 00 00 00 00 00 00 00 00 00 00 00 00 00 00 00
       0.0 0.0 0.0 0.0
000190 00 00 00 00 00 00 00 00 00 00 00 00 00 00 00 00
       0.0 0.0 0.0 0.0
0001a0 00 00 00 00 00 00 00 00 00 00 00 00 00 00 00 00
       0.0 0.0 0.0 0.0
0001b0 79 c7 45 35 a8 60 70 38 84 b2 49 39 66 bc 4e 39
       7.367849e-07 5.7310477e-05 0.00019235356 0.00019715875
0001c0 2e 84 7a 37 ee de 69 32 c2 28 06 2a 4d 4d c7 27
       1.4931937e-05 1.3613073e-08 1.1915732e-13 5.5317405e-15
0001d0 91 09 58 2f 7d a9 bc 33 61 ac 61 35 a8 ce 35 35
       1.9648484e-10 8.785262e-08 8.4069876e-07 6.772848e-07
0001e0 f6 66 07 34 c2 08 48 37 3c d5 0b 39 97 05 8a 39
       1.2610312e-07 1.1922968e-05 0.00013335509 0.00026325576
0001f0 4a 57 d3 39 5a 96 09 3a 6f c7 72 38 c0 63 b2 36
       0.00040310092 0.00052485394 5.7883033e-05 5.316426e-06
000200 ee 7a 7e 37 65 54 a0 36 c8 9e 9d 34 a8 e3 37 32
       1.5168202e-05 4.7781964e-06 2.9359057e-07 1.0703765e-08
000210 87 7a 16 32 4c eb 22 34 12 2e c2 32 fd af fe 2d
       8.759009e-09 1.5173026e-07 2.2605523e-08 2.8954611e-11
000220 f2 af 9a 2f ed 62 bb 35 49 77 d6 38 3d 5b 67 39
       2.8137453e-10 1.3961377e-06 0.00010226534 0.00022063866
000230 e7 bc ed 37 ae 44 42 34 90 4b f8 34 6d 02 8a 35
       2.8340566e-05 1.8092643e-07 4.624858e-07 1.0282507e-06

exp_avg f4 [24, 12]
000000 da 3b 17 38 3f d5 26 39 77 66 2b 39 fb 49 45 39
       3.6056947e-05 0.00015910434 0.00016346002 0.00018814944
000010 00 00 00 00 00 00 00 00 c9 eb 63 32 3b a3 0e 3a
       0.0 0.0 1.326675e-08 0.00054411934
000020 00 00 00 00 24 1d 85 38 08 37 41 39 7d 27 10 38
       0.0 6.347362e-05 0.00018426415 3.436905e-05
000030 98 c7 cb b8 18 ac cb b9 43 05 84 b9 37 ba d4 b7
       -9.7169715e-05 -0.00038847397 -0.00025180922 -2.5359082e-05
000040 00 00 00 00 00 00 00 00 33 2a 3b 38 51 d1 09 3a
       0.0 0.0 4.4623575e-05 0.0005257326
000050 00 00 00 00 12 9e 58 39 93 ed 48 39 d2 76 18 37
       0.0 0.00020658251 0.0001916199 9.087571e-06
000060 4a a9 0f ba 05 1c 80 ba ac 93 cc ba 82 fc c2 ba
       -0.0005480243 -0.0009773975 -0.0015607974 -0.0014876279
000070 00 00 00 00 00 00 00 00 6f 5b ba b8 68 30 e6 ba
       0.0 0.0 -8.886202e-05 -0.0017562034
000080 00 00 00 00 4e f3 b8 b9 8c b5 2e bb 2a bd 4b b8
       0.0 -0.0003527649 -0.0026658503 -4.8575144e-05
000090 60 27 22 3a 23 9c c6 3a 3f f3 ed 3a ce 35 96 3a
       0.0006185677 0.0015152734 0.0018154158 0.0011460127
0000a0 00 00 00 00 00 00 00 00 6e 8e 91 37 33 ad cb 3a
       0.0 0.0 1.7351671e-05 0.0015539288
0000b0 00 00 00 00 5f cf f1 b8 16 e6 17 3b 8a be 53 38
       0.0 -0.000115304014 0.0023177913 5.0483774e-05
0000c0 b7 11 30 3a 7a 47 de 3a bd 48 12 3b e1 f2 9d 3a
       0.0006716507 0.0016958558 0.0022321187 0.0012050533
0000d0 00 00 00 00 00 00 00 00 9a f4 37 38 69 4a 1b 3b
       0.0 0.0 4.3858403e-05 0.0023695475
0000e0 00 00 00 00 73 5f a4 39 6b 3d 5e 3b 75 f8 c8 38
       0.0 0.00031351633 0.003391112 9.583022e-05
0000f0 3e ea f2 39 93 cb 1a 3a 99 47 41 3a 32 a0 31 3a
       0.0004633236 0.0005904969 0.00073730346 0.0006775885
000100 00 00 00 00 00 00 00 00 34 0b a0 38 dd 4d 74 3a
       0.0 0.0 7.631481e-05 0.0009319464
000110 00 00 00 00 6d cc b8 39 cb a2 d7 3a 46 cc fb b7
       0.0 0.00035247524 0.0016451714 -3.0016654e-05
000120 3f bc 29 ba e5 f6 66 ba 4f a4 9a ba 4e 28 bd ba
       -0.0006474889 -0.0008810594 -0.0011798235 -0.0014431567
000130 00 00 00 00 00 00 00 00 ff 48 b8 b8 05 c8 5c ba
       0.0 0.0 -8.7874e-05 -0.0008422139
000140 00 00 00 00 8c 80 03 ba 8d 48 2a bb 18 dc 9a 37
       0.0 -0.00050164084 -0.0025983185 1.846072e-05
000150 16 21 b9 b8 c4 92 12 b9 b0 b2 84 b9 05 16 7c b9
       -8.82765e-05 -0.0001397832 -0.00025310135 -0.00024040796
000160 00 00 00 00 00 00 00 00 f3 c0 ee 37 21 56 38 38
       0.0 0.0 2.846166e-05 4.3949232e-05
000170 00 00 00 00 a1 67 b8 b8 9b 93 09 ba d9 9a e9 36
       0.0 -8.793106e-05 -0.000524813 6.9619678e-06
000180 65 ad 77 b9 dd 60 2e b9 fe 6a e3 b9 77 35 6d ba
       -0.0002362035 -0.00016630017 -0.0004337653 -0.00090487994
000190 00 00 00 00 00 00 00 00 55 22 09 b8 d7 67 8f ba
       0.0 0.0 -3.269532e-05 -0.0010940981
0001a0 00 00 00 00 34 1b c6 b9 0f 0d a8 ba f9 b5 b3 b7
       0.0 -0.0003778577 -0.0012821275 -2.14232e-05
0001b0 c2 03 87 ba e1 7f ed ba 01 a2 1e bb 50 3c ff ba
       -0.0010300803 -0.0018119776 -0.0024205449 -0.001947293
0001c0 00 00 00 00 00 00 00 00 a3 a6 13 b9 46 6b b4 ba
       0.0 0.0 -0.0001408109 -0.001376488
0001d0 00 00 00 00 54 5c e2 b9 8c 17 77 bb 30 ed 9e 37
       0.0 -0.0004317487 -0.0037703244 1.8945517e-05
0001e0 5e 0e 5e b9 63 f6 f9 ba ce f5 09 bb 2f cc c7 3a
       -0.00021176922 -0.0019070621 -0.0021051052 0.0015243347
0001f0 00 00 00 00 00 00 00 00 e5 b5 4d 39 ce 93 c1 37
       0.0 0.0 0.00019618084 2.307622e-05
000200 00 00 00 00 dc 79 55 b6 f1 a2 4a bb 37 8f d8 39
       0.0 -3.1810405e-06 -0.0030919875 0.00041305434
000210 ba d8 9a b9 a1 7f f5 b9 2b ad a1 ba 60 8c c9 ba
       -0.00029534643 -0.00046825132 -0.0012334933 -0.0015376918
000220 00 00 00 00 00 00 00 00 09 19 5c b8 fb 5e 4b bb
       0.0 0.0 -5.2475403e-05 -0.0031031955
000230 00 00 00 00 4b c3 36 ba 39 23 3c bb 2f c6 58 b9
       0.0 -0.000697185 -0.0028707518 -0.00020673194
000240 11 90 09 3a 95 6f 54 3a f0 af 98 3a 81 4b 04 3b
       0.0005247603 0.0008103785 0.0011649113 0.0020186605
000250 00 00 00 00 00 00 00 00 8c 69 de 38 40 9d 4d 3a
       0.0 0.0 0.000106054445 0.00078435615
000260 00 00 00 00 e6 26 91 39 90 f9 ad 3a 48 89 11 39
       0.0 0.00027685537 0.0013273228 0.00013879419
000270 db a8 d4 b8 b2 96 88 b8 97 75 37 39 45 8b 8f 39
       -0.000101403995 -6.5130545e-05 0.00017496046 0.0002737885
000280 00 00 00 00 00 00 00 00 d9 68 c7 37 99 d4 30 3a
       0.0 0.0 2.3771472e-05 0.00067455467
000290 00 00 00 00 8a 16 3d 39 1f ba ce 39 b2 94 29 38
       0.0 0.00018032841 0.00039430053 4.0431223e-05
0002a0 b2 b2 eb 37 fa 59 8f b9 90 87 2b ba 7e c4 51 3a
       2.8097395e-05 -0.00027342123 -0.0006543333 0.0008001997
0002b0 00 00 00 00 00 00 00 00 ac b8 03 37 46 8d 57 39
       0.0 0.0 7.851206e-06 0.00020556626
0002c0 00 00 00 00 ea 91 67 39 5f 1b 44 ba d4 45 94 37
       0.0 0.00022084234 -0.0007480885 1.7675491e-05
0002d0 e7 8e 93 b9 3c f3 f7 b9 95 4b 5f ba d4 78 f3 b9
       -0.00028144495 -0.00047292735 -0.00085180375 -0.00046438596
0002e0 00 00 00 00 00 00 00 00 57 22 25 b8 e1 c9 a6 ba
       0.0 0.0 -3.9371047e-05 -0.001272496
0002f0 00 00 00 00 06 a0 77 b9 f2 ac e6 ba 44 0f 65 b8
       0.0 -0.00023615369 -0.0017599149 -5.4612072e-05
000300 68 cf d3 39 c7 fb fe 3a 29 3a ea 3a 27 6e 08 3a
       0.00040399586 0.0019453698 0.0017870116 0.0005204402
000310 00 00 00 00 00 00 00 00 02 86 5a b8 cf 90 2d 3b
       0.0 0.0 -5.2100055e-05 0.0026484018
000320 00 00 00 00 78 5e 83 b9 26 1f 8d 3a 0b 18 84 39
       0.0 -0.00025056652 0.0010766729 0.00025194915
000330 ca bf 3f ba cf 71 1c ba 93 66 3b ba 1b 7b 1f bb
       -0.00073146506 -0.00059678865 -0.00071487686 -0.0024334851
000340 00 00 00 00 00 00 00 00 23 af 51 b8 f6 a9 48 bb
       0.0 0.0 -4.999259e-05 -0.0030618883
000350 00 00 00 00 67 89 26 ba c0 11 fe ba 97 3b 85 b9
       0.0 -0.0006352872 -0.0019383952 -0.00025412135
000360 65 5a c0 b9 35 97 b6 ba ce af b1 ba d4 be 12 b9
       -0.00036688443 -0.0013930561 -0.0013556422 -0.00013994734
000370 00 00 00 00 00 00 00 00 58 3d 0f 38 94 41 51 ba
       0.0 0.0 3.4150988e-05 -0.0007982489
000380 00 00 00 00 21 77 c7 39 e4 82 33 ba 9d 82 df b8
       0.0 0.00038044996 -0.00068478123 -0.00010657797
000390 82 41 9e b9 ce 52 b4 39 f7 bb f1 39 ec f9 3e ba
       -0.00030184916 0.0003439397 0.00046107147 -0.0007285166
0003a0 00 00 00 00 00 00 00 00 00 cd 10 b9 00 5e db 3a
       0.0 0.0 -0.00013809279 0.0016736388
0003b0 00 00 00 00 aa 8b b4 38 7a eb fe 39 01 73 1a 38
       0.0 8.609083e-05 0.000486221 3.6823567e-05
0003c0 e6 47 f5 39 8e 54 92 3a 4c d9 bb 3a 1f 95 91 3a
       0.0004678361 0.0011164115 0.0014331727 0.0011107064
0003d0 00 00 00 00 00 00 00 00 35 c4 b4 38 02 b2 08 3b
       0.0 0.0 8.619615e-05 0.0020858054
0003e0 00 00 00 00 c1 f9 d8 38 a3 6c ff 3a 2d 8b 36 39
       0.0 0.00010346203 0.0019487332 0.0001740872
0003f0 92 59 89 3a 0b b6 e8 3a 7b 49 0d 3b f8 1b e8 3a
       0.0010478965 0.0017754448 0.002155869 0.0017708531
