Model/epoch100/Model_4/model4.ckpt (torch_old, 286080 bytes, 464 tensors)

exp_avg f4 [72]
00000000: a31a 0bbc 2384 63bb 5ca8 98ba d4c2 0d3a
00000010: 3f54 103a b384 99b9 22f9 5bbb 85f5 9f3b
00000020: 4d4c 30bb b144 2f38 3f1f 2c3a 562c 373b
00000030: 7202 81bb eece 493b fc8d a7bb d93a 48bb
00000040: 41a5 2eba 4f2f 88bb d34d 0bbb c00e 21ba
00000050: ee88 0ebb fc64 74bb 4b84 bcba daac e6ba
00000060: 688d ab3b 8493 653b 0824 023b ce76 a9bb
00000070: 1bd8 11b9 5fc1 96bb 5eea a33b 96ad b1b9
00000080: 45dd 843b 3d30 2639 cd7a 0d3b e34c 20ba
00000090: 5d4f 0839 2e32 f3b9 6981 993a b38a 4fbb
000000a0: 590a 9dbb b5f8 fb3a d62f dfbb 3643 bcba
000000b0: a0e1 9ebb ba74 14b9 8e9a 55bb 4ae1 fa3a
000000c0: 72b9 0dba 64f0 dd3a ab1d d2ba fd36 29bb
000000d0: 0663 6eba 45c5 17bb 98c4 2a3a 49df da3a
000000e0: 5128 b4ba 03c4 e336 f356 5b39 c5c6 6cb8
000000f0: ea6b f1ba 5fd8 3bb9 e249 cfba 17e6 7d3a
00000100: 8c10 6bb9 bb70 8f3a f595 63ba c842 e7ba
00000110: 8229 d53a a28a 8b3b 15b5 60ba 827b b23b
-0.008490237 -0.003471621 -0.0011646855 0.0005407755 0.00055057177 -0.00029281303 -0.0033565243 0.004881563
-0.0026900948 4.1787225e-05 0.00065659353 0.002795001 -0.003937059 0.0030793506 -0.0051133614 -0.0030552654
-0.0006662198 -0.0041560302 -0.0021256104 -0.00061438605 -0.0021749097 -0.0037291637 -0.0014382688 -0.0017599121
0.005235363 0.0035030553 0.0019857902 -0.0051716333 -0.00013908783 -0.0046006883 0.005002304 -0.00033889402
0.0040546977 0.00015848964 0.0021588088 -0.00061149726 0.00012999536 -0.0004638596 0.0011711541 -0.0031668365
-0.0047924933 0.0019223901 -0.0068111224 -0.0014363292 -0.004848674 -0.00014157864 -0.0032593342 0.0019140628
-0.00054063566 0.0016932604 -0.001603057 -0.002582013 -0.0009093735 -0.0023158353 0.000651428 0.0016698624
-0.0013744925 6.787946e-06 0.00020917859 -5.6451903e-05 -0.0018419002 -0.00017914314 -0.0015814865 0.000968547
-0.0002241751 0.001094363 -0.0008681708 -0.0017643804 0.0016262981 0.0042584697 -0.0008571905 0.005446852

exp_avg_sq f4 [72]
00000000: df47 8e3a 0ff4 b039 9768 1d3a 18f8 923a
00000010: 7068 3938 c1a9 a639 7ac8 113b 8420 803b
00000020: 128e af39 acdb 673c 38d7 8e3b 2acf 9839
00000030: a275 1c3a 0791 3a3a a64a ab39 dbe7 cb3a
00000040: 416e a23a 6d55 cd3a aabd 9238 0935 1e39
00000050: 3fa8 693a ff32 8e3b b588 5c39 f060 fd3a
00000060: 2f7b e639 d03c bb39 5616 a338 c57a 8039
00000070: 7401 8139 906c 0d3a 0fc8 813a 6bc6 903a
00000080: 97e5 9a39 fcef a83b 27f5 8c3b 0e20 d937
00000090: 0421 b138 5f5d 8039 091b 0038 51cb 6b3c
000000a0: f80e da3b ab15 463b 0ee6 a43a 7da9 7238
000000b0: 54e1 a43b 346a d639 d670 873a 63d7 9739
000000c0: 864f 4b39 6209 0638 a168 2b38 971c 8839
000000d0: 926e d136 9e82 b338 5a0c ef38 4b8f b837
000000e0: 7116 b139 c9d7 a738 faf0 5f37 8e17 3e39
000000f0: 7837 d33a a982 b23a 6e2c 4a3a b71a 9f39
00000100: a110 b037 59d8 d839 e25d ba39 1d50 6b39
00000110: a066 ba3a 8caf 3b3b 93da 8739 7752 7a3b
0.001085516 0.00033751174 0.000600466 0.0011212854 4.4204702e-05 0.00031788464 0.0022244737 0.003910126
0.00033484452 0.014151495 0.004359152 0.00029146048 0.00059684564 0.00071169477 0.0003267128 0.0015556769
0.0012392477 0.0015665718 6.99715e-05 0.00015087811 0.0008913315 0.0043395753 0.00021031762 0.0019331258
0.00043960797 0.00035712728 7.776606e-05 0.00024505533 0.0002460588 0.00053949 0.0009901541 0.0011045461
0.00029544227 0.0051555615 0.0043016854 2.5883342e-05 8.446167e-05 0.0002448363 3.0542757e-05 0.014391736
0.0066546164 0.0030225317 0.0012580769 5.7855144e-05 0.005031744 0.00040896388 0.001033331 0.0002896144
0.00019389213 3.1956828e-05 4.086702e-05 0.00025961242 6.2415575e-06 8.5597145e-05 0.00011398709 2.2001235e-05
0.0003377679 8.003374e-05 1.33479425e-05 0.00018128587 0.0016114553 0.0013619262 0.0007712309 0.00030346747
2.0988578e-05 0.00041359922 0.00035546633 0.00022441191 0.0014221258 0.002863857 0.00025912057 0.0038196126

exp_avg f4 [24]
00000000: b710 57bc af54 513a c3b4 98ba 35f1 643b
00000010: f7a8 c3bb b510 01bc 370d a1bb befe e2bb
00000020: 98b4 2f3c 7463 22bc 62d6 0e3c 3f95 df3a
00000030: 997d 5b3a 91d1 c5bb 1e91 56bc 6ae2 c2ba
00000040: 0a28 ecb9 824a bebb 8e32 783a 5643 2739
00000050: 6418 6cbb a701 f13a 37e4 83ba bdf7 103c
-0.013126544 0.0007985336 -0.0011650551 0.003493381 -0.00597107 -0.007877518 -0.0049149054 -0.0069273403
0.010724209 -0.009911407 0.008718105 0.0017058029 0.00083729025 -0.006036945 -0.013096122 -0.0014868502
-0.0004504326 -0.005807222 0.00094679825 0.00015951446 -0.003602528 0.0018387333 -0.001006252 0.008848128

exp_avg_sq f4 [24]
00000000: 642e 893b fce5 583b 0610 133c bf65 f53c
00000010: 63e4 db3a 332b 023b 7982 a639 7ede 7a3c
00000020: 6d7b 103b b374 2d3b 4811 053a 7e33 a03c
00000030: f2ce 5c39 824f 843d 1c0a 313c 5fe5 183a
00000040: 5268 123a 312d 2539 6e9e 6e39 36eb bc39
00000050: 326e 2f3b a132 e23a 4c43 e73a b092 673b
0.0041864384 0.0033096066 0.008975988 0.029955743 0.0016776439 0.0019862175 0.00031759197 0.015311835
0.0022046224 0.0026467263 0.00050761225 0.019555803 0.00021057928 0.064604774 0.010805633 0.0005832519
0.0005585003 0.00015752461 0.00022756468 0.000360334 0.0026768562 0.001725752 0.0017643957 0.0035335235

exp_avg f4 [12, 12]
00000000: 54c5 a632 b15d 77b6 51aa acb8 c293 11b9
00000010: 73a7 1d39 8f8e 083a c3cd 5f39 e688 8536
00000020: 28ca ecb7 4779 c7b8 7ca9 c1b8 fc32 5bb8
00000030: 579e abb6 22eb b1b8 3e97 bbb9 d020 26ba
00000040: 3f82 3bba 5c37 8bba 2a2f 28ba 1d0a bbb8
00000050: 31a0 11b6 4777 66b4 3052 6b36 f819 6837
00000060: 0000 0000 0000 0000 0000 0000 0000 0000
00000070: 0000 0000 0000 0000 0000 0000 0000 0000
00000080: 0000 0000 0000 0000 0000 0000 0000 0000
00000090: 3e06 eab7 9f7a 73b9 931b 02ba 5a97 3aba
000000a0: 5dc9 51ba a773 f4ba b0f6 a1ba 95ea c638
000000b0: d47b 9f39 e348 5039 61e0 0b39 d06f aa38
000000c0: 34d7 a82d 15be e532 6a63 5f36 f20a 2438
000000d0: 7831 e238 a42a 5639 0de0 8339 af1f 2439
000000e0: 900d 7fb8 4094 efb7 d2cf 00b7 c61b c8b7
000000f0: 4ab0 91b5 e0cf f8b6 f0d8 97b7 7ce6 3038
00000100: b73f 4935 a0d5 45b9 cdec 12b9 34cb 14b9
00000110: b313 c6b8 85e5 0ab7 7e5d 7037 ac77 a836
00000120: c7ad e936 a596 6b39 e674 883a ebc4 f339
00000130: 77aa a237 ba7c a233 efba f22d 1847 8726
00000140: 169b 601d 26b2 8a12 5c9b fe05 0c00 0000
00000150: 5637 7f36 d51f 0c38 b049 1e39 d510 d339
00000160: 718e 223a b9d4 043a 5075 093a bf31 dc39
00000170: 7849 a238 6bef 54b7 4770 abb7 18c6 aab7
00000180: 5131 3233 5494 9636 2cdd 8738 0d9f 8439
00000190: ff6c 4339 1619 7d37 b4a1 0134 1b48 ce2e
000001a0: c568 fc27 c47b 6b1f 5e5d 2615 3817 3109
000001b0: 0000 0000 0000 0000 0000 0000 0000 0000
000001c0: 0000 0000 0000 0000 0000 0000 0000 0000
000001d0: 0000 0000 0000 0000 0000 0000 0000 0000
000001e0: 1c76 7d36 7f91 d037 4b83 8b37 b773 2bb4
000001f0: 9a29 20b8 bbdc f1b8 bf85 6d39 85b3 7b39
00000200: 3f90 0838 8362 2b35 10cd 0533 f330 ad35
00000210: 91cd ea15 abf6 f81f bc10 4928 862f fa2e
00000220: d6e1 f433 b370 4537 8270 1239 0417 7739
00000230: 727b 5538 83d1 c5b7 c996 a0b6 0cb3 c8b3
1.9414678e-08 -3.6860404e-06 -8.233323e-05 -0.00013883322 0.00015035066 0.0005209231 0.0002134359 3.979646e-06
-2.8227529e-05 -9.511649e-05 -9.234526e-05 -5.226115e-05 -5.1146303e-06 -8.4838146e-05 -0.00035780104 -0.0006337287
-0.0007152892 -0.0010621357 -0.00064157194 -8.9187386e-05 -2.1699927e-06 -2.1463812e-07 3.5065568e-06 1.3834324e-05
0.0 0.0 0.0 0.0 0.0 0.0 0.0 0.0
0.0 0.0 0.0 0.0 -2.789788e-05 -0.00023219966 -0.00049632153 -0.000711789
-0.0008002723 -0.001865019 -0.0012356844 9.48507e-05 0.00030419102 0.00019863578 0.0001333966 8.1270584e-05
1.9194958e-11 2.6745548e-08 3.3287456e-06 3.911084e-05 0.00010785734 0.00020424515 0.00025153198 0.00015652062
-6.080937e-05 -2.8560054e-05 -7.6777815e-06 -2.3854791e-05 -1.0854649e-06 -7.415176e-06 -1.8101622e-05 4.2176325e-05
7.497105e-07 -0.00018866966 -0.0001401186 -0.00014190079 -9.445045e-05 -8.27888e-06 1.4326883e-05 5.020722e-06
6.9641715e-06 0.00022467466 0.0010410815 0.00046495287 1.9391284e-05 7.5664005e-08 2.759523e-11 9.386777e-16
2.972633e-21 8.752941e-28 2.3943115e-35 1.7e-44 3.803017e-06 3.3408247e-05 0.00015095505 0.00040257597
0.0006201035 0.00050670985 0.0005243616 0.00041998734 7.7384466e-05 -1.26919285e-05 -2.0437072e-05 -2.0357824e-05
4.1488708e-08 4.487616e-06 6.478498e-05 0.00025295504 0.00018637253 1.5085816e-05 1.2072888e-07 9.380604e-11
7.005764e-15 4.9865562e-20 3.3597087e-26 2.1316517e-33 0.0 0.0 0.0 0.0
0.0 0.0 0.0 0.0 0.0 0.0 0.0 0.0
3.7768687e-06 2.4863284e-05 1.663123e-05 -1.5967713e-07 -3.8185717e-05 -0.0001153289 0.00022651906 0.00024004102
3.2559266e-05 6.384582e-07 3.115298e-08 1.290375e-06 9.4836174e-26 1.05440163e-19 1.116137e-14 1.13771256e-10
1.1403215e-07 1.1768355e-05 0.00013965557 0.0002356433 5.0898125e-05 -2.3581792e-05 -4.7859253e-06 -9.345794e-08

exp_avg_sq f4 [12, 12]
00000000: f703 0e2e c278 8a34 6b9b 0f38 1fb6 9939
00000010: 3dd3 6f3a f72f c23a dddc 143a 6e8c 3837
00000020: 8c0b 0734 7a66 0535 b1a8 ab34 af5f f833
00000030: 421e b530 eb6f 1034 f3a8 b135 e845 bd36
00000040: 2bb7 1837 a30b 8b37 7ae6 1137 3ca1 8734
00000050: b4fb 332f b0c6 522f bfeb 4e31 53f6 9f31
00000060: 0000 0000 0000 0000 0000 0000 0000 0000
00000070: 0000 0000 0000 0000 0000 0000 0000 0000
00000080: 0000 0000 0000 0000 0000 0000 0000 0000
00000090: 2752 5534 bdae 8537 8d35 ad38 a56d d138
000000a0: fd5e 2f38 9c4a 3339 b58f 9b39 2062 bb38
000000b0: bb10 6f37 6a99 0d36 7ad1 d434 f524 0934
000000c0: 8e35 8b1e c955 6929 7203 2431 ceeb 0836
000000d0: 54ef 4c38 0570 4138 b9b2 c337 fa97 f237
000000e0: aa96 c536 c0bc b734 dba4 9e31 f758 4732
000000f0: 01cf 3332 6c81 8c35 4dbc c536 006c 0a37
00000100: 79b2 bb37 5768 6638 66ca 7138 1431 7d37
00000110: 19e2 7f35 e196 5d33 483c 2d32 388a 3030
00000120: a47a 5933 1c34 5e37 4bd9 ea38 34a3 8d37
00000130: 3440 e832 75ff de2a ba87 721f af07 9410
00000140: eb4f 0600 0000 0000 0000 0000 0000 0000
00000150: 2fe3 0032 ce7a 7035 078e 1637 13df ad37
00000160: 7ddc 6038 f000 de38 ba90 9238 4de7 2d37
00000170: 9fb0 1f35 9e1a e233 0c58 5032 89be 6831
00000180: e308 3a29 99a8 cb30 2c47 4935 bf04 e636
00000190: ed80 c035 ec28 b931 e673 902a 78e9 1920
000001a0: e8d3 4e12 19ae 2701 0000 0000 0000 0000
000001b0: 0000 0000 0000 0000 0000 0000 0000 0000
000001c0: 0000 0000 0000 0000 0000 0000 0000 0000
000001d0: 0000 0000 0000 0000 0000 0000 0000 0000
000001e0: c28b 8e33 35f9 3136 6528 7c35 0a5a 9c32
000001f0: 2f64 7d36 eb25 6d38 500e 3a38 5c4f 8736
00000200: ae03 0733 dbe2 272d 41d9 d42a 46f0 812d
00000210: 0000 0000 0f81 d403 bc8b 9714 736b ff21
00000220: cc85 032c 70bd af32 6143 2b36 78c6 b236
00000230: a60e 4336 7624 0835 3121 a031 143e 952b
3.2290583e-11 2.5792366e-07 3.42386e-05 0.00029318125 0.00091486034 0.001481532 0.0005678663 1.0999951e-05
1.2577055e-07 4.9695484e-07 3.197397e-07 1.1565805e-07 1.3178083e-09 1.345176e-07 1.3236698e-06 5.640777e-06
9.102553e-06 1.657551e-05 8.6963355e-06 2.5263023e-07 1.6369378e-10 1.9169977e-10 3.0110952e-09 4.655513e-09
0.0 0.0 0.0 0.0 0.0 0.0 0.0 0.0
0.0 0.0 0.0 0.0 1.9867058e-07 1.5936204e-05 8.2592574e-05 9.9863195e-05
4.1811716e-05 0.00017098564 0.00029670974 8.935132e-05 1.42494055e-05 2.1099936e-06 3.9640491e-07 1.2772564e-07
1.4739347e-20 5.18108e-14 2.38671e-09 2.0402836e-06 4.8860282e-05 4.6119112e-05 2.3329036e-05 2.8919418e-05
5.888597e-06 3.422374e-07 4.617147e-09 1.1603553e-08 1.04662385e-08 1.046848e-06 5.8929786e-06 8.250587e-06
2.2375245e-05 5.4933447e-05 5.7647376e-05 1.5091402e-05 9.532392e-07 5.1592796e-08 1.0083632e-08 6.422485e-10
5.063579e-08 1.3244364e-05 0.000111984635 1.6884507e-05 2.703755e-08 3.961238e-13 5.1357764e-20 5.8387545e-29
5.79682e-40 0.0 0.0 0.0 7.502236e-09 8.958567e-07 8.973765e-06 2.0727084e-05
5.3611107e-05 0.000105859595 6.98878e-05 1.03654575e-05 5.9489133e-07 1.0528787e-07 1.2127213e-08 3.386875e-09
4.1308005e-14 1.4818112e-09 7.4981904e-07 6.8550867e-06 1.4342637e-06 5.388861e-09 2.565996e-13 1.3036852e-19
6.5263333e-28 3.0797965e-38 0.0 0.0 0.0 0.0 0.0 0.0
0.0 0.0 0.0 0.0 0.0 0.0 0.0 0.0
6.637812e-08 2.6520113e-06 9.39361e-07 1.8201735e-08 3.7758252e-06 5.6540517e-05 4.4359185e-05 4.032552e-06
3.1435484e-08 9.543223e-12 3.7809515e-13 1.4772305e-11 0.0 1.24898705e-36 1.5302219e-26 1.7307914e-18
1.8690492e-12 2.0458828e-08 2.5520205e-06 5.327918e-06 2.906579e-06 5.0717006e-07 4.6603863e-09 1.0604317e-12

exp_avg f4 [24, 12]
00000000: 462b cc38 1a98 15b7 0000 0000 7e29 c2b9
00000010: 8b56 86b8 67d6 98b9 8038 ddb5 8bc3 f7b8
00000020: ab7e 21b5 0000 0000 ec23 96b8 4a7e 80b8
00000030: dfb9 8439 bf9e f337 0000 0000 a901 e7b8
00000040: 51d6 53b7 359a 3f36 4c29 7a33 48f3 a136
00000050: 8db9 8237 0000 0000 9d6a 15b7 6268 dcb7
00000060: c2c9 e339 079f ed38 0000 0000 0c1c 8b39
00000070: 5282 4138 3b3e d139 2e91 9236 157a 0d39
00000080: 2f72 7838 0000 0000 3f1e 0938 6b7b 8437
00000090: 69ee 3c3a 915f 3d39 0000 0000 5c37 9939
000000a0: 5808 0c37 872e fc39 fde6 0036 4661 4439
000000b0: 1cb4 3b38 0000 0000 5f59 3139 7193 2ab8
000000c0: a9da 053a 41f9 0839 0000 0000 a8b5 e838
000000d0: 2768 3e38 dddc c939 ba4a 81b6 beb9 ff38
000000e0: 51cf 1638 0000 0000 a7e3 9738 752c cc37
000000f0: d8d3 57ba d56b 2eb9 0000 0000 39ad 8ab9
00000100: 4b6a 4bb8 ac22 0fba b8f8 bcb6 516f 52b9
00000110: 418d 89b8 0000 0000 802c 7eb8 2140 0d37
00000120: c7e8 103b 4a8c 1a3a 0000 0000 a398 673a
00000130: 3ee4 1d37 f9c6 bb3a f37a 7f37 3144 113a
00000140: 1afe e238 0000 0000 ad05 f239 6eb3 1bb9
00000150: 9e59 8fba 04af 80b9 0000 0000 9eb4 efb9
00000160: af76 99b8 19a9 52ba e01d 9eb6 a52f 97b9
00000170: c8c3 9db8 0000 0000 3678 37b9 6925 4737
00000180: b876 ebb9 e417 d7b8 0000 0000 8f76 9db9
00000190: d130 86b8 6645 efb9 f7fa 99b6 c0df 2cb9
000001a0: 37de 41b8 0000 0000 20b2 5cb8 4b2c f9b7
000001b0: fe29 76ba 6b92 76b9 0000 0000 6efd dcb9
000001c0: 64bd 44b8 a9f9 3aba 4e05 d4b4 355b 89b9
000001d0: fdd0 20b8 0000 0000 f28c 7db9 00d2 d037
000001e0: 149e 353a e113 ba38 0000 0000 0c6d f3b9
000001f0: 3566 e6b8 8533 50b9 de0d 04b6 bd0e dfb8
00000200: 8dbb 1538 0000 0000 e1fd b0b7 5ea0 1eb9
00000210: 22d2 033a 3e41 4e38 0000 0000 757d 8438
00000220: ff41 aa38 6dc3 c339 efc6 4b36 d363 e838
00000230: b247 0d38 0000 0000 9342 51b7 3850 4038
00000240: 43ee 493a 13fa 6239 0000 0000 f094 8c3a
00000250: 3bde 8539 4aee b73a 6584 9f36 2def 093a
00000260: 6eea 6a38 0000 0000 81c6 8239 0a86 4839
00000270: 0c95 0a3a d030 0639 0000 0000 a794 5639
00000280: 6622 e337 15fa ba39 f6fb 6d36 f198 0639
00000290: edc9 6d38 0000 0000 5f95 2338 b290 09b7
000002a0: 0c25 3b38 7643 ec38 0000 0000 127d 6a3a
000002b0: bf1b 0d39 1168 663a 4da9 c0b3 ec48 ab39
000002c0: 86dc 05b8 0000 0000 5794 a139 e987 e738
000002d0: c0ea 2eba 581a 5cb9 0000 0000 fcf2 22ba
000002e0: fb79 d2b8 e920 53ba b65e 20b6 1978 9db9
000002f0: ba27 3db8 0000 0000 8d2c 59b9 bb2e 3eb8
00000300: efdc c1b9 4cb9 12b9 0000 0000 28bb cdb9
00000310: 756b 89b7 2d57 f1b9 5b88 91b6 13cb 29b9
00000320: 25df 25b6 0000 0000 6cfd 21b9 fa3e 2d37
00000330: 4e8e 643b 9e59 393a 0000 0000 f5e8 8a39
00000340: 026e c137 3326 d63a b1fd b4b5 9beb ec39
00000350: cf6c 3539 0000 0000 6c4c ea39 62db 63b9
00000360: dfe0 8639 5571 8738 0000 0000 5c58 8038
00000370: ef3f 09b7 1c00 0939 b10f 2634 1b4a 2838
00000380: 94ef a537 0000 0000 4b1a 4d38 39b4 cfb7
00000390: 105b 813a a8f0 7339 0000 0000 3a67 4a3a
000003a0: 9599 3c39 aebb 993a c04a 7436 d768 d539
000003b0: d9ee 7138 0000 0000 d1fe 7239 da2a cb38
000003c0: 86ff 69ba 9cc3 85b9 0000 0000 59c3 55ba
000003d0: 3ac5 b2b8 71bf 80ba e188 e9b6 f743 c9b9
000003e0: 28df 83b8 0000 0000 8f00 9ab9 2c71 c3b6
000003f0: e804 9fba 3caf 9ab9 0000 0000 f38c 61ba
9.735538e-05 -8.916506e-06 0.0 -0.00037033478 -6.405738e-05 -0.0002915144 -1.6482227e-06 -0.000118143005
-6.01615e-07 0.0 -7.159248e-05 -6.127039e-05 0.00025315487 2.904178e-05 0.0 -0.000110152476
-1.26264795e-05 2.8550978e-06 5.824522e-08 4.8264956e-06 1.5583611e-05 0.0 -8.905915e-06 -2.627465e-05
0.00043447135 0.00011330662 0.0 0.00026533043 4.6136156e-05 0.00039909952 4.36804e-06 0.00013492287
5.923415e-05 0.0 3.2691514e-05 1.5793097e-05 0.0007207157 0.00018060046 0.0 0.0002922368
8.346593e-06 0.0004809985 1.920794e-06 0.00018728254 4.4752014e-05 0.0 0.00016913329 -4.0668474e-05
0.000510613 0.00013062825 0.0 0.00011096458 4.539653e-05 0.00038502263 -3.853199e-06 0.00012193945
3.5955865e-05 0.0 7.242645e-05 2.4339397e-05 -0.00082331663 -0.00016634104 0.0 -0.00026450472
-4.8497965e-05 -0.00054601836 -5.6317913e-06 -0.00020068629 -6.55898e-05 0.0 -6.0599763e-05 8.419186e-06
0.0022111402 0.00058955385 0.0 0.00088346953 9.411071e-06 0.0014326266 1.5227811e-05 0.00055414723
0.0001082385 0.0 0.00046162066 -0.00014848795 -0.0010936742 -0.0002454446 0.0 -0.00045720203
-7.317715e-05 -0.0008036062 -4.712245e-06 -0.00028836462 -7.5228105e-05 0.0 -0.00017497022 1.18700345e-05
-0.00044911145 -0.00010256449 0.0 -0.00030033707 -6.398711e-05 -0.00045637338 -4.5889715e-06 -0.00016486552
-4.622174e-05 0.0 -5.261798e-05 -2.9703739e-05 -0.00093904126 -0.00023514933 0.0 -0.0004215049
-4.6906425e-05 -0.0007132539 -3.9491937e-07 -0.0002619863 -3.8341608e-05 0.0 -0.00024180466 2.4893321e-05
0.00069281575 8.872874e-05 0.0 -0.00046429818 -0.00010986292 -0.00019855618 -1.9677605e-06 -0.00010636214
3.569904e-05 0.0 -2.1099057e-05 -0.00015127796 0.00050285656 4.917499e-05 0.0 6.317619e-05
8.1185244e-05 0.00037338902 3.0365152e-06 0.00011081216 3.368379e-05 0.0 -1.2472871e-05 4.5851077e-05
0.0007703045 0.000216462 0.0 0.0010725539 0.0002553331 0.0014032808 4.753982e-06 0.0005261775
5.6008277e-05 0.0 0.0002494343 0.0001912342 0.0005286492 0.0001279742 0.0 0.00020464008
2.7076527e-05 0.0003566301 3.5462413e-06 0.00012836211 5.669326e-05 0.0 3.900134e-05 -8.199526e-06
4.4618777e-05 0.000112659225 0.0 0.00089450285 0.00013457144 0.0008789311 -8.971492e-08 0.00032669993
-3.191505e-05 0.0 0.00030818835 0.000110402536 -0.0006672554 -0.00020990649 0.0 -0.0006216017
-0.00010036301 -0.0008053915 -2.3896987e-06 -0.00030034853 -4.509811e-05 0.0 -0.00020711329 -4.534305e-05
-0.00036976437 -0.00013992673 0.0 -0.0003924009 -1.6381711e-05 -0.00046032053 -4.3372106e-06 -0.00016192747
-2.4716803e-06 0.0 -0.00015448563 1.0326266e-05 0.003487486 0.0007070544 0.0 0.00026494978
2.305862e-05 0.0016338289 -1.3484879e-06 0.00045188967 0.0001730204 0.0 0.00044688897 -0.00021730133
0.00025726014 6.4584114e-05 0.0 6.119974e-05 -8.180722e-06 0.00013065379 1.5465663e-07 4.0123337e-05
1.9781095e-05 0.0 4.8900296e-05 -2.4760246e-05 0.0009869058 0.00023263937 0.0 0.00077210704
0.00017986291 0.0011728907 3.6402344e-06 0.00040704638 5.768132e-05 0.0 0.00023173845 9.687776e-05
-0.00089263206 -0.00025513477 0.0 -0.0008154414 -8.524438e-05 -0.0009822679 -6.959876e-06 -0.00038388345
-6.288133e-05 0.0 -0.00029373585 -5.824628e-06 -0.00121322 -0.0002950373 0.0 -0.0008604072

exp_avg_sq f4 [24, 12]
00000000: ab3e 9337 a577 0436 0000 0000 916f 5138
00000010: cbb4 da35 b21b 6a38 d3e2 a02f 4ad1 0e37
00000020: c1ca cc33 0000 0000 155b 5236 931b 8535
00000030: c598 4a37 bc1b de35 0000 0000 92bc 9c37
00000040: 6dd4 ae34 6445 c537 6633 7530 3106 6136
00000050: 7191 ce33 0000 0000 9e71 a935 e1ba 9333
00000060: 433b ef36 8ffa 8134 0000 0000 2857 c335
00000070: aafc 0c34 3e6d a136 0b38 912f 5d8d 6035
00000080: cd40 4b33 0000 0000 1b94 5334 fc02 2333
00000090: 004e 2238 58f8 8c36 0000 0000 557b 1938
000000a0: aa86 0935 033d 4d38 bc5b 3930 fa8a f636
000000b0: 1bda b134 0000 0000 703b 8236 9bf2 3d33
000000c0: ceff 9938 d53c 7137 0000 0000 9764 0539
000000d0: b39d 0036 e6ab 2139 9181 6731 e0e1 b437
000000e0: ff1b 6d35 0000 0000 7980 1137 6674 ab34
000000f0: d422 0437 157b 1135 0000 0000 6603 1237
00000100: 5ea5 d933 6193 1037 2fb6 2d30 bf87 bc35
00000110: b886 8d33 0000 0000 9d2d 9735 f749 e232
00000120: d28b 243a d2d3 5e38 0000 0000 7802 5a39
00000130: 38f2 1436 28b9 d539 5c29 9132 05cb 7138
00000140: a002 2f36 0000 0000 af8f 1338 bb1c e235
00000150: ca6e 7637 76f9 ea35 0000 0000 c5b0 c737
00000160: af42 0c35 3e7f f837 3754 712f 170c 9f36
00000170: 4edf ab33 0000 0000 59c3 1d36 7d0c 1f34
00000180: b95e a236 e3bb 9d34 0000 0000 2bed c834
00000190: f1a8 a832 d07e a535 9118 1830 ac73 4534
000001a0: 9d73 0a33 0000 0000 fa3c 2333 0baf 1c33
000001b0: 377d 8437 0f61 3c36 0000 0000 738d 4138
000001c0: f03f d335 c455 6738 625e 8e30 e726 0037
000001d0: e6cd 8234 0000 0000 d4d5 a435 de84 7635
000001e0: 5ac6 233a 6762 9538 0000 0000 a497 993a
000001f0: 205b 4538 6dd1 e63a eeb4 1132 27d7 8939
00000200: 7caf 8936 0000 0000 ab09 8938 417b a337
00000210: efb8 5a38 5318 9c36 0000 0000 866a d737
00000220: 2baf 2635 1000 4338 c5d7 3f31 9bbd e436
00000230: 7810 9a34 0000 0000 0420 0036 92fc 8a34
00000240: 8366 2b38 f0bd ea35 0000 0000 9a37 0938
00000250: 290f c135 f0fc 3838 ea95 8930 0dca eb36
00000260: b2d1 9234 0000 0000 002b 8836 bdc8 5535
00000270: 9a53 2937 649a 3335 0000 0000 b85a 5b37
00000280: daca af34 64e8 8937 0453 5630 c8c5 2d36
00000290: f1c5 8f33 0000 0000 5ae0 b035 c466 c933
000002a0: 8592 3d38 bbbb 0136 0000 0000 96d4 6b37
000002b0: 9dd4 6a35 c95b 0738 7159 0c31 d039 a736
000002c0: 506e 0235 0000 0000 ba59 f035 560a ba34
000002d0: 00b1 a438 ea38 bd36 0000 0000 afe0 ea37
000002e0: 3fbf 6635 282a 8838 a0c1 9330 0ebf 2437
000002f0: 552e ca34 0000 0000 0586 5636 4b56 8333
00000300: 2baf a037 19be 4c36 0000 0000 2a5a 5e37
00000310: 4483 cb33 362b 9a37 454c 0b32 bbe7 1f36
00000320: d1e8 9a34 0000 0000 3b19 1035 d32b 5f33
00000330: a882 783b 78d6 fe39 0000 0000 3ecb ba3b
00000340: 6100 1439 b45a 053c ba3a e033 debc 9f3a
00000350: 087e bf37 0000 0000 8c90 e039 2d8c 1638
00000360: c0c7 bc37 5e40 9135 0000 0000 e5dd 2536
00000370: 7215 9b33 bb11 1c37 39cd 7c2f e629 ae35
00000380: 1d3f d133 0000 0000 528e 7c34 7de4 d032
00000390: f66f 8c38 e61e 0537 0000 0000 6e5c 4138
000003a0: 2b2d 9835 31d8 9338 061e 0f31 d559 3437
000003b0: f58c ec34 0000 0000 2db8 a536 463e 5835
000003c0: 13a1 8c38 e9f3 2137 0000 0000 7269 0439
000003d0: 24b8 0236 778f 1939 2fe3 e630 d1ba b437
000003e0: ad5c 9d34 0000 0000 e74d 7037 7af7 bd34
000003f0: 5cc3 ac37 b5da 1336 0000 0000 5bfa 5838
1.7552948e-05 1.9739175e-06 0.0 4.9933387e-05 1.6294883e-06 5.581574e-05 2.9265e-10 8.5125885e-06
9.536371e-08 0.0 3.1345455e-06 9.917297e-07 1.2075708e-05 1.6548361e-06 0.0 1.8684459e-05
3.2564586e-07 2.3516543e-05 8.920352e-10 3.3531217e-06 9.619078e-08 0.0 1.2624548e-06 6.879214e-08
7.129654e-06 2.4210428e-07 0.0 1.4553998e-06 1.3130435e-07 4.8108914e-06 2.6415167e-10 8.3652213e-07
4.7323557e-08 0.0 1.9704787e-07 3.795411e-08 3.8696453e-05 4.201236e-06 0.0 3.6592905e-05
5.123244e-07 4.893263e-05 6.743297e-10 7.3475503e-06 3.3127512e-07 0.0 3.8812213e-06 4.422564e-08
7.343256e-05 1.4378883e-05 0.0 0.00012721341 1.916528e-06 0.00015418194 3.3688574e-09 2.1562853e-05
8.833012e-07 0.0 8.672586e-06 3.1935923e-07 7.875922e-06 5.419582e-07 0.0 8.703069e-06
1.013493e-07 8.617383e-06 6.319593e-10 1.4046599e-06 6.590329e-08 0.0 1.1263652e-06 2.6343498e-08
0.00062769384 5.3126198e-05 0.0 0.0002079102 2.2194708e-06 0.00040764478 1.689903e-08 5.7647954e-05
2.607856e-06 0.0 3.5181347e-05 1.6846674e-06 1.4688538e-05 1.7506961e-06 0.0 2.3804963e-05
5.22511e-07 2.9623156e-05 2.1948741e-10 4.7399767e-06 8.003427e-08 0.0 2.350853e-06 1.4812572e-07
4.8390034e-06 2.9380234e-07 0.0 3.7425465e-07 1.96346e-08 1.2330365e-06 5.533219e-10 1.8389136e-07
3.223578e-08 0.0 3.8006853e-08 3.648078e-08 1.5793934e-05 2.8070679e-06 0.0 4.614652e-05
1.5739333e-06 5.5154567e-05 1.0358685e-09 7.638452e-06 2.4364198e-07 0.0 1.2281184e-06 9.183549e-07
0.0006247513 7.1232025e-05 0.0 0.0011718166 4.7053327e-05 0.0017610021 8.4812495e-09 0.00026290977
4.1033472e-06 0.0 6.53447e-05 1.9488509e-05 5.2147483e-05 4.651994e-06 0.0 2.5679601e-05
6.209472e-07 4.649168e-05 2.7916809e-09 6.8170025e-06 2.8696718e-07 0.0 1.9092122e-06 2.5888272e-07
4.086505e-05 1.7489638e-06 0.0 3.271513e-05 1.4384033e-06 4.4104585e-05 1.001067e-09 7.0270676e-06
2.7347193e-07 0.0 4.0581217e-06 7.9640796e-07 1.009265e-05 6.6907364e-07 0.0 1.3074539e-05
3.2743884e-07 1.6439888e-05 7.797072e-10 2.5894133e-06 6.694962e-08 0.0 1.3178317e-06 9.378485e-08
4.519757e-05 1.9331771e-06 0.0 1.4056588e-05 8.7481186e-07 3.227199e-05 2.0423523e-09 4.983718e-06
4.85893e-07 0.0 1.7907507e-06 3.465272e-07 7.853098e-05 5.6392646e-06 0.0 2.79996e-05
8.5959977e-07 6.4928376e-05 1.0750689e-09 9.819645e-06 3.7659143e-07 0.0 3.1966495e-06 6.1158595e-08
1.9155055e-05 3.050902e-06 0.0 1.3253224e-05 9.476801e-08 1.8378352e-05 8.1082066e-09 2.3827731e-06
2.8854132e-07 0.0 5.3680895e-07 5.196109e-08 0.0037919674 0.00048606447 0.0 0.005700498
0.00014114521 0.008139301 1.0441495e-07 0.0012187024 2.2827662e-05 0.0 0.00042832305 3.5893336e-05
2.2504362e-05 1.0822075e-06 0.0 2.4716076e-06 7.221651e-08 9.302453e-06 2.2992176e-10 1.2976204e-06
9.743801e-08 0.0 2.3521105e-07 2.4318291e-08 6.6965746e-05 7.934612e-06 0.0 4.6100868e-05
1.1338028e-06 7.049775e-05 2.0826305e-09 1.0749752e-05 4.4060985e-07 0.0 4.938824e-06 8.055689e-07
6.7057226e-05 9.653138e-06 0.0 0.00012627782 1.9478694e-06 0.00014644662 1.6799272e-09 2.1544665e-05
2.931096e-07 0.0 1.4323253e-05 3.5384056e-07 2.059497e-05 2.2032011e-06 0.0 5.1731575e-05

exp_avg f4 [12]
00000000: d181 2539 6aec 0ebb 0000 0000 a8ef 31bb
00000010: da4e b439 41a3 9fb9 25b7 8d3a a606 d63a
00000020: 781a a939 0000 0000 b701 8939 7932 8439
0.00015783987 -0.0021808394 0.0 -0.0027150903 0.00034391024 -0.00030448477 0.0010812028 0.0016328886
0.00032253913 0.0 0.00026131954 0.00025214607

exp_avg_sq f4 [12]
00000000: 771b b63b 6683 9b38 0000 0000 b663 0a3b
00000010: b16f 9f39 3b56 b139 4df8 0a39 fb95 083a
00000020: 1200 0e37 0000 0000 0b4b 3239 9db4 1737
0.0055574733 7.415451e-05 0.0 0.0021116561 0.0003041006 0.00033824318 0.00013253205 0.0005210337
8.463876e-06 0.0 0.00017003359 9.042354e-06

exp_avg f4 [24]
00000000: c4e6 aeb8 21c0 8638 e028 8739 fdb8 cc39
00000010: 5ba1 8d39 0d4b d9b9 6eaa 9d3a e471 1bba
00000020: 56cd 93b9 14da 0aba b4a1 ca38 42af 6f39
00000030: 1e2c 3c3a 2bc7 8e39 1779 c939 5ee2 00ba
00000040: 5987 9fb9 3072 c83a 0e5c fb38 e892 323a
00000050: 572e 23ba 1812 54ba a745 2b3b ee90 3db9
-8.33995e-05 6.425405e-05 0.0002577966 0.0003904774 0.00027013835 -0.00041445383 0.0012028941 -0.0005929752
-0.00028191012 -0.00052967784 9.66223e-05 0.00022858105 0.0007178205 0.00027232742 0.00038427926 -0.0004916544
-0.00030427685 0.001529282 0.00011985759 0.0006812052 -0.0006224862 -0.00080898544 0.0026134045 -0.00018078435

exp_avg_sq f4 [24]
00000000: 4636 6837 84e9 0837 cda1 fd35 ad01 a737
00000010: ed0e 6938 605c 5836 811c 6d39 0caf 2437
00000020: eda3 8435 2e6d 7237 1e94 043a 6b3f b137
00000030: fe3c 6737 9258 b936 1c11 5137 365e f437
00000040: d83e 1a37 9ea8 323b 2014 be36 560d 0038
00000050: 2e9f 5238 c0e7 8237 05b2 fe37 e0d0 5f36
1.3840914e-05 8.160601e-06 1.8897059e-06 1.9908732e-05 5.556543e-05 3.2240278e-06 0.000226127 9.815918e-06
9.882475e-07 1.4449744e-05 0.00050574716 2.1129576e-05 1.3782874e-05 5.5237406e-06 1.2461354e-05 2.9130937e-05
9.193747e-06 0.0027261148 5.664784e-06 3.053e-05 5.021615e-05 1.5605125e-05 3.0362056e-05 3.335117e-06

exp_avg f4 [12, 12]
00000000: 7289 78b8 17d5 b3b9 cba4 aeb8 9fe3 2d39
00000010: 7a34 85b8 904d 2036 c782 ffb8 f0af 93b6
00000020: 8b22 94b8 5691 1dba d2ad 62ba 9192 01ba
00000030: 70b1 8f30 c9ba b635 1ec5 3639 c093 293b
00000040: e6e3 dc3b b28e 983b 1c98 023b 6b4d e839
00000050: b05c 4d37 5ee7 1433 8c6c 2d2d 9fc2 9f25
00000060: 80b9 a2b7 1930 95b9 ce71 6dba 8e29 6eba
00000070: a878 d2ba e687 85bb acb4 77bb 3267 e3ba
00000080: 4956 5dba 5f03 09ba 9921 b6b9 eb6c 3fb9
00000090: 2ff8 5b38 9760 c539 4845 533a fe17 d839
000000a0: 979e 9f3a c0cc cc3a 5b56 dd39 47ac 913a
000000b0: 32f0 a13a a99a 3b3a c548 cf39 a0d5 ce38
000000c0: 0000 0000 0000 0000 0000 0000 0000 0000
000000d0: 0000 0000 0000 0000 0000 0000 0000 0000
000000e0: 0000 0000 0000 0000 0000 0000 0000 0000
000000f0: 0000 0000 0000 0000 0000 0000 0000 0000
00000100: 0000 0000 0000 0000 0000 0000 0000 0000
00000110: 0000 0000 0000 0000 0000 0000 0000 0000
00000120: feb2 5438 209e 8439 ea79 1c3a 1288 af3a
00000130: e347 3a3a aba0 da3a 36c8 8b3b 6a5a d13a
00000140: 9544 c538 47d6 6539 55ac 0d3a ad0d c539
00000150: f287 2a38 91e4 aa39 2118 423a 8b1a 9bba
00000160: f6ed 55bb 5ede 8ebb d0fe 35bb 61f8 33ba
00000170: 9811 7db8 ffcd e038 7c55 5739 c482 1f39
00000180: 3701 738d 015c ee98 c58e b1a2 69b6 caaa
00000190: 43e3 33b1 2376 feb5 99d8 16b9 ce78 a8ba
000001a0: 35f6 f9ba 3fe2 a5ba 498c 32ba 63ec 73b9
000001b0: a4bd 1438 4571 7c39 541c 8e39 9481 e838
000001c0: ffef f137 a356 9835 51fd 5831 e8fb 8cb4
000001d0: 943d cab7 89ff 79b9 9e73 82b9 6ecd 2ab7
000001e0: 5a12 1938 10f9 3a39 12e5 97b9 b021 71ba
000001f0: 9a04 7c3a 03e4 623b 65a9 ef3a ec07 7e39
00000200: cfa7 e839 dd71 2e3a d494 0f39 24fb 3237
00000210: 0dce 6338 362e a339 1386 2b3a 60d8 d43a
00000220: a6ed 8b3a e41b 423a a2b1 7d3b f212 883b
00000230: 5c64 943a ec82 e038 1822 4039 361a 4939
-5.9255814e-05 -0.00034300305 -8.3276616e-05 0.00016583361 -6.351709e-05 2.3887005e-06 -0.00012183707 -4.401423e-06
-7.063624e-05 -0.00060107314 -0.0008647117 -0.00049427996 1.045505e-09 1.3614418e-06 0.00017430304 0.002587542
0.006741035 0.0046556825 0.001992709 0.0004430817 1.2240533e-05 3.4669362e-08 9.858014e-12 2.7713984e-16
-1.9398285e-05 -0.0002845533 -0.0009057791 -0.00090851716 -0.0016057687 -0.0040750382 -0.0037796898 -0.001734948
-0.00084433384 -0.00052266376 -0.00034738777 -0.00018255755 5.2444808e-05 0.00037646733 0.0008059335 0.00041216606
0.0012178001 0.0015624985 0.00042216745 0.0011113965 0.0012354909 0.000715653 0.00039536334 9.862636e-05
0.0 0.0 0.0 0.0 0.0 0.0 0.0 0.0
0.0 0.0 0.0 0.0 0.0 0.0 0.0 0.0
0.0 0.0 0.0 0.0 0.0 0.0 0.0 0.0
5.071144e-05 0.00025294814 0.00059690943 0.0013391993 0.0007106049 0.0016679963 0.0042658104 0.001597238
9.4064664e-05 0.00021918966 0.00054044026 0.00037584957 4.0657767e-05 0.00032595222 0.0007404108 -0.0011833472
-0.0032643056 -0.0043600043 -0.0027770288 -0.00068653194 -6.0336286e-05 0.00010719522 0.00020535843 0.00015212136
-7.488162e-31 -6.161446e-24 -4.812711e-18 -3.600898e-13 -2.6177112e-09 -1.8958857e-06 -0.00014385804 -0.0012853385
-0.0019070568 -0.0012655928 -0.0006811065 -0.00023262347 3.5462566e-05 0.00024074789 0.00027105457 0.00011086758
2.8841196e-05 1.1350097e-06 3.157613e-09 -2.6260318e-07 -2.4108951e-05 -0.00023841685 -0.00024881674 -1.018062e-05
3.6495134e-05 0.00017831125 -0.00028971635 -0.000919844 0.0009613723 0.003462077 0.0018284736 0.00024226279
0.00044375515 0.000665454 0.00013692986 1.06681e-05 5.4312917e-05 0.00031124213 0.0006543111 0.0016238801
0.0010675683 0.0007404669 0.0038710614 0.004152649 0.0011321413 0.000107055384 0.00018323248 0.00019178618

exp_avg_sq f4 [12, 12]
00000000: 17fd b033 9f66 1536 1602 ee36 b11d 6239
00000010: 4a22 fa39 f6b2 6039 9728 5837 4d16 8b32
00000020: e326 8f33 e3e6 b336 4011 6937 5070 e436
00000030: 0236 4a24 9168 2d2e 7110 d934 eb19 8538
00000040: 53bb aa39 fbcc 3e39 b27c f438 d4b7 f936
00000050: 7dd5 d531 3433 7f29 139f c61d 8273 c00e
00000060: 95df 0d35 1c26 3838 db3f 8439 d837 c639
00000070: bee7 9e3a 867c 243b 9023 113b 73ef 183a
00000080: e244 8d38 39ac 2d37 94ce 8536 fee2 dc35
00000090: 711b 0135 2c31 ec37 3883 ea38 abc8 4838
000000a0: 3ed6 4b38 375a f737 e62d 5a36 c9e2 b238
000000b0: b1d3 f438 9490 d737 861d a136 15b6 2f35
000000c0: 0000 0000 0000 0000 0000 0000 0000 0000
000000d0: 0000 0000 0000 0000 0000 0000 0000 0000
000000e0: 0000 0000 0000 0000 0000 0000 0000 0000
000000f0: 0000 0000 0000 0000 0000 0000 0000 0000
00000100: 0000 0000 0000 0000 0000 0000 0000 0000
00000110: 0000 0000 0000 0000 0000 0000 0000 0000
00000120: ded8 6a35 4267 e437 6058 b938 212a 3739
00000130: 10c2 c537 ea52 8739 2b4a 413b 0b5e 143a
00000140: 2c48 f835 17ae 9b35 aa90 0237 3fea 9836
00000150: bd78 6433 85b3 ac37 3d4d d939 6c97 4f3a
00000160: b077 e73a c9c2 563b 6a4c e939 e116 d438
00000170: 337f 8637 8243 0535 6dba b635 2f6a 5035
00000180: 432e 3010 c620 4f1c 8095 0825 95ac 492a
00000190: 4e86 262c 1551 4e2f 866b 8935 1d9c a938
000001a0: 298f 3d39 812e 5e38 e42c 2d37 76f0 ee35
000001b0: 837c a733 9d02 3b36 7f4b 6a38 4661 ac37
000001c0: 3250 ca35 fa3d 8430 dae9 c227 f95e 4d2c
000001d0: 8c1c a132 1a49 c535 3142 0a36 c626 9d34
000001e0: 97d7 0133 665a b336 48ec 2c39 8628 8339
000001f0: 258f 753a e8b8 103b 8708 f539 3a5c c636
00000200: 6c84 f536 658c 5b37 c04d 0935 09ec bf31
00000210: 7e27 1835 94ba 0337 11bc 1137 5b2d 7138
00000220: e3d8 8137 452b 4138 3cf1 af3a 9fa5 e43a
00000230: 7c4d 6239 550a eb35 fcff a935 ef5d 9835
8.2416754e-08 2.2262464e-06 7.0931956e-06 0.000215641 0.00047709263 0.00021428973 1.2884054e-05 1.6191871e-08
6.66603e-08 5.3614945e-06 1.3891899e-05 6.8080044e-06 4.3847514e-17 3.942852e-11 4.0431362e-07 6.346762e-05
0.00032564494 0.00018196173 0.00011658053 7.4421787e-06 6.2233867e-09 5.6665786e-14 5.2574642e-21 4.7442884e-30
5.285195e-07 4.390451e-05 0.00025224578 0.0003780711 0.0012123508 0.0025098636 0.002214644 0.00058340206
6.736234e-05 1.0351702e-05 3.9877577e-06 1.6457341e-06 4.809618e-07 2.815629e-05 0.00011182431 4.7870602e-05
4.85985e-05 2.9486704e-05 3.2511248e-06 8.5299434e-05 0.00011674257 2.5697322e-05 4.801611e-06 6.5457544e-07
0.0 0.0 0.0 0.0 0.0 0.0 0.0 0.0
0.0 0.0 0.0 0.0 0.0 0.0 0.0 0.0
0.0 0.0 0.0 0.0 0.0 0.0 0.0 0.0
8.7487376e-07 2.7227801e-05 8.8379486e-05 0.00017467934 2.3574597e-05 0.00025810982 0.002949367 0.00056597654
1.8498445e-06 1.1599067e-06 7.782286e-06 4.557223e-06 5.3195198e-08 2.0587593e-05 0.00041447012 0.0007918987
0.0017659571 0.003276991 0.00044498156 0.00010113209 1.6033277e-05 4.96446e-07 1.3614314e-06 7.7640556e-07
3.474552e-29 6.8532913e-22 1.1846772e-16 1.7912263e-13 2.3664573e-12 1.8764397e-10 1.0238589e-06 8.087626e-05
0.00018077776 5.2972235e-05 1.03220555e-05 1.7802365e-06 7.799192e-08 2.7866693e-06 5.586026e-05 2.0549294e-05
1.5073513e-06 9.621879e-10 5.409936e-15 2.9184973e-12 1.8755848e-08 1.4698919e-06 2.060213e-06 2.927174e-07
3.023123e-08 5.3451395e-06 0.0001649122 0.0002501646 0.00093673385 0.002208287 0.00046736395 5.9115964e-06
7.316985e-06 1.3086105e-05 5.114962e-07 5.5856657e-09 5.668188e-07 7.85165e-06 8.686461e-06 5.7501118e-05
1.5478994e-05 4.6055084e-05 0.0013423334 0.0017444378 0.00021581905 1.7511871e-06 1.2665982e-06 1.1352221e-06

exp_avg f4 [24, 12]
00000000: a68e afb9 b1d5 11b9 c109 c8ba 74d7 f4b9
00000010: 0000 0000 0000 0000 5869 87b8 bd0a 7fba
00000020: 9564 f136 6116 a8b8 5bf8 9cba 1f4f eeb8
00000030: 2709 e439 3519 2139 39dd bc3a 6d2d 883a
00000040: 0000 0000 0000 0000 5f7c b638 38c3 7e3a
00000050: 4cae b138 3dd7 2b38 e5c7 4b3a 5a99 8139
00000060: 2955 ff38 48ed 3039 8287 2bb9 472e 343a
00000070: 0000 0000 0000 0000 d05e de37 b55a ef36
00000080: c344 8d38 13b1 8a38 77ff f9b9 ff0e cb38
00000090: 626d ecb9 7955 c9b8 a7f9 17bb eca6 02bb
000000a0: 0000 0000 0000 0000 7e1c 22b9 39e3 2dbb
000000b0: ae6d abb9 8eca 2eb8 5100 5dba 83f3 40ba
000000c0: f9ab 273a f9c7 b539 1d20 1f3b ce4c b03a
000000d0: 0000 0000 0000 0000 8482 0839 f01f f63a
000000e0: fa8c ab38 9e95 0839 8127 c63a 5f8f c139
000000f0: 34c3 da39 aa59 3f39 f5b3 c63a 4725 973a
00000100: 0000 0000 0000 0000 0d6d 4538 c8b0 9a3a
00000110: b160 3a39 d182 3239 c8cc 733a 5d8d 1b39
00000120: 3d17 3a3b ce70 c83a 5d89 193c f2c9 883b
00000130: 0000 0000 0000 0000 1675 af39 7450 b93b
00000140: f6c2 d938 8e9f 2239 fe88 bd3b b203 583a
00000150: 3e02 2b37 7794 18b6 f930 8d38 7a86 8039
00000160: 0000 0000 0000 0000 e63e 4537 da49 cb39
00000170: 3230 c838 5c08 d938 4e66 5f35 f3ad 9a38
00000180: a243 223a 5808 c039 a528 e23a 1e7f a73a
00000190: 0000 0000 0000 0000 3a22 1538 9102 593a
000001a0: 342e 3238 31fd 3a39 fcdb 943a 6686 bb38
000001b0: 5f44 9139 1450 e538 57a5 6f3a b81e 853a
000001c0: 0000 0000 0000 0000 5d9e aa38 2197 533a
000001d0: 4200 5239 b0d3 6c39 b991 f739 fc84 4b39
000001e0: c03b 0f3b 6974 843a 707a 103c ff6d aa3b
000001f0: 0000 0000 0000 0000 2016 053a ad49 fc3b
00000200: 95ad fa39 be50 083a 9fdc aa3b 7071 d13a
00000210: baa5 3c3b 8bab b13a c445 273c 1bc9 cc3b
00000220: 0000 0000 0000 0000 563b 003a 834f ea3b
00000230: 7a7d 263a 02bd b439 15db b93b 02d0 bb3a
00000240: 2b3c 7e3a 77f8 b539 d360 693b 1f8b 193a
00000250: 0000 0000 0000 0000 fa25 4336 6c11 c53a
00000260: f51f b6b9 4048 2938 207b 563b bf28 b935
00000270: e93f 4a39 e35a 2439 149e 223a e76c d4b9
00000280: 0000 0000 0000 0000 f28a d8b7 12a7 aeb9
00000290: 8537 2ab9 94b0 e7b8 c49e 243a 8517 6eb9
000002a0: dda8 53bb c417 daba 2756 3bbc 7c07 dbbb
000002b0: 0000 0000 0000 0000 18b8 06ba 3db1 04bc
000002c0: a19d 0dba f074 1dba 9201 dbbb c82c c5ba
000002d0: afe9 97ba 966b 15ba 62c0 8cbb 5433 f4ba
000002e0: 0000 0000 0000 0000 f61d 47b9 875c 33bb
000002f0: 2d70 e9b8 f01c 8db9 ecb9 3ebb 3ee2 c1b9
00000300: 7371 203a 0f13 a738 f40f f33a 1c09 c13a
00000310: 0000 0000 0000 0000 a13a 2539 948b 943a
00000320: 738f 0639 b7e5 ae38 24bd 643a c2b3 c339
00000330: 5d31 b03a 3c0a 6a3a 3064 6a3b 47c0 073b
00000340: 0000 0000 0000 0000 7486 5a38 7430 a33a
00000350: f1aa aab8 b564 05ba d3e0 903a df2f b039
00000360: c079 5fb8 18a3 8d38 3d28 5938 90af 4bba
00000370: 0000 0000 0000 0000 e114 cbb8 a19c 34b9
00000380: 3c69 34b9 6349 7bb8 e615 103a 7186 82b9
00000390: 7f1b 773a 5cf1 b039 772c 7c3b b710 1b3b
000003a0: 0000 0000 0000 0000 0391 7939 bb5d 4a3b
000003b0: d89b d539 3663 9239 2ddb 113b a990 233a
000003c0: 669f dfb9 cb3a 2cb9 2409 caba 23d9 49ba
000003d0: 0000 0000 0000 0000 9193 5ab8 3d59 83ba
000003e0: b8b6 c1b8 3159 c3b8 a7b2 88ba 771b 12b9
000003f0: 1cfe 993a 4a5f 083a 5b4e 8c3b 0ace 213b
-0.00033484882 -0.00013907884 -0.0015261696 -0.00046699832 0.0 0.0 -6.4569234e-05 -0.0009729078
7.194069e-06 -8.015033e-05 -0.0011975871 -0.00011363462 0.00043494368 0.00015363547 0.0014409191 0.0010389515
0.0 0.0 8.701602e-05 0.0009718421 8.472483e-05 4.0970033e-05 0.0007773622 0.00024719053
0.0001217521 0.00016873062 -0.00016358311 0.0006873351 0.0 0.0 2.6508613e-05 7.1333147e-06
6.736212e-05 6.6133354e-05 -0.00047683317 9.6825876e-05 -0.00045094924 -9.6003474e-05 -0.0023189576 -0.001993592
0.0 0.0 -0.00015460138 -0.002653314 -0.0003269738 -4.1673477e-05 -0.0008430528 -0.0007360505
0.00063961704 0.00034672001 0.0024280616 0.0013450624 0.0 0.0 0.00013018592 0.0018777829
8.180174e-05 0.00013025707 0.0015117974 0.00036918648 0.00041725638 0.00018248582 0.0015159833 0.0011531495
0.0 0.0 4.707002e-05 0.0011801952 0.00017774363 0.00017024136 0.0009300229 0.00014834614
0.0028395199 0.0015292407 0.009371129 0.0041744644 0.0 0.0 0.00033465837 0.0056553427
0.00010383681 0.00015508963 0.005784153 0.0008240297 1.0192916e-05 -2.2736183e-06 6.732526e-05 0.00024514255
0.0 0.0 1.175676e-05 0.000387742 9.54572e-05 0.000103489234 8.3222847e-07 7.375693e-05
0.00061898876 0.0003662731 0.0017254545 0.0012778973 0.0 0.0 3.5556244e-05 0.00082782755
4.2481537e-05 0.00017832663 0.0011357064 8.9418885e-05 0.00027707496 0.000109344866 0.0009141764 0.001015625
0.0 0.0 8.135729e-05 0.0008071531 0.00020027257 0.00022585574 0.00047220083 0.00019409129
0.0021855682 0.0010105494 0.008818254 0.005201101 0.0 0.0 0.0005076844 0.0076992125
0.00047813045 0.000520002 0.0052142884 0.0015979242 0.0028785304 0.0013555152 0.0102095045 0.0062495596
0.0 0.0 0.0004891654 0.007150592 0.0006351095 0.00034473097 0.0056718686 0.0014328959
0.0009698297 0.0003470813 0.003561069 0.00058572175 0.0 0.0 2.907937e-06 0.0015035099
-0.00034737555 4.0360028e-05 0.0032727197 1.3795433e-06 0.0001928803 0.00015674117 0.0006203365 -0.0004051693
0.0 0.0 -2.5813908e-05 -0.00033312343 -0.00016233146 -0.000110478286 0.00062797614 -0.0002270621
-0.0032296695 -0.0016639163 -0.011434115 -0.006684242 0.0 0.0 -0.00051391264 -0.0080988975
-0.00054022117 -0.00060065 -0.006683537 -0.0015043253 -0.0011590029 -0.00056999305 -0.0042953948 -0.001863102
0.0 0.0 -0.0001898928 -0.0027368383 -0.000111312 -0.00026915176 -0.0029102517 -0.00036980392
0.0006120421 7.9667305e-05 0.0018544183 0.0014727446 0.0 0.0 0.00015757467 0.0011333101
0.00012832675 8.339754e-05 0.0008725694 0.00037327228 0.0013442446 0.00089279166 0.0035765283 0.0020713971
0.0 0.0 5.210047e-05 0.0012450353 -8.138072e-05 -0.0005088554 0.0011053331 0.00033605003
-5.328073e-05 6.7537825e-05 5.1774306e-05 -0.00077699963 0.0 0.0 -9.683683e-05 -0.00017224487
-0.0001720534 -5.991141e-05 0.0005496427 -0.000248957 0.00094263995 0.00033749163 0.0038478652 0.0023661086
0.0 0.0 0.00023800512 0.0030878622 0.00040742639 0.00027921208 0.0022255883 0.00062395126
-0.00042652636 -0.000164251 -0.0015414101 -0.00076998974 0.0 0.0 -5.2112682e-05 -0.0010021102
-9.236991e-05 -9.314938e-05 -0.0010429219 -0.00013933876 0.0011748704 0.00052021875 0.0042818016 0.002468946

exp_avg_sq f4 [24, 12]
00000000: 736c c236 754e 8f35 8793 0139 21bd e837
00000010: 0000 0000 0000 0000 6fe9 0735 d073 bc38
00000020: 6b43 1e34 9727 6134 8140 8338 65ef 9a36
00000030: 2ea3 8337 d8ac c536 2adb 2939 5bd6 0938
00000040: 0000 0000 0000 0000 ddd2 4935 81cf 7738
00000050: 8a58 1c34 fefc 8335 45c2 9e38 5f5b af35
00000060: 7c4b 8438 3da0 a037 1c14 343a eb67 1439
00000070: 0000 0000 0000 0000 afc7 0236 8e47 6139
00000080: 100f 4f33 82b6 bc34 a539 9139 9664 e836
00000090: b07f 1b39 f2e5 9238 f324 693b 2e37 773a
000000a0: 0000 0000 0000 0000 64f2 bb37 90f6 743b
000000b0: 4c98 ca36 6160 6736 928a 853a bd1b 3d39
000000c0: caad 9a37 9d8c 8836 794a 0639 8a41 5937
000000d0: 0000 0000 0000 0000 f44f 7234 6915 f837
000000e0: 6b1f 1235 91ff 7835 4f44 1339 3c53 7736
000000f0: f694 2e37 4c93 8436 aa38 2339 c3b6 dd38
00000100: 0000 0000 0000 0000 9e5f 2735 ad4c 1e39
00000110: 0b04 a935 5426 0435 fed4 fa37 78bd 4337
00000120: cfff 7d38 ee1f 9137 b13c 593a 06af 9a39
00000130: 0000 0000 0000 0000 d805 8f36 9606 c939
00000140: c118 c935 7e27 0537 5f18 da39 0610 5137
00000150: 6fe7 8a36 d96e af35 c24e fe38 3765 0138
00000160: 0000 0000 0000 0000 2cd0 8e35 9876 1639
00000170: f577 3635 b02d f833 9c5f 1938 99a9 1737
00000180: aeac 1d38 22ef 8137 2d87 e039 31be d638
00000190: 0000 0000 0000 0000 4379 1c36 8c66 6339
000001a0: 8d7c 4033 f02f 5935 5387 2939 309d 0d37
000001b0: 69d8 0136 ae66 2a35 c378 9237 c8ce 1b38
000001c0: 0000 0000 0000 0000 dfb2 e334 2d84 4f38
000001d0: 2112 e335 534a 2135 b142 a437 6abb e136
000001e0: b76b 1838 6813 6337 d39b bc3a 32e4 cc39
000001f0: 0000 0000 0000 0000 8989 9937 6921 563b
00000200: 198b 1737 dcce 1f38 19db 4f3a 53b0 2339
00000210: c673 9e39 0638 0739 01ab b93b abbf b03a
00000220: 0000 0000 0000 0000 a254 2638 2c33 9a3b
00000230: cdcf 6237 17af c537 aa9c fb3a 778d 4b39
00000240: a3a7 2337 7e6a 8936 8354 3239 ad21 2938
00000250: 0000 0000 0000 0000 7058 5235 df87 8438
00000260: 3d42 4536 2bc2 1c36 5a39 8238 d1b6 7236
00000270: e517 5238 0246 8a37 850d 503a 051b 3639
00000280: 0000 0000 0000 0000 ebf2 6636 507e eb39
00000290: 5c11 7335 24e5 a934 d794 6939 716e b837
000002a0: 15da 1b39 b892 a237 d7a6 a83a 049b 5139
000002b0: 0000 0000 0000 0000 61dd 0237 b228 f639
000002c0: 85bf 1237 ea88 a137 d460 c83a ab40 9e38
000002d0: 49cb 8437 16df b336 0887 2139 d3bd d937
000002e0: 0000 0000 0000 0000 66c9 8a35 5817 6d38
000002f0: 758e 6134 2d8c a735 f838 d138 e4af 4436
00000300: f3b9 8b38 8599 2a37 f274 fe39 3e22 9939
00000310: 0000 0000 0000 0000 5cf2 3235 3765 2e39
00000320: 77d2 9a35 617c 6137 916c de39 9f15 3d36
00000330: 8f79 0f38 491c 1d37 e0ec f939 620b 0539
00000340: 0000 0000 0000 0000 3542 ae35 f702 f339
00000350: 6e93 8a35 df7f fc36 94b8 7939 6f54 8937
00000360: cedf 8536 24a0 a035 1a44 7138 3e0e a437
00000370: 0000 0000 0000 0000 72f5 8734 78a6 2a38
00000380: e37b 9035 196e c536 22b1 2538 ae9b 7036
00000390: e738 6a38 1f81 c637 4bd8 1e3a 9770 9639
000003a0: 0000 0000 0000 0000 31df a536 005a 8939
000003b0: 8aab 9736 3ca6 cd35 211e b138 ab90 9a37
000003c0: b37b 3038 d99b 6f37 556a f239 85e3 ea38
000003d0: 0000 0000 0000 0000 2292 ee35 bd45 2f39
000003e0: 1efd 0634 89d1 5336 da09 7e39 23bf 6436
000003f0: 09c4 c839 7a09 da38 90e6 4c3b 0ccd 063a
5.7942757e-06 1.0677164e-06 0.00012357357 2.7744625e-05 0.0 0.0 5.063111e-07 8.98611e-05
1.4739423e-07 2.096916e-07 6.2585816e-05 4.617427e-06 1.5692403e-05 5.891179e-06 0.00016198741 3.286298e-05
0.0 0.0 7.518518e-07 5.9082642e-05 1.4560842e-07 9.833891e-07 7.5702126e-05 1.3065109e-06
6.3083105e-05 1.9148103e-05 0.00068694516 0.00014153092 0.0 0.0 1.948774e-06 0.00021484328
4.8209643e-08 3.515052e-07 0.00027699504 6.9258485e-06 0.00014829519 7.004653e-05 0.0035575002 0.00094305247
0.0 0.0 2.2405009e-05 0.0037378408 6.037799e-06 3.4477782e-06 0.0010188392 0.00018034778
1.8439157e-05 4.0694854e-06 0.00012806979 1.2949467e-05 0.0 0.0 2.2567093e-07 2.9573874e-05
5.443496e-07 9.27591e-07 0.0001404446 3.6854317e-06 1.0405891e-05 3.951054e-06 0.00015566 0.00010572143
0.0 0.0 6.235149e-07 0.00015096618 1.2592658e-06 4.9229607e-07 2.9901505e-05 1.166702e-05
6.055814e-05 1.7300215e-05 0.0008286937 0.00029503572 0.0 0.0 4.2624124e-06 0.00038342614
1.4982871e-06 7.936613e-06 0.00041598358 1.24611015e-05 4.139663e-06 1.3070777e-06 0.000121263336 3.085026e-05
0.0 0.0 1.064041e-06 0.00014349294 6.7974844e-07 1.15567104e-07 3.6567086e-05 9.039789e-06
3.7592537e-05 1.5489353e-05 0.00042825323 0.00010239741 0.0 0.0 2.3316395e-06 0.00021686609
4.4816762e-08 8.090856e-07 0.00016167508 8.440853e-06 1.9348465e-06 6.3479354e-07 1.746079e-05 3.714746e-05
0.0 0.0 4.241219e-07 4.9475744e-05 1.6918094e-06 6.008533e-07 1.958138e-05 6.7273404e-06
3.633994e-05 1.3534773e-05 0.0014389701 0.0003907993 0.0 0.0 1.8303066e-05 0.0032673723
9.032688e-06 3.8101207e-05 0.00079290714 0.00015610577 0.00030222366 0.00012895474 0.005666137 0.0013484856
0.0 0.0 3.9656305e-05 0.004705807 1.3519032e-05 2.3565763e-05 0.001919647 0.00019412288
9.754588e-06 4.0953155e-06 0.00017006886 4.0324103e-05 0.0 0.0 7.835979e-07 6.3195585e-05
2.9393843e-06 2.3358832e-06 6.2095656e-05 3.6167223e-06 5.0090155e-05 1.6483482e-05 0.0007936585 0.00017366938
0.0 0.0 3.4414068e-06 0.00044916803 9.0549815e-07 3.1645425e-07 0.00022276059 2.1985938e-05
0.00014863194 1.9380226e-05 0.0012867105 0.00019989541 0.0 0.0 7.800148e-06 0.00046951097
8.74687e-06 1.9256451e-05 0.0015287646 7.5460724e-05 1.5830288e-05 5.3605863e-06 0.0001540446 2.595681e-05
0.0 0.0 1.0340416e-06 5.6526944e-05 2.1006583e-07 1.2483266e-06 9.976508e-05 2.9308658e-06
6.662672e-05 1.0168534e-05 0.00048533786 0.00029207946 0.0 0.0 6.6662847e-07 0.00016631639
1.1535147e-06 1.3440004e-05 0.00042424028 2.817578e-06 3.4207067e-05 9.364515e-06 0.00047669467 0.00012688109
0.0 0.0 1.2983279e-06 0.0004635078 1.0324709e-06 7.5250714e-06 0.00023815251 1.637099e-05
3.989763e-06 1.1967536e-06 5.7522302e-05 1.9556956e-05 0.0 0.0 2.5324294e-07 4.0686195e-05
1.0764892e-06 5.8838746e-06 3.9504033e-05 3.5853404e-06 5.5842942e-05 2.3663566e-05 0.0006059452 0.00028694115
0.0 0.0 4.943366e-06 0.00026197731 4.5201205e-06 1.5322071e-06 8.44563e-05 1.8425597e-05
4.2076874e-05 1.4281796e-05 0.0004623706 0.00011200368 0.0 0.0 1.7774912e-06 0.0001671528
1.2571806e-07 3.1563416e-06 0.00024226998 3.4085904e-06 0.0003829303 0.00010396815 0.0031265356 0.00051422487

exp_avg f4 [12]
00000000: ac0b 00bb 3b7f 273c 826f 1cbc 22cb ad3b
00000010: 0000 0000 0000 0000 0445 f63b 7f50 d4bb
00000020: 7674 62bb 3237 f238 cb82 8d3b 694b 0f3c
-0.0019538207 0.010223205 -0.00954807 0.0053037563 0.0 0.0 0.0075155515 -0.0064793224
-0.003455428 0.0001154974 0.0043185703 0.0087460065

exp_avg_sq f4 [12]
00000000: 0f2f 523a 5697 833a 79f1 883c 5d0e 923a
00000010: 0000 0000 0000 0000 ee37 093b b719 333c
00000020: 2c10 f939 95b4 7a38 4a84 ef3b a134 873b
0.00080178765 0.0010039608 0.016716706 0.0011143197 0.0 0.0 0.0020937878 0.010931424
0.0004750503 5.9772825e-05 0.0073094713 0.004126147

exp_avg f4 [24]
00000000: 8008 7fba 0f62 6d3a 7d8e 40b9 0bb7 15bb
00000010: a69a dd3a ac80 913a 5ed2 c33b cad5 2f39
00000020: a960 5e3a c0c2 1c3a 6926 db3b f503 ea3b
00000030: dbdf de3a 53ac b738 fd4a f9bb c981 31bb
00000040: cebc 923a 81b4 143b 2b95 25b8 ff76 403b
00000050: 03fd 85ba 5b73 443b 7f3d 053b e0cc 5a3a
-0.00097287446 0.00090554444 -0.00018363628 -0.0022844698 0.0016907051 0.0011100969 0.0059760055 0.00016768943
0.00084830314 0.0005979948 0.0066879285 0.007141585 0.001700397 8.758218e-05 -0.0076078163 -0.0027085415
0.0011195184 0.0022690597 -3.947799e-05 0.0029367802 -0.0010222498 0.0029975984 0.0020330844 0.0008346569

exp_avg_sq f4 [24]
00000000: 08e8 9a38 c50a 6638 5c66 7e39 5c80 233b
00000010: ebbf c437 f1ed df38 a6b3 a739 5d44 e238
00000020: f051 3139 e50c 6937 b73b b73a 3bb0 573b
00000030: 2f13 b738 7c58 e539 b42e a639 f8d0 5a38
00000040: a958 8938 dc52 8239 4a4c 5e38 2301 9f39
00000050: 1f0c 1039 55d3 193a a437 aa38 8947 1c37
7.3865114e-05 5.4846303e-05 0.0002426146 0.0024948334 2.345439e-05 0.00010677789 0.0003198657 0.000107892534
0.0001691056 1.38908845e-05 0.0013979588 0.0032911438 8.729693e-05 0.0004374421 0.00031696784 5.2169868e-05
6.549183e-05 0.00024857267 5.2999974e-05 0.0003032769 0.00013737426 0.0005867978 8.1165956e-05 9.31498e-06
