Model/epoch100/Model_8/model8.ckpt (torch_old, 286080 bytes, 464 tensors)

exp_avg f4 [72]
000000 8c 8c d9 bb 88 75 77 3a d9 5c 19 bc 48 39 73 ba
       -0.006639069 0.0009439816 -0.0093605155 -0.000927825
000010 b2 cb 5c 3b 74 a3 05 ba a3 aa 41 bb b3 2e 28 bc
       0.0033690748 -0.0005097904 -0.002955117 -0.01026504
000020 a3 bd cc 3b e6 f8 27 bc 1e 46 6f bc 37 96 db b9
       0.0062481924 -0.010252213 -0.01460412 -0.00041882854
000030 c1 8e 73 bc 42 b7 ce 3a 72 d9 0a bc 7d 1b 4b bb
       -0.014865578 0.0015771168 -0.008474695 -0.0030991726
000040 34 9b d4 b9 69 ee bb 3b f4 d3 13 3b 65 ff f1 b7
       -0.00040551426 0.005735208 0.0022556754 -2.8848366e-05
000050 e2 96 01 ba 5e 21 bf 3b 64 cf 11 ba 2a a3 3e 3b
       -0.0004943443 0.005832835 -0.00055622146 0.0029088953
000060 b6 96 c0 bb 77 21 dc ba ea 93 53 bb ee aa 23 b8
       -0.005877341 -0.0016794641 -0.0032284209 -3.902142e-05
000070 7e ea 92 bb 99 a9 b6 3b 84 44 f4 bb 9a 61 ec b9
       -0.00448352 0.005574417 -0.0074544568 -0.00045086147
000080 99 51 0b bb ca 0d c5 bb dd 70 ca ba 75 89 f0 bb
       -0.0021258353 -0.0060136067 -0.0015445013 -0.007340605
000090 ba c6 d2 3b 99 c2 9f 39 06 fe 24 3b 9d 61 26 3c
       0.0064323815 0.0003047183 0.0025175824 0.010155109
0000a0 87 23 ec 3b f2 06 08 3c 6d 3e 31 bc f1 b2 ad bb
       0.0072063836 0.008302437 -0.010818106 -0.0053008725
0000b0 92 db de ba 74 13 81 bc 6a d1 89 3b df cc 88 bb
       -0.0017002693 -0.015756346 0.0042058723 -0.004174813
0000c0 a3 ba 0f bc be a9 c3 b9 76 50 0a bc 73 85 2d ba
       -0.008772525 -0.00037319766 -0.008442035 -0.0006619312
0000d0 67 0d b3 39 26 8f 20 bb 3f 0f e6 3b 93 eb 2e 3c
       0.00034151526 -0.0024499386 0.0070208604 0.010676282
0000e0 f2 ee 31 ba 55 c3 47 3a e3 95 0d 39 a0 93 f4 3a
       -0.000678762 0.00076203543 0.00013502645 0.0018659718
0000f0 e4 46 93 3b a4 80 56 3a 59 12 5b 39 80 1a db 3a
       0.004494535 0.0008182621 0.00020892303 0.0016716272
000100 46 20 ac 3a 44 5d 83 ba 1b bf 4e bb 18 bc 0c bb
       0.0013132177 -0.0010022302 -0.0031547013 -0.0021474417
000110 29 a0 a0 3a 85 d0 33 3c 81 fb 66 3b a5 2a fa 3a
       0.0012254763 0.010975008 0.0035245123 0.0019086195

exp_avg_sq f4 [72]
000000 65 ec 02 3b 8a c7 76 3a e8 ce 15 3a 7b 94 98 3a
       0.0019977328 0.0009413889 0.00057147304 0.001164093
000010 0d 78 ed 39 72 58 77 39 62 bc 70 3b 75 9d 8d 3b
       0.00045293607 0.00023588704 0.0036733379 0.004321749
000020 c6 8d a9 3a 94 28 30 3b 13 7c c0 3a 11 9d 4d 3b
       0.0012935929 0.0026879655 0.0014685414 0.0031374136
000030 8b f0 0e 3b c3 1b 3f 3a 74 fc 88 3a a3 e8 0b 3a
       0.0021810855 0.00072902086 0.0010451213 0.0005337095
000040 28 56 a1 39 98 8e 52 3a 89 f7 6c 39 e4 e7 2c 38
       0.00030772504 0.00080321124 0.00022598928 4.122396e-05
000050 aa 28 eb 39 60 ea d6 3a 03 14 df 38 03 20 e2 39
       0.0004485299 0.0016396753 0.00010637196 0.0004312993
000060 f9 c9 85 3a 0d ce db 39 5d 73 e7 39 84 c3 6f 3a
       0.0010207287 0.00041924455 0.00044145706 0.00091462606
000070 44 e8 0d 3a 1b bb 09 3a c6 82 da 3a a2 31 42 39
       0.00054133334 0.0005254016 0.0016671054 0.00018519771
000080 26 ad 43 39 a4 94 9e 3a 93 34 34 39 54 bf 29 3a
       0.00018661152 0.0012098742 0.00017185723 0.00064753485
000090 dc d3 33 3a b6 37 0d 38 bc 5a 67 39 43 0f ca 3a
       0.00068598776 3.3668905e-05 0.00022063678 0.0015415925
0000a0 2a 93 f6 39 93 7c f6 39 fb f8 ff 3a 4f f0 da 3a
       0.00047030422 0.0004701359 0.0019529158 0.0016703698
0000b0 aa 35 32 3a f8 f6 8b 3b 9c c0 98 3b 48 11 43 3a
       0.00067981577 0.0042713843 0.0046616327 0.0007441235
0000c0 04 3e a6 3a 01 9a d4 39 e3 73 7b 39 96 58 56 39
       0.0012683277 0.00040550533 0.00023980397 0.00020441631
0000d0 8f 21 c2 37 be cc 09 39 ae 2f 62 3b 40 cf 01 3b
       2.314223e-05 0.0001314161 0.0034513283 0.0019807369
0000e0 73 1f 75 3b e0 9d 1d 39 c6 a9 d5 38 bc c7 09 39
       0.0037402778 0.000150315 0.00010188254 0.00013139745
0000f0 e8 44 e2 38 7a 2e 34 38 d3 bb b3 38 76 5f 09 3b
       0.000107893546 4.295863e-05 8.57037e-05 0.002096144
000100 b6 9b 25 39 21 6c 29 3a 27 60 3b 39 45 e8 a4 38
       0.00015793633 0.0006462951 0.00017869529 7.863393e-05
000110 61 72 84 3a 78 11 13 3b c9 49 8b 3a 54 a4 7f 3a
       0.0010104888 0.0022440832 0.0010626848 0.0009751965

exp_avg f4 [24]
000000 c9 ab 76 bc de 28 fd 3a 1a 75 e4 bb db 0d cf bc
       -0.015055605 0.0019314548 -0.0069719674 -0.025275161
000010 a6 48 b2 bc f6 2d 12 3b 87 14 e3 3a 82 1c 06 3c
       -0.021763157 0.0022305227 0.0017324843 0.008185508
000020 84 b4 30 bc 1b df 89 3a b6 59 24 bc bb 19 74 bc
       -0.010785226 0.0010518761 -0.010031154 -0.014898713
000030 f1 a0 17 3c 27 3d d2 3c b0 f9 91 bc 4f d2 80 bc
       0.00925468 0.025663925 -0.017819256 -0.015725283
000040 33 14 90 bc d4 8e 35 bb 21 6a 8b 3c 09 14 35 3b
       -0.017587757 -0.002770354 0.01701838 0.002763035
000050 8b ef b4 3b ac ee 01 3b 98 95 85 bb 5c 6a 86 3c
       0.00552172 0.0019826097 -0.004076671 0.016408138

exp_avg_sq f4 [24]
000000 03 55 a0 3b 3a 65 82 3b 0f 46 5c 3c b1 cb e3 3b
       0.0048929467 0.0039793523 0.013444438 0.006951772
000010 68 65 d3 3b 00 ef 71 3b c6 49 a4 3a a0 25 31 3b
       0.0064512976 0.0036916137 0.0012534193 0.0027030483
000020 f7 5e 58 3b 47 9e 38 3b d2 cc 68 3b db 4f 75 3b
       0.0033015588 0.0028170513 0.0035522473 0.003743163
000030 4e de f5 3a fd 53 26 3b 92 02 26 3c de 1a 8f 3c
       0.0018758269 0.002537965 0.010132449 0.017468866
000040 b0 7f 6d 3b 7f 71 2a 3a b6 44 a8 3b 56 0b 1f 3a
       0.0036239438 0.00065018976 0.005135144 0.0006067058
000050 de 44 a1 39 6e e1 ad 3b b3 79 84 3a 6d 22 ea 3b
       0.00030759623 0.0053064143 0.001010707 0.007145217

exp_avg f4 [12, 12]
000000 08 46 49 33 3a 42 b2 36 37 00 0b 39 eb 95 94 3a
       4.6862652e-08 5.312523e-06 0.00013256153 0.0011336183
000010 98 fd 58 3b 65 48 83 3b a6 0d c3 3a df 94 ba 38
       0.0033110138 0.004006433 0.0014881387 8.8969005e-05
000020 0d 75 f4 b7 34 9d a4 b8 ac 50 0b b9 ae 70 11 b9
       -2.9141573e-05 -7.849411e-05 -0.00013286126 -0.00013870254
000030 8d f4 98 b8 89 27 55 ba 33 a0 05 bb f5 af 18 bb
       -7.293476e-05 -0.00081311964 -0.0020389676 -0.0023298238
000040 fd 84 ee ba bd 42 92 b9 ab f9 a7 b6 77 d5 bb 34
       -0.0018197593 -0.00027897014 -5.006053e-06 3.498678e-07
000050 95 02 a7 37 09 58 12 39 70 d6 44 39 d6 a8 da 38
       1.9909154e-05 0.0001395644 0.00018771901 0.00010426498
000060 00 00 00 00 00 00 00 00 00 00 00 00 00 00 00 00
       0.0 0.0 0.0 0.0
000070 00 00 00 00 00 00 00 00 00 00 00 00 00 00 00 00
       0.0 0.0 0.0 0.0
000080 00 00 00 00 00 00 00 00 00 00 00 00 00 00 00 00
       0.0 0.0 0.0 0.0
000090 61 0e 77 b8 85 5a 69 ba 51 8b 2e bb 49 9e 1b bb
       -5.890278e-05 -0.0008901733 -0.0026633332 -0.0023745468
0000a0 19 c5 2b ba cf 02 29 bb 70 3a 68 bb 88 a9 10 b9
       -0.0006552502 -0.0025789028 -0.0035435222 -0.00013796065
0000b0 18 28 2c 3a c7 87 ba 39 a6 de 71 39 75 22 ee 38
       0.0006567254 0.00035577847 0.00023066494 0.000113551425
0000c0 f3 2b 8a 36 79 25 a3 37 ab f7 74 36 ae 94 6e b8
       4.117837e-06 1.9448564e-05 3.6502995e-06 -5.688209e-05
0000d0 4f 6c 30 39 18 66 14 3a 31 ec 1f 38 f7 2c fc b9
       0.00016825016 0.0005660965 3.8128524e-05 -0.00048098687
0000e0 6a 12 68 b7 63 7d d6 b8 0f 41 01 b9 3a b5 b3 b8
       -1.3832565e-05 -0.0001022767 -0.00012326635 -8.569141e-05
0000f0 59 9c c8 36 6b 43 dd 38 28 8f f8 39 f3 e1 4f 39
       5.9786657e-06 0.00010550659 0.00047408906 0.00019825231
000100 79 c3 7e ba 71 7e c3 ba 7f a4 08 ba 80 9b 42 3a
       -0.0009718459 -0.0014915002 -0.00052125 0.0007423684
000110 18 78 3f 3a 0e 45 50 39 6a 5e fc 37 35 fc a1 37
       0.0007303967 0.0001986215 3.0084706e-05 1.9310139e-05
000120 41 32 90 38 be 6b 61 3a 67 4c 00 3b 60 4a 3d 3a
       6.8758156e-05 0.00085991237 0.001957679 0.00072208606
000130 b5 7f f6 37 e9 d1 f5 33 d4 63 36 2e 8e 5d c8 26
       2.9384953e-05 1.1446884e-07 4.1470674e-11 1.3903146e-15
000140 e4 da a2 1d 33 ed c3 12 e6 85 2e 06 3f 00 00 00
       4.310737e-21 1.2364704e-27 3.2824136e-35 8.8e-44
000150 57 ac 95 37 c7 5f a1 38 bc 0d f1 38 b2 88 23 b9
       1.7842436e-05 7.694918e-05 0.00011494334 -0.00015595814
000160 6b 43 3a b6 df 06 8e 39 c4 bf ab 39 e5 4b b8 b9
       -2.7755402e-06 0.0002708947 0.00032758538 -0.0003515176
000170 14 bf 1e ba b1 a9 24 b9 0b 64 1d b8 a0 e9 31 b8
       -0.00060556945 -0.00015703474 -3.752489e-05 -4.241767e-05
000180 53 60 03 34 2d f8 92 37 56 dd 3c 39 19 15 45 b9
       1.2235368e-07 1.7520122e-05 0.00018011531 -0.00018795244
000190 59 33 90 b9 a0 f8 98 b7 e1 1a ff b3 a0 08 bf ae
       -0.00027504077 -1.8235587e-05 -1.1879252e-07 -8.6872065e-11
0001a0 51 d8 fd a7 9a e1 8a 9f 12 22 6b 95 7f 14 95 89
       -7.0456137e-15 -5.88185e-20 -4.748475e-26 -3.588972e-33
0001b0 00 00 00 00 00 00 00 00 00 00 00 00 00 00 00 00
       0.0 0.0 0.0 0.0
0001c0 00 00 00 00 00 00 00 00 00 00 00 00 00 00 00 00
       0.0 0.0 0.0 0.0
0001d0 00 00 00 00 00 00 00 00 00 00 00 00 00 00 00 00
       0.0 0.0 0.0 0.0
0001e0 73 1f 84 37 2c e8 34 39 21 6d 19 39 75 51 e6 38
       1.575027e-05 0.00017252628 0.0001463187 0.00010982427
0001f0 3e 35 ea 3a be 61 9d 3b f0 34 dd 3a ee 7d 36 ba
       0.0017868651 0.0048029115 0.0016876739 -0.0006961514
000200 fe 18 1c b9 5d 29 32 b6 41 30 2f 36 06 28 1f 37
       -0.0001488663 -2.6548144e-06 2.610512e-06 9.486457e-06
000210 cb f5 66 92 0d c8 1c 9d f3 b1 20 a6 e9 b8 7a ad
       -7.2878167e-28 -2.0749852e-21 -5.575232e-16 -1.4251913e-11
000220 e3 bc 16 b3 98 c6 0e b7 87 54 60 b9 a0 f3 34 ba
       -3.5096388e-08 -8.510098e-06 -0.00021393794 -0.0006902758
000230 ed cd 45 ba 31 f1 2d ba 1f 60 6a b9 71 63 80 b7
       -0.0007545639 -0.00066353666 -0.00022351787 -1.5305095e-05

exp_avg_sq f4 [12, 12]
000000 f0 c0 2c 2c e8 24 10 33 86 d0 36 37 df de 7b 39
       2.4549772e-12 3.356118e-08 1.0896596e-05 0.00024020251
000010 90 8d 1f 3a cd 04 ee 39 f4 77 56 38 2e 87 4f 34
       0.0006086463 0.00045398474 5.113329e-05 1.9327555e-07
000020 b5 de 96 34 fe a8 ec 35 37 c6 4b 35 d5 d4 89 34
       2.8101718e-07 1.7632553e-06 7.5911834e-07 2.5673094e-07
000030 00 8e 41 34 dd e4 43 37 f3 75 8c 38 cc d2 87 39
       1.8026185e-07 1.1676192e-05 6.69769e-05 0.00025906262
000040 21 86 2f 39 5b 04 3b 36 ff 93 4b 30 11 c7 5c 2c
       0.00016739267 2.7867707e-06 7.4061285e-10 3.1374384e-12
000050 ba e1 d8 31 fb 2c 51 34 e1 b7 70 34 b0 72 c8 33
       6.3120895e-09 1.9481006e-07 2.2418637e-07 9.334087e-08
000060 00 00 00 00 00 00 00 00 00 00 00 00 00 00 00 00
       0.0 0.0 0.0 0.0
000070 00 00 00 00 00 00 00 00 00 00 00 00 00 00 00 00
       0.0 0.0 0.0 0.0
000080 00 00 00 00 00 00 00 00 00 00 00 00 00 00 00 00
       0.0 0.0 0.0 0.0
000090 28 a8 e7 33 d8 a3 1c 37 02 8e ab 38 e5 ef 94 38
       1.0787363e-07 9.336472e-06 8.1803664e-05 7.101874e-05
0000a0 62 17 f6 36 a2 5a e0 38 00 82 b5 39 f2 00 82 38
       7.3340934e-06 0.00010698034 0.00034619868 6.199059e-05
0000b0 f9 9d 4f 37 54 e4 8f 35 73 16 20 35 24 76 96 34
       1.2374942e-05 1.0720782e-06 5.963731e-07 2.8025636e-07
0000c0 7d c6 68 32 6c 00 84 34 6b b0 1a 33 2a 24 85 37
       1.3549308e-08 2.4587223e-07 3.601637e-08 1.5871676e-05
0000d0 ba 02 73 39 9c 59 ba 38 36 c3 8f 38 30 23 76 38
       0.00023175302 8.885862e-05 6.855132e-05 5.868374e-05
0000e0 68 14 02 37 30 02 39 35 65 fc c2 33 7a ff 04 33
       7.753355e-06 6.8921054e-07 9.079739e-08 3.0966e-08
0000f0 4c e4 24 33 44 1c 34 36 ed e6 c0 37 e8 16 c8 38
       3.839186e-08 2.6838543e-06 2.2995717e-05 9.54101e-05
000100 a5 7e 25 39 00 b9 19 39 40 2d 98 38 39 4d fb 37
       0.00015782805 0.00014660135 7.256353e-05 2.9957491e-05
000110 c1 80 76 37 dd c6 f5 35 04 76 76 34 ea 50 eb 32
       1.46927205e-05 1.8311799e-06 2.2953469e-07 2.7394396e-08
000120 be 35 a9 33 25 95 86 37 5e cd d3 38 b2 1c 59 37
       7.8794514e-08 1.6043496e-05 0.00010099517 1.2940889e-05
000130 de e8 a0 32 6f 32 8d 2a ba f5 0b 1f f0 d8 1a 10
       1.8732347e-08 2.5081627e-13 2.9637655e-20 3.0538267e-29
000140 7f f9 02 00 00 00 00 00 00 00 00 00 00 00 00 00
       2.73173e-40 0.0 0.0 0.0
000150 22 5f e2 33 1f 9f 89 36 42 d7 97 36 b0 6f ab 38
       1.054125e-07 4.1014423e-06 4.52521e-06 8.174719e-05
000160 20 cf 38 39 14 66 ca 37 7e ca 37 38 75 64 0f 38
       0.00017624767 2.412781e-05 4.3819186e-05 3.4187415e-05
000170 30 84 2d 37 b1 be f1 35 ac 50 a9 34 14 1a d6 33
       1.0342381e-05 1.8011398e-06 3.15374e-07 9.969895e-08
000180 b7 0c bd 2a 0d c6 02 32 2c 33 21 36 26 5c 0b 38
       3.3581967e-13 7.6120275e-09 2.4020655e-06 3.3226002e-05
000190 82 79 53 37 3d cb 84 33 56 ac 6d 2c f0 22 0c 22
       1.2604871e-05 6.183698e-08 3.3775391e-12 1.8992034e-18
0001a0 39 78 4d 14 2c 3d 34 03 00 00 00 00 00 00 00 00
       1.0373565e-26 5.2967468e-37 0.0 0.0
0001b0 00 00 00 00 00 00 00 00 00 00 00 00 00 00 00 00
       0.0 0.0 0.0 0.0
0001c0 00 00 00 00 00 00 00 00 00 00 00 00 00 00 00 00
       0.0 0.0 0.0 0.0
0001d0 00 00 00 00 00 00 00 00 00 00 00 00 00 00 00 00
       0.0 0.0 0.0 0.0
0001e0 48 5f 31 34 b1 6c c8 36 93 94 06 36 1f 93 de 34
       1.6519073e-07 5.973118e-06 2.0054038e-06 4.1457767e-07
0001f0 d6 8f cf 38 84 eb 5d 3a e3 78 f8 39 94 0f 59 38
       9.897321e-05 0.00084655755 0.00047392314 5.175134e-05
000200 d4 13 23 35 25 9e 50 2f ce f0 75 32 2a ee 5b 34
       6.0751086e-07 1.8973674e-10 1.431563e-08 2.0482608e-07
000210 00 00 00 00 b6 67 04 00 57 1a 01 10 8c 74 8a 1e
       0.0 4.04546e-40 2.5461056e-29 1.4659521e-20
000220 f1 ec b2 29 3f b9 92 31 c1 98 2a 36 de 1b c4 37
       7.945891e-14 4.2702193e-09 2.5420889e-06 2.3377997e-05
000230 c7 e8 47 37 81 47 04 36 0a a3 33 34 c4 53 8e 30
       1.1915522e-05 1.9711154e-06 1.6729987e-07 1.0355667e-09

exp_avg f4 [24, 12]
000000 ce 52 27 ba 15 e3 c5 b9 00 00 00 00 e6 d4 84 b9
       -0.00063828833 -0.00037743957 0.0 -0.00025335624
000010 5c 84 43 39 b8 11 82 b9 91 68 f8 b6 ac 4b 09 39
       0.00018645957 -0.00024808734 -7.403149e-06 0.00013093528
000020 52 53 2d b8 00 00 00 00 9e 0c 8e b9 72 69 09 39
       -4.1324012e-05 0.0 -0.0002709375 0.0001310462
000030 66 e3 dc 3a 27 05 83 3a 00 00 00 00 da 55 77 3a
       0.0016852438 0.0009996042 0.0 0.0009435095
000040 ec d4 82 38 3b 78 92 3a 24 d7 e3 36 ee a4 7d 39
       6.238543e-05 0.0011174747 6.790173e-06 0.00024189401
000050 46 29 68 39 00 00 00 00 30 ad 22 3a 31 fa ea b7
       0.0002214062 0.0 0.00062056165 -2.8011478e-05
000060 7f 38 54 38 29 39 fc b8 00 00 00 00 89 20 13 b9
       5.0597355e-05 -0.00012026943 0.0 -0.00014031133
000070 19 d3 8a 37 e8 e8 aa b8 4e 63 3b b6 91 d4 76 37
       1.6549182e-05 -8.149614e-05 -2.7922974e-06 1.4712235e-05
000080 e9 67 cb 37 00 00 00 00 95 71 f8 b7 04 26 54 36
       2.4247873e-05 0.0 -2.9616795e-05 3.161259e-06
000090 e1 15 f6 3a c1 17 5f 3a 00 00 00 00 e2 c3 81 3a
       0.0018774831 0.00085103145 0.0 0.0009900297
0000a0 51 ee 19 38 e8 f5 a9 3a ed 22 6c 34 60 4e cb 38
       3.6699992e-05 0.0012966963 2.1991919e-07 9.694393e-05
0000b0 53 ce 4e 39 00 00 00 00 56 59 9e 3a 69 c4 43 b8
       0.00019722553 0.0 0.0012081068 -4.6674544e-05
0000c0 3e 37 b8 3a 9b 6c 7e 3a 00 00 00 00 86 0a 8f 3a
       0.0014054549 0.00097055145 0.0 0.001091317
0000d0 f8 ee 73 b9 4b 61 72 3a 28 dd 0d 37 85 3b 0e b9
       -0.00023263309 0.0009246065 8.455747e-06 -0.00013564348
0000e0 71 95 42 39 00 00 00 00 77 af 6b 3a 8d 2d 9b b9
       0.00018556953 0.0 0.0008990685 -0.00029597842
0000f0 aa b2 39 39 76 a4 07 ba 00 00 00 00 0f 1d 3c ba
       0.00017709532 -0.0005174348 0.0 -0.0007175961
000100 54 ec 44 38 43 37 dd b9 e1 53 8c b7 7e 34 33 39
       4.695014e-05 -0.00042193578 -1.672836e-05 0.00017090325
000110 f2 af 24 38 00 00 00 00 18 c4 4b b9 e3 fb 8b 38
       3.926451e-05 0.0 -0.00019432639 6.674954e-05
000120 1e 1d 46 bb 8b 82 ba b9 00 00 00 00 2c 49 34 3b
       -0.0030229758 -0.00035573947 0.0 0.0027509434
000130 49 22 2f 3b 61 92 27 3b f0 2a a1 b7 0e 9a b8 3a
       0.0026723316 0.0025569426 -1.921269e-05 0.0014083998
000140 95 5a 4b b9 00 00 00 00 be ac 2e 3a 63 66 aa 3a
       -0.00019393333 0.0 0.0006663314 0.0013000484
000150 1a 75 d5 ba 85 66 ea b9 00 00 00 00 d3 1c b8 b9
       -0.0016285509 -0.0004470834 0.0 -0.0003511669
000160 ee ca 84 3a 66 57 89 b9 45 be d1 36 5e 15 70 3a
       0.0010131279 -0.00026195793 6.2508357e-06 0.00091584574
000170 18 0c b0 b8 00 00 00 00 f2 f9 b6 ba 1a d2 40 3a
       -8.3945866e-05 0.0 -0.0013959988 0.00073555263
000180 c3 6a a0 3a de 18 01 3a 00 00 00 00 a6 51 db 39
       0.0012238849 0.0004924665 0.0 0.00041831768
000190 1c d1 2c 39 58 91 2f 3a ec 66 78 36 ee ed c6 39
       0.00016481098 0.0006697378 3.7014788e-06 0.00037942774
0001a0 cc c0 03 39 00 00 00 00 a3 32 b9 39 68 9d 8a 38
       0.00012564956 0.0 0.00035323677 6.609672e-05
0001b0 5e 55 ce ba 7d c7 93 ba 00 00 00 00 55 25 6e ba
       -0.0015741994 -0.0011274662 0.0 -0.00090845424
0001c0 68 b3 4a 37 0c 1e 55 ba 07 d4 c7 b6 27 cc 99 b9
       1.20819095e-05 -0.00081297825 -5.9553454e-06 -0.0002933454
0001d0 71 65 55 b9 00 00 00 00 88 9d c2 b9 f4 92 23 38
       -0.00020351053 0.0 -0.00037119933 3.899909e-05
0001e0 0e aa 00 3b 02 40 30 3a 00 00 00 00 c8 e5 57 3a
       0.001963261 0.0006723405 0.0 0.0008235839
0001f0 d0 d2 27 b9 f5 27 84 3a a0 19 92 37 22 b2 3e 3a
       -0.00016004895 0.0010082709 1.7416489e-05 0.00072744687
000200 ef 11 2b 39 00 00 00 00 bf 19 9c 3a 3b 46 20 b9
       0.00016314512 0.0 0.0011909528 -0.00015284952
000210 2a 09 49 bb dd 40 95 ba 00 00 00 00 2c 2f 04 39
       -0.0030675628 -0.0011387129 0.0 0.00012606074
000220 36 9c 6a 3a e3 6f 28 b9 d1 de ee b6 6d 8a 71 38
       0.0008949669 -0.0001606341 -7.118892e-06 5.7587797e-05
000230 c3 63 ad b9 00 00 00 00 13 24 05 ba ac 82 0e 3a
       -0.0003307146 0.0 -0.0005078923 0.0005436342
000240 97 ea 63 3b 7d f9 d0 3a 00 00 00 00 07 49 27 3a
       0.0034777278 0.0015943494 0.0 0.00063814264
000250 27 4e ba ba 5e 8f 31 3a b8 14 a8 37 eb d7 d0 b9
       -0.0014213965 0.00067733775 2.0036809e-05 -0.00039833723
000260 b1 a8 71 39 00 00 00 00 a9 ed d4 3a 5e de 50 ba
       0.00023046393 0.0 0.0016245145 -0.00079677056
000270 95 74 06 bb 23 b5 51 ba 00 00 00 00 b5 53 00 3a
       -0.0020516266 -0.0007999709 0.0 0.0004895286
000280 e2 18 46 3a bd c4 8c 39 0f 90 6b b7 62 9a 32 39
       0.00075568084 0.00026849462 -1.4040633e-05 0.00017032915
000290 94 21 ed b8 00 00 00 00 36 15 e1 38 6e 62 93 39
       -0.00011307295 0.0 0.00010732787 0.0002811136
0002a0 67 47 93 3b 6f 2b 99 3a 00 00 00 00 cd 6e 67 37
       0.004494596 0.0011685918 0.0 1.3794471e-05
0002b0 26 f9 92 ba 21 4d 59 3a fa dd 75 37 01 6b c2 b9
       -0.0011213168 0.0008289386 1.4654821e-05 -0.00037082288
0002c0 52 03 41 39 00 00 00 00 1d 28 dc 3a 21 a0 0f ba
       0.00018407151 0.0 0.0016796623 -0.0005478878
0002d0 f1 19 f5 3a 7a ca 14 3a 00 00 00 00 8d cc 9f b9
       0.0018699748 0.00056759233 0.0 -0.00030479245
0002e0 84 38 ea b8 9e 35 19 39 f7 19 91 37 77 86 8c 39
       -0.00011168516 0.00014611191 1.7297438e-05 0.00026803065
0002f0 7f b1 53 39 00 00 00 00 36 99 44 b9 51 c7 08 38
       0.0002018865 0.0 -0.00018749092 3.2610555e-05
000300 36 d1 b8 3a 89 9f b9 3a 00 00 00 00 0a 90 a4 3a
       0.0014100436 0.0014161925 0.0 0.0012555134
000310 a5 94 09 38 6c 5e 8b 3a 13 8c ed 37 06 9f 47 39
       3.280178e-05 0.0010632998 2.8317829e-05 0.0001903736
000320 d6 d1 80 39 00 00 00 00 23 3a 80 39 bb 55 26 b8
       0.00024570402 0.0 0.00024457378 -3.9657327e-05
000330 10 d5 a0 3b 84 4f 53 3b 00 00 00 00 5d 7f 36 3b
       0.0049082115 0.003224344 0.0 0.002784691
000340 ca 02 e3 ba 69 d2 1a 3b 4b cd e1 37 25 d4 61 ba
       -0.0017319557 0.002362395 2.6917687e-05 -0.0008614681
000350 7b c2 0e 3a 00 00 00 00 98 21 5d 3b b2 6a a8 ba
       0.000544585 0.0 0.0033741947 -0.001284918
000360 c3 75 40 3b 29 05 bb 3a 00 00 00 00 cc d3 34 3a
       0.0029367066 0.0014268506 0.0 0.0006898015
000370 27 df 82 b9 db b6 79 3a bd a9 cb 37 21 09 ff 39
       -0.00024961794 0.0009525844 2.4278526e-05 0.00048644192
000380 b9 e2 5d 39 00 00 00 00 56 20 f4 39 0f 81 e5 b8
       0.00021160663 0.0 0.000465634 -0.0001094361
000390 85 1f d2 3a c2 dc 54 3a 00 00 00 00 93 19 b9 3a
       0.0016031122 0.00081200537 0.0 0.0014122002
0003a0 6a 12 51 39 37 c0 b0 3a 9a 1b 63 b6 d0 71 29 b8
       0.00019938653 0.0013485019 -3.3841702e-06 -4.0398736e-05
0003b0 1a 11 65 39 00 00 00 00 10 68 80 3a b6 b5 18 b9
       0.00021845513 0.0 0.0009796638 -0.00014563542
0003c0 9c a3 22 bb c6 54 88 ba 00 00 00 00 77 e1 67 ba
       -0.0024816757 -0.0010401241 0.0 -0.00088455476
0003d0 42 cd a0 b9 10 c8 c0 ba 4e 38 f0 35 d8 bc 4e b9
       -0.00030670507 -0.0014708061 1.789778e-06 -0.0001971604
0003e0 5d 53 6c b9 00 00 00 00 66 9a 61 ba 94 c6 26 b9
       -0.00022537769 0.0 -0.0008606076 -0.0001590497
0003f0 06 fd 61 bb 45 fb 63 ba 00 00 00 00 6d 35 90 b9
       -0.003448309 -0.0008696805 0.0 -0.00027505626

exp_avg_sq f4 [24, 12]
000000 40 5d ef 37 b1 fa d6 36 00 00 00 00 5e e2 15 37
       2.8534443e-05 6.4068813e-06 0.0 8.933797e-06
000010 35 cd 5f 36 86 aa 63 37 a4 61 1e 31 8e ba c7 35
       3.3349036e-06 1.3569957e-05 2.3047528e-09 1.488095e-06
000020 a5 a2 47 34 00 00 00 00 17 1a 9c 36 a1 7a 1c 35
       1.8592489e-07 0.0 4.6521996e-06 5.829298e-07
000030 5f 0a 97 38 f7 d1 af 37 00 00 00 00 31 a3 3e 37
       7.202173e-05 2.0959398e-05 0.0 1.13628785e-05
000040 95 6d ac 35 f5 38 8c 37 ac a4 8e 31 eb 85 8e 35
       1.2846891e-06 1.6715823e-05 4.151465e-09 1.06188e-06
000050 84 67 c2 35 00 00 00 00 8e ae e6 36 4a 1b e8 34
       1.4484253e-06 0.0 6.874855e-06 4.3233223e-07
000060 5f 89 04 35 ab 6e 84 35 00 00 00 00 7d cc e4 34
       4.9373733e-07 9.866975e-07 0.0 4.2617094e-07
000070 cd 66 1a 33 aa f9 33 34 ed cc 61 30 a8 8a 05 33
       3.5949416e-08 1.6761501e-07 8.214574e-10 3.1092583e-08
000080 b5 d1 e4 31 00 00 00 00 b8 f8 0d 35 90 6f 32 32
       6.6595143e-09 0.0 5.2888527e-07 1.038633e-08
000090 0f 34 69 38 37 85 34 37 00 00 00 00 72 47 d2 37
       5.5600012e-05 1.0759853e-05 0.0 2.506722e-05
0000a0 c0 9c 97 36 ab 7f 14 38 c0 f4 9f 30 4e 9d 45 36
       4.518399e-06 3.540485e-05 1.1638335e-09 2.944685e-06
0000b0 8c 77 0a 35 00 00 00 00 bc 2d ea 37 2a d4 81 35
       5.158297e-07 0.0 2.791627e-05 9.672997e-07
0000c0 17 ef 8b 38 70 a9 ac 37 00 00 00 00 a8 2f 07 38
       6.6725705e-05 2.0582898e-05 0.0 3.223089e-05
0000d0 3f ba d0 36 8f fa 19 38 a2 d0 81 31 b8 dd a2 36
       6.220565e-06 3.6711393e-05 3.778113e-09 4.8537877e-06
0000e0 fb 9b 62 35 00 00 00 00 84 92 cf 37 95 25 47 36
       8.441854e-07 0.0 2.474455e-05 2.9675186e-06
0000f0 b5 a1 e6 37 0d d8 0e 37 00 00 00 00 b4 cf 0a 37
       2.7493437e-05 8.514163e-06 0.0 8.273801e-06
000100 5b 3c 23 36 0b dc 3c 37 79 6c 33 32 58 96 0c 36
       2.4324024e-06 1.1256906e-05 1.0443835e-08 2.0949137e-06
000110 ab f7 1b 34 00 00 00 00 bc 8b 82 36 f0 ea 09 35
       1.4525601e-07 0.0 3.890569e-06 5.1378356e-07
000120 7a 24 38 39 b5 bd 1f 38 00 00 00 00 91 71 8a 39
       0.00017561196 3.8085233e-05 0.0 0.00026406025
000130 46 47 2b 39 a4 d7 bb 39 83 68 ac 31 c8 ec b1 38
       0.00016334382 0.00035828084 5.0177404e-09 8.484122e-05
000140 de 0c bc 35 00 00 00 00 8b e1 58 38 a8 64 1f 38
       1.4010836e-06 0.0 5.1708466e-05 3.8002298e-05
000150 57 10 43 39 26 2b 17 38 00 00 00 00 38 be 4b 38
       0.00018602736 3.604139e-05 0.0 4.8576127e-05
000160 5b ea b4 37 1c 8a a0 38 00 fc 88 32 23 fd 10 38
       2.1566802e-05 7.6551194e-05 1.594708e-08 3.4568027e-05
000170 2c a1 00 36 00 00 00 00 59 f5 27 38 9c da f4 36
       1.91673e-06 0.0 4.00444e-05 7.297216e-06
000180 9d 6b 8c 38 c4 c2 8e 37 00 00 00 00 83 7e 47 37
       6.695765e-05 1.7018414e-05 0.0 1.189078e-05
000190 2e f1 dd 36 0c f6 a0 37 f9 94 85 31 5b de 19 36
       6.6143903e-06 1.918806e-05 3.8877457e-09 2.2928205e-06
0001a0 a5 55 05 35 00 00 00 00 cb b0 d1 36 2b 69 c1 35
       4.967099e-07 0.0 6.249267e-06 1.4410228e-06
0001b0 c6 fe 66 38 9b 4d 8e 37 00 00 00 00 8a bb bc 36
       5.507355e-05 1.6963857e-05 0.0 5.624669e-06
0001c0 8a bb fa 34 a2 79 0b 37 5f 2f 29 30 2d 64 b2 35
       4.670258e-07 8.3133655e-06 6.154916e-10 1.3291188e-06
0001d0 b0 dd a4 35 00 00 00 00 95 b6 ec 35 3d 14 0c 34
       1.2283472e-06 0.0 1.7636509e-06 1.3045879e-07
0001e0 03 6b 90 39 9b af 3c 38 00 00 00 00 9f b1 0d 39
       0.0002754555 4.498624e-05 0.0 0.00013512977
0001f0 f3 55 98 38 49 f6 4a 39 8c b9 6a 32 80 75 f4 37
       7.263934e-05 0.0001935597 1.3662781e-08 2.9141782e-05
000200 7d f5 f4 35 00 00 00 00 58 f3 b5 38 ba f9 c0 37
       1.8250863e-06 0.0 8.676079e-05 2.3004472e-05
000210 08 d5 0a 3a e7 23 ca 38 00 00 00 00 eb c5 35 39
       0.00052960264 9.638798e-05 0.0 0.00017335235
000220 da df 51 38 5d e3 8f 39 72 12 65 32 17 4a 04 38
       5.003796e-05 0.00027444484 1.3333748e-08 3.1540254e-05
000230 bb 2e 84 36 00 00 00 00 94 84 bc 38 bc 1b 42 37
       3.9393467e-06 0.0 8.989233e-05 1.15697585e-05
000240 23 c6 50 39 69 e3 33 38 00 00 00 00 f0 30 0b 39
       0.00019910237 4.2888718e-05 0.0 0.00013274304
000250 c1 d0 c6 38 db 7a 67 39 d0 71 33 32 89 1d 7c 38
       9.480259e-05 0.00022075644 1.0445049e-08 6.010899e-05
000260 f9 ad 0a 36 00 00 00 00 d4 5c 8b 38 12 bd e2 37
       2.0664868e-06 0.0 6.645327e-05 2.7029342e-05
000270 24 df bf 38 32 7c 7d 37 00 00 00 00 6f 1e 16 38
       9.149153e-05 1.5108892e-05 0.0 3.579113e-05
000280 88 b5 eb 37 2a 59 35 38 7e bc 9f 31 18 a6 92 36
       2.8098715e-05 4.3236803e-05 4.648938e-09 4.370475e-06
000290 87 20 11 35 00 00 00 00 e0 92 43 37 9f 13 8f 36
       5.4064043e-07 0.0 1.1657103e-05 4.2640163e-06
0002a0 3d 80 e0 39 e8 f2 a6 38 00 00 00 00 5d 88 0e 39
       0.00042820154 7.960742e-05 0.0 0.00013592975
0002b0 c1 e3 ab 38 97 94 51 39 f5 66 93 32 4a 30 ff 37
       8.196338e-05 0.00019987147 1.7159872e-08 3.0420855e-05
0002c0 ab b6 69 36 00 00 00 00 7c e9 84 38 86 be 69 37
       3.4826032e-06 0.0 6.33774e-05 1.3932242e-05
0002d0 1b 01 9a 38 93 94 eb 36 00 00 00 00 4e a0 f1 37
       7.343498e-05 7.020842e-06 0.0 2.8804086e-05
0002e0 66 ba 0f 37 5a 99 dd 37 da e8 2f 31 18 2f 2d 36
       8.5668635e-06 2.6416663e-05 2.5598212e-09 2.580642e-06
0002f0 09 05 27 35 00 00 00 00 70 ae 09 37 43 42 7f 35
       6.2219675e-07 0.0 8.206451e-06 9.5091326e-07
000300 cc ac 23 38 21 08 74 38 00 00 00 00 5f af 01 38
       3.9023158e-05 5.8181704e-05 0.0 3.0919324e-05
000310 46 a1 9c 36 ec 43 94 37 0d 44 2a 33 af 91 27 36
       4.667937e-06 1.7674603e-05 3.96431e-08 2.4969738e-06
000320 33 eb 11 36 00 00 00 00 7b 2b 8d 36 b8 d9 ae 35
       2.1743588e-06 0.0 4.2071892e-06 1.3027375e-06
000330 d1 9c 0a 3a 7f a3 52 39 00 00 00 00 c3 d2 e9 39
       0.00052876497 0.00020088068 0.0 0.00044598253
000340 a1 4a 4c 38 54 78 d6 39 e2 33 c4 32 16 3e 56 38
       4.8706894e-05 0.00040906912 2.2840997e-08 5.1079398e-05
000350 54 21 ab 36 00 00 00 00 ea 7f 7d 39 0f 56 a0 37
       5.100077e-06 0.0 0.00024175612 1.911356e-05
000360 8e 00 48 38 7e 76 5a 37 00 00 00 00 00 1f 51 37
       4.7684232e-05 1.3021401e-05 0.0 1.24645885e-05
000370 0d fe 66 36 6c f8 9f 37 19 2e 83 31 7f dd 2d 36
       3.4420548e-06 1.9069957e-05 3.8178425e-09 2.5907937e-06
000380 d6 57 b4 34 00 00 00 00 df ec ba 36 16 f3 e8 34
       3.3591522e-07 0.0 5.5708074e-06 4.3390236e-07
000390 8e ad 8d 38 56 c3 a0 37 00 00 00 00 e7 48 87 38
       6.755731e-05 1.9164447e-05 0.0 6.450881e-05
0003a0 31 7f 97 37 f5 5f b3 38 7a f5 6d 31 ba 0d 3e 37
       1.805983e-05 8.5532585e-05 3.4627576e-09 1.13280785e-05
0003b0 9a ac 96 35 00 00 00 00 0e 52 0b 38 7c 20 8f 36
       1.1226105e-06 0.0 3.3216602e-05 4.265514e-06
0003c0 02 3c ca 39 56 59 80 38 00 00 00 00 65 d8 ea 38
       0.00038573152 6.120156e-05 0.0 0.00011198296
0003d0 3d 08 94 37 46 1e 3e 39 65 ae c7 31 29 99 ae 37
       1.7646811e-05 0.0001813109 5.8114886e-09 2.0813737e-05
0003e0 3a 41 70 36 00 00 00 00 16 65 9c 38 d4 c3 38 36
       3.5800754e-06 0.0 7.4574884e-05 2.7532124e-06
0003f0 94 05 7d 39 00 f5 8a 38 00 00 00 00 6b c6 23 38
       0.00024130038 6.6259876e-05 0.0 3.904702e-05

exp_avg f4 [12]
000000 0d b5 c0 3b d0 6a 89 bb 00 00 00 00 e6 bf e6 bb
       0.005880958 -0.0041936412 0.0 -0.007041919
000010 4e 3f a3 b8 78 6e 84 b9 28 c3 12 3b ae 3f d1 b9
       -7.784237e-05 -0.00025259308 0.0022394154 -0.00039911031
000020 5c de 36 b9 00 00 00 00 17 05 9d 3b 3b 4d cf ba
       -0.00017439708 0.0 0.0047918665 -0.0015815863

exp_avg_sq f4 [12]
000000 ae 3a f9 3a b1 18 30 3a 00 00 00 00 31 f4 8f 3a
       0.001901468 0.00067175465 0.0 0.0010982809
000010 37 b1 0f 3a 54 7c 86 3a f4 40 01 39 b5 0e 1d 3a
       0.0005481424 0.0010260441 0.00012326596 0.0005991266
000020 44 d9 3a 38 00 00 00 00 b8 dd ef 3a 7f 3d 32 38
       4.45482e-05 0.0 0.001830033 4.249578e-05

exp_avg f4 [24]
000000 b4 ca 04 ba 1b f1 b8 3a c4 79 56 b8 70 90 e3 3a
       -0.00050656055 0.0014109941 -5.113498e-05 0.0017361771
000010 5a b6 a9 3a 6a f1 8c b9 6b a9 c8 b8 d6 d4 a5 ba
       0.0012948022 -0.00026882748 -9.5683e-05 -0.0012651931
000020 66 b1 6b 3a a9 ce 9f ba 3f e5 cd 3a 85 45 c5 ba
       0.0008990973 -0.0012192327 0.001570858 -0.0015050626
000030 6d dd 20 3b 5e 0c 67 ba b4 57 42 3b 88 6a 54 3a
       0.0024546043 -0.00088137935 0.0029654326 0.00081030326
000040 87 17 9f 3a 5f 9b 8f 3b 16 df fa 3a 53 26 c6 3a
       0.0012137749 0.0043825353 0.0019139971 0.0015117623
000050 fa 1e 06 bb 01 a8 17 bb 22 52 5d 3b d6 7d 3b 3a
       -0.002046524 -0.002314091 0.0033770879 0.0007152235

exp_avg_sq f4 [24]
000000 e1 4e 90 37 5d f4 17 38 d6 e2 70 34 be 08 51 38
       1.7202869e-05 3.6228786e-05 2.2434264e-07 4.9837625e-05
000010 95 28 66 38 24 1f 70 37 13 94 36 39 f1 30 c1 38
       5.4874068e-05 1.4312365e-05 0.00017412035 9.212073e-05
000020 b4 8c fa 37 3c b8 c0 37 55 59 52 39 2a 27 af 39
       2.9867842e-05 2.2973974e-05 0.0002006044 0.0003340778
000030 83 be 30 39 c9 db bc 37 c1 49 6b 39 04 ba ea 37
       0.00016855639 2.2513692e-05 0.00022438822 2.7981594e-05
000040 b5 0b c6 37 eb 18 01 3a 0a 12 e4 37 00 41 99 38
       2.360889e-05 0.00049246725 2.7188118e-05 7.307716e-05
000050 60 c2 85 39 52 33 ca 38 4a 62 91 39 ad bb 9e 37
       0.00025512557 9.64167e-05 0.00027729786 1.8922461e-05

exp_avg f4 [12, 12]
000000 56 2d 49 33 21 64 97 37 e5 fd 5e 3a b5 71 c4 3b
       4.6840192e-08 1.8047229e-05 0.0008506461 0.0059950002
000010 d8 7d 4b 3c ce 27 32 3c 01 71 eb 3a 49 e1 ab 37
       0.01242014 0.010873748 0.0017962755 2.0489695e-05
000020 a7 66 49 b9 0d 0e dc b9 00 05 af b9 cb ba 06 b9
       -0.00019207095 -0.0004197214 -0.00033382326 -0.00012848822
000030 94 d7 e0 36 9f d4 83 39 5d 3e 6c 3a a9 f5 32 3a
       6.700817e-06 0.00025144682 0.00090119784 0.00068267673
000040 20 dc 68 3b c3 36 7e 3b b9 af 81 3a 96 17 8c b8
       0.0035531595 0.0038789965 0.0009894288 -6.6801134e-05
000050 56 a2 3f b7 f8 fb bd b3 7c a2 8e ae 9f 15 a9 a7
       -1.1422284e-05 -8.846831e-08 -6.4862754e-11 -4.6930364e-15
000060 75 ee ed b7 a4 98 96 39 f5 46 a1 3a 20 e8 f5 38
       -2.8363642e-05 0.00028723956 0.0012304472 0.00011725747
000070 67 4b a6 3a ac 87 06 3a 83 e0 13 ba 1b 88 62 37
       0.0012687267 0.0005131911 -0.000564106 1.3502339e-05
000080 d1 23 86 b9 5d 28 75 b9 45 db 2c b9 57 46 a3 b8
       -0.00025585157 -0.00023380057 -0.00016484883 -7.7855475e-05
000090 0d 60 49 b9 c8 ae a5 ba 86 f1 2c ba d8 2f 5f 3b
       -0.00019204635 -0.001264059 -0.0006597269 0.0034055617
0000a0 39 3d 8a 3b e1 36 ca 3a 94 3d a7 38 ff 3d 05 b9
       0.004218724 0.0015427732 7.97465e-05 -0.00012706964
0000b0 99 43 68 b9 9e 10 97 b8 3a f0 a0 36 c4 a8 b5 b7
       -0.00022150426 -7.203336e-05 4.7963376e-06 -2.1655469e-05
0000c0 00 00 00 00 00 00 00 00 00 00 00 00 00 00 00 00
       0.0 0.0 0.0 0.0
0000d0 00 00 00 00 00 00 00 00 00 00 00 00 00 00 00 00
       0.0 0.0 0.0 0.0
0000e0 00 00 00 00 00 00 00 00 00 00 00 00 00 00 00 00
       0.0 0.0 0.0 0.0
0000f0 00 00 00 00 00 00 00 00 00 00 00 00 00 00 00 00
       0.0 0.0 0.0 0.0
000100 00 00 00 00 00 00 00 00 00 00 00 00 00 00 00 00
       0.0 0.0 0.0 0.0
000110 00 00 00 00 00 00 00 00 00 00 00 00 00 00 00 00
       0.0 0.0 0.0 0.0
000120 04 ac 58 b5 e8 45 ac b8 df f1 6a ba 70 8c 90 ba
       -8.0716586e-07 -8.21462e-05 -0.0008962433 -0.0011028182
000130 8a f0 82 b9 f5 d7 eb ba b9 94 aa bb 68 ed 31 bb
       -0.00024974748 -0.0017993437 -0.0052057174 -0.0027149562
000140 db 97 53 b9 d7 51 95 b8 53 76 5a b9 eb 30 0f b9
       -0.00020179099 -7.1201175e-05 -0.0002083418 -0.00013655766
000150 27 24 7d 38 9b fa 76 b9 71 d6 51 ba 8b 63 ab 3b
       6.035357e-05 -0.00023553746 -0.00080046715 0.0052303723
000160 6f 75 da 3b 24 94 ef 3b 39 74 13 3a bd 7e c3 b9
       0.006666831 0.007311361 0.00056249235 -0.00037287726
000170 4c 2f 14 b9 c1 60 05 38 17 ab 6a 39 31 79 4b 39
       -0.00014132 3.179978e-05 0.00022379715 0.00019404736
000180 f4 e7 6b af 73 e1 a9 b4 58 cb 57 b8 86 83 6d ba
       -2.1455532e-10 -3.164274e-07 -5.1449373e-05 -0.0009060431
000190 66 57 94 ba 00 2f c0 39 34 5e 4a 38 3a b2 03 37
       -0.0011317551 0.00036656111 4.8248286e-05 7.849705e-06
0001a0 9b ef bb 38 07 57 bf 37 46 12 ad b8 79 f4 a4 b8
       8.961485e-05 2.28095e-05 -8.2526865e-05 -7.865666e-05
0001b0 fe 3f 8d b8 e9 af 42 b9 05 fe 83 3b 95 b9 e9 3b
       -6.7353234e-05 -0.00018566813 0.004028084 0.007132719
0001c0 d9 64 c7 3a d6 c3 18 38 fe 9c bc 33 d0 16 de b1
       0.001521255 3.642201e-05 8.782989e-08 -6.463644e-09
0001d0 7a 8c 1d b6 c3 20 c6 b8 5f 30 04 ba e4 c2 11 ba
       -2.3476591e-06 -9.447478e-05 -0.0005042608 -0.0005560352
0001e0 62 6e 66 b9 c8 b5 06 bb b1 dd a1 bb db 47 28 bb
       -0.0002197563 -0.0020555127 -0.0049397578 -0.0025677595
0001f0 7b 9b 84 bb 23 d2 db bb 18 f0 66 bb 00 d0 c2 b9
       -0.004046855 -0.0067084 -0.0035238322 -0.00037157536
000200 62 b8 23 b9 ba 85 24 b8 fd e2 d5 b5 9f 85 01 b5
       -0.0001561358 -3.922519e-05 -1.5935799e-06 -4.825069e-07
000210 04 87 97 38 e3 5a ab 39 0b c3 0e 39 63 a1 af 36
       7.22539e-05 0.00032683378 0.00013614834 5.2341943e-06
000220 66 57 79 36 07 f8 60 39 84 17 ad 3a 9b 6d 64 3a
       3.7154764e-06 0.00021454702 0.0013205861 0.0008713842
000230 57 cb 42 39 dc ec b3 37 3c 64 20 b8 ec 3e 04 b9
       0.00018577032 2.1448759e-05 -3.8240323e-05 -0.00012611941

exp_avg_sq f4 [12, 12]
000000 e2 97 b5 2a 10 e3 85 32 e3 ab 4e 37 06 16 05 3a
       3.225745e-13 1.5586494e-08 1.2318577e-05 0.0005076829
000010 da 52 00 3b 80 7e b5 3a ff 7e 32 38 b1 2b 1e 33
       0.0019580633 0.0013846904 4.255678e-05 3.682698e-08
000020 c6 60 60 35 00 e5 01 36 4f 01 9a 35 27 3f 98 34
       8.3587327e-07 1.9355793e-06 1.1474275e-06 2.8358156e-07
000030 c4 cb ee 31 ad 4c 7c 37 6f 7b 04 3a 5d b6 12 3a
       6.949877e-09 1.5038223e-05 0.00050537934 0.0005596632
000040 ab 9e dc 3a 25 c7 3d 3b 05 2d 3e 3b 1c 91 59 39
       0.0016831955 0.002895781 0.0029018533 0.0002074879
000050 4b bf d4 34 d3 72 55 2d 29 23 a1 22 a5 a1 9e 14
       3.962726e-07 1.2133144e-11 4.3676365e-18 1.601768e-26
000060 be ff df 35 64 f0 8f 38 fc 2b 8e 39 85 38 8b 39
       1.6689226e-06 6.8635476e-05 0.00027117121 0.00026554256
000070 12 12 4c 3a 01 b2 b5 3a 2b 50 2e 3a 54 fd b2 37
       0.0007784675 0.0013862253 0.0006649519 2.1337219e-05
000080 6c 56 b8 36 e0 95 b0 36 66 ae 10 36 b3 7c ad 34
       5.493688e-06 5.2626565e-06 2.1559185e-06 3.2314492e-07
000090 a3 1f 85 35 5e 51 70 38 8d 40 d3 39 ec 86 2d 3a
       9.91848e-07 5.7296238e-05 0.0004029315 0.0006619531
0000a0 d3 bb 3e 3a 08 4e 0f 39 b7 96 10 35 66 43 a6 37
       0.0007275913 0.00013666612 5.38635e-07 1.9820127e-05
0000b0 0b ed d6 37 d1 69 f4 36 2c 2b 2f 36 4f c3 a9 35
       2.562117e-05 7.2840853e-06 2.6102161e-06 1.2648323e-06
0000c0 00 00 00 00 00 00 00 00 00 00 00 00 00 00 00 00
       0.0 0.0 0.0 0.0
0000d0 00 00 00 00 00 00 00 00 00 00 00 00 00 00 00 00
       0.0 0.0 0.0 0.0
0000e0 00 00 00 00 00 00 00 00 00 00 00 00 00 00 00 00
       0.0 0.0 0.0 0.0
0000f0 00 00 00 00 00 00 00 00 00 00 00 00 00 00 00 00
       0.0 0.0 0.0 0.0
000100 00 00 00 00 00 00 00 00 00 00 00 00 00 00 00 00
       0.0 0.0 0.0 0.0
000110 00 00 00 00 00 00 00 00 00 00 00 00 00 00 00 00
       0.0 0.0 0.0 0.0
000120 07 71 86 2d 15 b9 d4 33 3f 3f 4f 37 1a 47 0d 38
       1.528423e-11 9.9056855e-08 1.2352887e-05 3.3683238e-05
000130 31 7e c3 35 b2 9a 64 38 4b 77 86 39 4e 7e 17 38
       1.4565359e-06 5.4503507e-05 0.00025647352 3.6118836e-05
000140 ed 25 1c 34 72 19 b2 33 be 1c 44 35 ec c6 e4 34
       1.454243e-07 8.2933994e-08 7.3057515e-07 4.2613044e-07
000150 49 83 b8 36 5c 12 5b 39 d3 9e f3 39 f3 51 f3 39
       5.498911e-06 0.00020892307 0.00046466905 0.0004640963
000160 29 73 3c 3a 0d 36 80 3a 45 98 1e 3a 9c 2e 53 39
       0.0007188791 0.0009781733 0.00060499116 0.00020139891
000170 09 b6 17 38 a7 42 89 36 a9 50 60 36 e3 be 13 36
       3.617074e-05 4.0906775e-06 3.3425551e-06 2.2015818e-06
000180 a8 1c 65 23 99 70 f7 2d b7 88 23 35 7f e6 27 39
       1.2420183e-17 2.8130652e-11 6.092118e-07 0.00016012228
000190 6c bc 7c 3a 1d 5a 18 39 b7 75 b5 34 d2 3b 75 31
       0.0009641114 0.0001452942 3.3799526e-07 3.5686196e-09
0001a0 2a fd b2 35 d4 bd 5a 37 82 d7 54 37 34 de b1 36
       1.3335714e-06 1.303801e-05 1.26863615e-05 5.300879e-06
0001b0 a2 db 70 36 2d 9f a1 39 85 d4 f7 3a 2c 3c ad 3a
       3.589063e-06 0.00030826908 0.001890794 0.0013216785
0001c0 d8 f3 22 38 39 a7 b2 32 cd 48 10 2a b9 cb 8a 26
       3.8850907e-05 2.0797971e-08 1.2815027e-13 9.630893e-16
0001d0 df dc c6 2e a9 48 d0 33 6d aa e3 35 dd d0 b9 35
       9.043232e-11 9.6989716e-08 1.6962418e-06 1.3844361e-06
0001e0 59 fa 6c 35 52 12 a0 38 37 21 3d 3a 85 7e 75 3a
       8.8281155e-07 7.632807e-05 0.0007214727 0.0009364861
0001f0 a2 20 b9 3a b3 e4 f8 3a 39 6d 95 39 58 36 60 37
       0.0014124105 0.0018989056 0.00028500872 1.3364093e-05
000200 8e aa 18 37 07 66 6e 35 bb a2 2a 31 5d ff 5e 2e
       9.099616e-06 8.881038e-07 2.4830757e-09 5.0703764e-11
000210 d0 af 84 35 77 1a 96 37 a4 aa 3a 36 2a 4c 7e 31
       9.885935e-07 1.7893717e-05 2.7815486e-06 3.700516e-09
000220 4e b2 6f 32 ba 17 65 37 32 d1 77 39 3b 12 79 39
       1.3952173e-08 1.3654988e-05 0.00023633687 0.00023753282
000230 bb 75 f8 37 02 af c0 34 ae ac 02 36 7e 9c 6c 36
       2.9618726e-05 3.5890122e-07 1.9472022e-06 3.525783e-06

exp_avg f4 [24, 12]
000000 3e 81 49 ba b2 e6 3d ba dc 82 df ba 93 f4 83 ba
       -0.00076868 -0.0007244154 -0.0017052549 -0.0010067396
000010 00 00 00 00 00 00 00 00 9c 9a 9e b8 e2 9f b1 ba
       0.0 0.0 -7.562825e-05 -0.0013551677
000020 ae d6 ae b9 d1 95 64 b6 e9 0e 8c ba 14 39 53 b9
       -0.00033347815 -3.4061852e-06 -0.0010685596 -0.00020143791
000030 20 c9 71 3a 10 6d 6c 3a a4 3d 83 3b f3 45 87 3a
       0.00092233904 0.0009018937 0.004005151 0.0010320529
000040 00 00 00 00 00 00 00 00 9e a5 55 39 11 b3 77 3b
       0.0 0.0 0.0002037496 0.003779594
000050 cd 07 68 39 e5 4b b9 39 aa d6 8e 3b 7f b4 98 39
       0.0002212815 0.00035342496 0.004359086 0.0002912618
000060 b8 b4 f5 b9 54 2c fa b9 8b 6c 9c ba 57 cd 30 b9
       -0.00046864687 -0.00047716743 -0.0011934204 -0.00016861163
000070 00 00 00 00 00 00 00 00 22 bc ba b8 a7 b4 35 ba
       0.0 0.0 -8.9042136e-05 -0.00069315213
000080 b3 58 5a b8 f4 90 80 39 08 2a 43 ba 73 77 10 b9
       -5.2057858e-05 0.0002452206 -0.0007444923 -0.00013777408
000090 e4 0d d9 3a c3 8d 67 3a b0 60 b1 3b b2 4d 39 3b
       0.0016559926 0.0008833075 0.0054131374 0.002827507
0000a0 00 00 00 00 00 00 00 00 cc 50 9a 39 ec db 9a 3b
       0.0 0.0 0.00029433367 0.0047259238
0000b0 e1 f8 f1 39 9b 38 58 39 17 3e a7 3b 15 39 05 3a
       0.0004615253 0.00020620452 0.0051038372 0.0005082053
0000c0 7c 9a a6 3a 80 ba 9b 3a be 36 87 3b ca 66 a3 3a
       0.0012710835 0.0011881143 0.004126399 0.0012466547
0000d0 00 00 00 00 00 00 00 00 0f 9f 29 39 e4 20 47 3b
       0.0 0.0 0.0001617635 0.0030384595
0000e0 9d 82 c7 39 58 8c 98 39 42 60 89 3b 97 06 93 38
       0.00038053552 0.00029096263 0.004192383 7.010734e-05
0000f0 78 11 0c ba 2a a1 08 ba 35 db f4 ba 1f 8e 52 ba
       -0.0005343179 -0.00052120036 -0.0018681051 -0.0008032042
000100 00 00 00 00 00 00 00 00 d5 42 c4 38 fb 0d d8 b9
       0.0 0.0 9.358457e-05 -0.00041209147
000110 c1 2a 45 b9 f6 9b 76 b9 f0 4d d6 ba 31 90 99 39
       -0.00018803311 -0.00023518488 -0.0016350131 0.00029289865
000120 e0 89 2f b8 6a 6d 89 b9 3c 65 50 bb b7 1e c0 ba
       -4.1851657e-05 -0.00026212196 -0.0031798622 -0.0014657591
000130 00 00 00 00 00 00 00 00 a0 c5 47 38 7d 46 2e bb
       0.0 0.0 4.762935e-05 -0.0026592307
000140 b8 3c d8 b8 9a d8 0e bb 89 f2 70 bb 7b 7d 18 38
       -0.000103109924 -0.0021796585 -0.0036765656 3.6356487e-05
000150 ec 60 d1 ba cd ee a9 ba 76 1f 9e bb a5 49 59 ba
       -0.001597432 -0.0012964845 -0.004825528 -0.0008288867
000160 00 00 00 00 00 00 00 00 c9 8b 13 b9 fa bb 5a bb
       0.0 0.0 -0.00014071086 -0.0033376203
000170 93 9d ae b9 3f 07 1b 39 eb d6 a3 bb a0 e9 3d b9
       -0.00033305268 0.00014784651 -0.0049999855 -0.00018111477
000180 3b 91 9e ba 4f 9e a6 ba 6a 28 68 bb e4 d5 e5 b9
       -0.0012097725 -0.0012711975 -0.003542448 -0.00043837645
000190 00 00 00 00 00 00 00 00 d9 d3 ae b9 15 16 7a bb
       0.0 0.0 -0.00033345705 -0.0038160135
0001a0 0c 7c 76 b9 9d 4d 5c 39 54 9b 65 bb 09 3e 24 ba
       -0.00023506599 0.00021009748 -0.003503521 -0.00062653475
0001b0 6e d8 0e b9 98 a0 0a b8 c0 35 17 3a e2 d0 65 3a
       -0.00013622802 -3.305133e-05 0.0005768202 0.00087667827
0001c0 00 00 00 00 00 00 00 00 1e 6b 92 38 7e fd b3 3a
       0.0 0.0 6.981775e-05 0.0013732163
0001d0 4d c4 be b8 22 b9 8a 39 a8 d6 88 39 5a 11 82 39
       -9.09647e-05 0.00026459346 0.00026099873 0.0002480846
0001e0 b9 cf ae 39 bd 5d ce b9 5f 23 f5 39 d7 b6 ff 38
       0.00033342632 -0.00039361222 0.00046756395 0.00012193404
0001f0 00 00 00 00 00 00 00 00 d8 aa d3 b7 da 24 a1 ba
       0.0 0.0 -2.5232715e-05 -0.0012294308
000200 84 0a b5 39 9f fc f3 38 36 33 2c 3a 5d af bb b9
       0.00034530845 0.00011634197 0.00065689103 -0.00035798075
000210 0c 4f 35 ba a8 6e e8 b9 ac 59 bf bb 64 6e 6f bb
       -0.0006916381 -0.00044332934 -0.005839547 -0.0036534304
000220 00 00 00 00 00 00 00 00 b0 65 24 b8 88 c0 8e bb
       0.0 0.0 -3.919535e-05 -0.0043564476
000230 f8 08 4d b9 d7 bb 08 bb 66 ca b1 bb ce 21 f8 38
       -0.00019553665 -0.0020863914 -0.005425739 0.00011831858
000240 bb 10 c3 ba dc a1 84 ba 8e 52 25 bb a1 c1 ab ba
       -0.0014882305 -0.0010119039 -0.0025226208 -0.001310397
000250 00 00 00 00 00 00 00 00 e7 66 1a 37 5c 8b 93 ba
       0.0 0.0 9.203074e-06 -0.0011256742
000260 59 bb a2 b9 d8 cb 1a 3a c9 00 b9 ba 92 2d bd b9
       -0.00031038633 0.0005905009 -0.0014114614 -0.00036082842
000270 91 fc 86 3a e4 5f 39 3a e7 20 1f 3b 9b b9 39 3a
       0.0010298659 0.0007071479 0.0024281086 0.00070848473
000280 00 00 00 00 00 00 00 00 fd 62 dc b8 e4 67 86 39
       0.0 0.0 -0.000105088555 0.00025635876
000290 9e 86 b8 39 55 71 85 b9 a4 99 07 3b f2 1a 96 b9
       0.00035195512 -0.00025452176 0.0020690942 -0.00028630305
0002a0 91 c0 63 ba 4f 17 d4 ba 04 d7 0c 3a 35 77 a2 ba
       -0.00086880574 -0.0016181263 0.0005372616 -0.0012395146
0002b0 00 00 00 00 00 00 00 00 57 e3 3b ba 4a 42 37 bb
       0.0 0.0 -0.000716736 -0.0027963095
0002c0 6b ef 20 ba f5 02 8b 3a a0 e4 11 3b 91 8c 93 ba
       -0.00061391917 0.001060574 0.0022261515 -0.0011257102
0002d0 26 d4 d6 3a 3f e4 cd 3a 32 02 ab 3b 87 0f 18 3b
       0.001639013 0.0015708281 0.0052187676 0.0023202614
0002e0 00 00 00 00 00 00 00 00 ab 5c 6d 39 96 c9 8f 3b
       0.0 0.0 0.00022636603 0.0043880446
0002f0 38 7c ac 39 9f 40 b9 b8 5b 9d 83 3b 41 8b 03 3a
       0.00032898947 -8.833524e-05 0.004016561 0.0005018004
000300 8b b8 5a 3b 7c 66 4e 3b 1f 3b 4b 3c 7f 1d a8 3b
       0.0033374156 0.003149419 0.012404232 0.0051304693
000310 00 00 00 00 00 00 00 00 c1 6e 72 39 bb f0 12 3c
       0.0 0.0 0.00023120178 0.008968527
000320 06 8b 0e 3a a3 75 09 3b c6 69 38 3c d9 a4 81 39
       0.0005437586 0.0020974658 0.011255687 0.00024727618
000330 b9 ad c7 ba b3 1d ba ba f9 6b 66 bb c8 e4 37 ba
       -0.0015234269 -0.0014199525 -0.0035159572 -0.0007014987
000340 00 00 00 00 00 00 00 00 3e 54 97 b8 d2 a6 81 ba
       0.0 0.0 -7.2159324e-05 -0.0009891635
000350 5c 22 e3 b7 0e 2e 9a 3a 1d 74 c3 ba 51 0a 75 b9
       -2.7076509e-05 0.0011762993 -0.0014911924 -0.00023368864
000360 7a 8f 04 3a 3f b3 1b 3a 2c 79 7c 3a 68 00 4b b9
       0.000505678 0.00059394905 0.0009631093 -0.0001935974
000370 00 00 00 00 00 00 00 00 85 c3 ea 36 f2 2d 95 ba
       0.0 0.0 6.996505e-06 -0.0011381491
000380 e7 77 c6 b7 54 5a 98 b8 5e 88 44 b9 8c ad 0a b9
       -2.3659273e-05 -7.26475e-05 -0.00018742817 -0.00013225357
000390 8a 46 01 bb 15 cd cd ba 80 4f e3 bb 0b 55 e9 ba
       -0.0019725882 -0.0015701378 -0.0069369674 -0.0017801834
0003a0 00 00 00 00 00 00 00 00 fe 79 8a b9 11 1d c2 bb
       0.0 0.0 -0.00026412302 -0.005923875
0003b0 89 15 31 ba 2e 65 8d ba 90 38 f2 bb 6c 16 1c ba
       -0.0006755223 -0.00107876 -0.0073919967 -0.0005954269
0003c0 d1 d7 b6 3a 73 b0 d2 3a 96 2c 9e 3b 95 b5 d1 3a
       0.0013949816 0.0016074314 0.0048270924 0.001599955
0003d0 00 00 00 00 00 00 00 00 7a 1d 67 39 f0 8b 80 3b
       0.0 0.0 0.00022040858 0.003922932
0003e0 f5 19 83 39 d2 28 81 39 c3 16 84 3b a8 d9 b0 39
       0.00025005607 0.0002463521 0.0040310337 0.00033731502
0003f0 6b f7 b5 ba 7a c3 b7 ba a3 e9 a6 bb d2 69 5c bb
       -0.001388294 -0.0014020049 -0.0050937696 -0.003363241
