Model/epoch50/Model_5/model5.ckpt (torch_old, 286080 bytes, 464 tensors)

exp_avg f4 [72]
0	0x3c22c3da	0.00993439
1	0xbb9aaf26	-0.0047205864
2	0x3cffb0ef	0.031212298
3	0xbb96475e	-0.0045861444
4	0xbafaad3c	-0.0019125114
5	0xbaea9867	-0.0017898203
6	0xbc1a1209	-0.009403714
7	0xbc5733b2	-0.013134884
8	0x3b1524e5	0.0022757587
9	0xbc69cb72	-0.014269697
10	0xbc58a799	-0.013223552
11	0x3ba7b5a8	0.0051180907
12	0xbb7de5d8	-0.0038741734
13	0xbc07358b	-0.008252512
14	0xbc1ee703	-0.009698632
15	0x3abd1bb8	0.0014427816
16	0x3b30103c	0.0026865145
17	0xbbb26b5f	-0.0054449285
18	0xba3fa936	-0.0007311286
19	0x3a698b14	0.0008908969
20	0xbbc83dd4	-0.006110886
21	0xbaecea3f	-0.0018075182
22	0xbbea90bb	-0.0071583665
23	0x3b8acbd1	0.0042357226
24	0x3a24ab34	0.0006281615
25	0xbb9d90f4	-0.0048085395
26	0x3bbd0ff3	0.0057697236
27	0xbc161eb0	-0.00916259
28	0xbba4b58f	-0.0050265263
29	0xbb6a11d7	-0.00357162
30	0xbbde7872	-0.0067892605
31	0x3b18fcb9	0.0023343994
32	0x3aaa839e	0.0013009196
33	0xbc118305	-0.008881335
34	0xbc5eb9ff	-0.01359415
35	0x3b7c83e9	0.0038530773
36	0xbb86c4d9	-0.0041128215
37	0x3b042f0c	0.0020169644
38	0xbb5b0c69	-0.0033424145
39	0x3c20511c	0.009784963
40	0x3bfbf329	0.007688899
41	0x3b264e9e	0.002537645
42	0xbc06141c	-0.008183505
43	0xbc238727	-0.009980953
44	0xbb74fe94	-0.0037383186
45	0x3c161ac0	0.009161651
46	0x3b66b7d3	0.0035204783
47	0x3b6d7972	0.0036235717
48	0xb8c79e4c	-9.5185445e-05
49	0x3afbda6a	0.0019214873
50	0xba838783	-0.0010034892
51	0x3b63bdc3	0.0034750558
52	0xb930e98b	-0.0001687167
53	0x3b7e1fe1	0.0038776326
54	0x3ad1fb80	0.0016020387
55	0x3b4a9b8f	0.0030915474
56	0xbbd7dbaf	-0.0065874676
57	0xbbe016a2	-0.0068386355
58	0x3a0750c6	0.00051618775
59	0xbbb589ee	-0.005540124
60	0x3aa89bce	0.0012863816
61	0x3b001714	0.0019545006
62	0xbb406d02	-0.0029361849
63	0x3be43311	0.0069640954
64	0x3a984dd7	0.0011619878
65	0x3c1d772d	0.009610933
66	0x3bf7aa42	0.007558138
67	0xba6a7fff	-0.00089454645
68	0x3c649ed9	0.013953888
69	0x3a2861cc	0.0006423264
70	0x3c17265d	0.009225455
71	0x3a15e5c4	0.00057181367

exp_avg_sq f4 [72]
0	0x3c0667b2	0.008203434
1	0x39678d54	0.00022082526
2	0x3d1b3e85	0.03790142
3	0x39d39bd8	0.0004036117
4	0x39277c22	0.00015972604
5	0x380d6663	3.3712375e-05
6	0x3ca5dabc	0.020245902
7	0x3c5268c4	0.012842361
8	0x3a4211d2	0.0007403168
9	0x3c3bd720	0.011464864
10	0x3c4dc3fc	0.012558933
11	0x3ad1669e	0.0015976017
12	0x3aceb152	0.0015769398
13	0x3c0fa366	0.008766985
14	0x3b0c5e28	0.0021418426
15	0x3ab5412e	0.0013828629
16	0x3a9b9a91	0.0011871626
17	0x3a5cf911	0.0008429448
18	0x3928b030	0.00016087363
19	0x38a1eb87	7.7209486e-05
20	0x3a884cab	0.0010398825
21	0x39fc1b4e	0.0004808553
22	0x3b79dab5	0.0038124744
23	0x3acfd385	0.0015855884
24	0x3b490d9e	0.0030678282
25	0x3b7024d4	0.0036643045
26	0x3a069614	0.0005134058
27	0x3b2d4e2e	0.0026444304
28	0x3a4aab55	0.0007731219
29	0x3a19fc41	0.00058740756
30	0x3a79fd3f	0.0009536333
31	0x39b34159	0.00034190228
32	0x3a24a218	0.00062802574
33	0x3c08da41	0.008352817
34	0x3c4a763f	0.012357294
35	0x3a03067f	0.00049982214
36	0x39ebc927	0.00044972563
37	0x39fc6d2c	0.00048146525
38	0x3a140e8f	0.00056479214
39	0x3c254a69	0.010088542
40	0x3b99142a	0.004671593
41	0x3a7484da	0.0009327658
42	0x3b385046	0.0028124019
43	0x3b76539c	0.0037586456
44	0x3a2982c3	0.00064663234
45	0x3bcfde0b	0.0063436083
46	0x3a2a6ecb	0.0006501495
47	0x3b100c2e	0.0021979916
48	0x3811c890	3.4757482e-05
49	0x38802260	6.1099185e-05
50	0x391aa94a	0.0001474965
51	0x39604815	0.00021389157
52	0x38aad76e	8.1463586e-05
53	0x39e53687	0.0004371891
54	0x39e16586	0.00042990985
55	0x3a04e050	0.00050688256
56	0x3aaff28c	0.0013423725
57	0x3b5f29af	0.0034051945
58	0x3813bf59	3.5225738e-05
59	0x3ad7f865	0.0016477226
60	0x39fe3c65	0.00048491653
61	0x399b0e51	0.0002957457
62	0x38b86366	8.792318e-05
63	0x3afbff96	0.0019225951
64	0x3933b6cb	0.00017138866
65	0x3b36dc8a	0.0027902448
66	0x3ac02226	0.0014658615
67	0x38897da5	6.556072e-05
68	0x3beb7ad0	0.0071862713
69	0x3ab98a19	0.0014155536
70	0x3b8d0043	0.0043030097
71	0x3a33cabc	0.0006858518

exp_avg f4 [24]
0	0x3d153387	0.036426093
1	0xbc07cc63	-0.008288476
2	0xbca5fe42	-0.020262841
3	0xbcb74c1b	-0.022375157
4	0xbcb2cb03	-0.02182532
5	0xbaac7150	-0.0013156328
6	0xbbc30198	-0.0059511177
7	0xbb9aff7e	-0.004730164
8	0x3ad051a2	0.0015893469
9	0xbc917ef6	-0.017760735
10	0xbb4eb261	-0.0031539428
11	0xbc988e03	-0.018622404
12	0xbbb2338a	-0.005438273
13	0x3ca3ef2b	0.020011505
14	0xbcb36d73	-0.021902775
15	0x3c859389	0.016305702
16	0x3a57b20f	0.0008228132
17	0x3beb6786	0.007183972
18	0xbaf83c24	-0.0018938822
19	0xbc425b3a	-0.01186257
20	0x399fbfdb	0.00030469787
21	0x3c914d38	0.017737016
22	0x3ca8e5fe	0.020617481
23	0x3c2b0ad4	0.010439593

exp_avg_sq f4 [24]
0	0x3d9e907d	0.07742403
1	0x3a84d5b3	0.0010134488
2	0x3d9fb676	0.077984735
3	0x3d0775a4	0.033071175
4	0x3ce02372	0.027360652
5	0x3b6ec862	0.0036435355
6	0x3a815b5f	0.000986915
7	0x3b089d8f	0.0020845865
8	0x3c1b5397	0.009480379
9	0x3c2db725	0.010602747
10	0x3a5f6de7	0.00085231516
11	0x3d0880f0	0.03332609
12	0x3a2db048	0.0006625694
13	0x3d2139a2	0.039361604
14	0x3c920bfe	0.017827984
15	0x3cb77ba1	0.022397818
16	0x39144a3f	0.00014142039
17	0x3a4ddf2b	0.0007853384
18	0x399f2834	0.00030356797
19	0x3c10db5e	0.008841364
20	0x3a9f186e	0.0012138018
21	0x3c41f229	0.011837521
22	0x3c6665c0	0.014062345
23	0x3c4bfb54	0.012450058

exp_avg f4 [12, 12]
0	0x354ebb0b	7.7013163e-07
1	0x3859e55a	5.1950432e-05
2	0x39a8d165	0.00032199468
3	0x3937a7c9	0.00017514745
4	0x3a448d28	0.00074978406
5	0x3b151a45	0.0022751254
6	0x3afffe71	0.0019530786
7	0x39abc017	0.0003275878
8	0x383cee7c	4.50448e-05
9	0x38608b39	5.3535423e-05
10	0x37babb75	2.226022e-05
11	0x3771616b	1.4387401e-05
12	0xb6812be5	-3.8496096e-06
13	0xb7e30680	-2.7063536e-05
14	0x382e4940	4.1553052e-05
15	0xb6df8a5f	-6.6620264e-06
16	0xb9082d8f	-0.00012986943
17	0xb9633adc	-0.00021670334
18	0xb95935fa	-0.0002071484
19	0xb7b5f408	-2.1690517e-05
20	0xb3963664	-6.994813e-08
21	0x3663c535	3.3940426e-06
22	0x371e2fc1	9.428652e-06
23	0x3686fc54	4.022886e-06
24	0x00000000	0.0
25	0x00000000	0.0
26	0x00000000	0.0
27	0x00000000	0.0
28	0x00000000	0.0
29	0x00000000	0.0
30	0x00000000	0.0
31	0x00000000	0.0
32	0x00000000	0.0
33	0x00000000	0.0
34	0x00000000	0.0
35	0x00000000	0.0
36	0xb803f8c3	-3.146451e-05
37	0xb9a2e22b	-0.00031067556
38	0xba20da5b	-0.0006136053
39	0xb9d73ade	-0.00041051855
40	0xb9988235	-0.0002908871
41	0xbad544e7	-0.0016271145
42	0xbb1d262a	-0.0023979046
43	0xbac773b0	-0.0015216973
44	0xba21f863	-0.0006178675
45	0xb9424147	-0.000185256
46	0xb82dd1ea	-4.1441912e-05
47	0xb796d00a	-1.797827e-05
48	0xb182ae6b	-3.803327e-09
49	0xb60dd741	-2.1135932e-06
50	0xb906238b	-0.00012792477
51	0xba7b4623	-0.00095853413
52	0xbaa099f7	-0.0012252916
53	0xb9de0727	-0.0004234847
54	0x380967af	3.275991e-05
55	0x38c75d60	9.506452e-05
56	0x3801ef39	3.097879e-05
57	0xb75de686	-1.3226299e-05
58	0xb48747ff	-2.5198094e-07
59	0x36ae7099	5.198712e-06
60	0x376303c0	1.35311275e-05
61	0x38bc32a9	8.973975e-05
62	0x3985bcac	0.00025508308
63	0x3a52e8fc	0.00080455816
64	0x3a95edc7	0.0011438661
65	0x3a025a85	0.0004972595
66	0xb9de75cd	-0.00042430908
67	0xb9ea206d	-0.00044656117
68	0xb9224a82	-0.0001547728
69	0xb799c5bf	-1.8331104e-05
70	0xb615fa45	-2.2348406e-06
71	0xb69c4c15	-4.6580194e-06
72	0x37b633f1	2.1720278e-05
73	0x39ecfc24	0.00045201287
74	0x3aebd9dc	0.0017994004
75	0x3a5a0a60	0.0008317586
76	0x381aaa81	3.6875255e-05
77	0x3423124b	1.5187213e-07
78	0x2e7e8e97	5.787956e-11
79	0x27131280	2.0410377e-15
80	0x1dfbb0ec	6.662208e-21
81	0x131f8a13	2.0136697e-27
82	0x0695de5f	5.6374316e-35
83	0x0000003b	8.3e-44
84	0x379fc7c5	1.9047302e-05
85	0x391a28cd	0.00014701784
86	0x3a046112	0.0005049865
87	0x3a898cb0	0.0010494199
88	0x3aa4b8e4	0.0012567309
89	0x3a4d15c0	0.00078233704
90	0x39b3d381	0.00034299123
91	0x39db8a01	0.00041873756
92	0x399781d7	0.00028897703
93	0x38fec529	0.00012148388
94	0x38189985	3.63826e-05
95	0x36b5013f	5.3943654e-06
96	0x33470937	4.634168e-08
97	0x3703404e	7.823181e-06
98	0x394d5b72	0.0001958439
99	0x3a584176	0.00082495005
100	0x39ee1f03	0.00045418003
101	0x37df911b	2.6651242e-05
102	0x342717b3	1.5561709e-07
103	0x2ec25642	8.837421e-11
104	0x27adc127	4.822656e-15
105	0x1eecc42d	2.5068608e-20
106	0x14742dbf	1.2327874e-26
107	0x083d980d	5.7053854e-34
108	0x00000000	0.0
109	0x00000000	0.0
110	0x00000000	0.0
111	0x00000000	0.0
112	0x00000000	0.0
113	0x00000000	0.0
114	0x00000000	0.0
115	0x00000000	0.0
116	0x00000000	0.0
117	0x00000000	0.0
118	0x00000000	0.0
119	0x00000000	0.0
120	0xb6a8f0be	-5.0348162e-06
121	0xb6e10d47	-6.707068e-06
122	0x37208391	9.567376e-06
123	0xb490a116	-2.6939296e-07
124	0xb867c33e	-5.5256525e-05
125	0xb87da990	-6.0477818e-05
126	0x3a236dd3	0.00062343216
127	0x3a08c6a1	0.00052175863
128	0x389c75c2	7.460594e-05
129	0x3799f279	1.8351931e-05
130	0xb6e66e52	-6.867377e-06
131	0xb76e6dbf	-1.4211458e-05
132	0x198be2f8	1.4463935e-23
133	0x232ba7a1	9.305425e-18
134	0x2b206a81	5.6991223e-13
135	0x31671f85	3.363284e-09
136	0x36037203	1.9586885e-06
137	0x38f93754	0.00011883551
138	0x3a6114ee	0.00085861876
139	0x3a8327c6	0.001000636
140	0x39a0a130	0.00030637672
141	0x385f33ca	5.3215575e-05
142	0x37032d87	7.818809e-06
143	0x34f1021d	4.4891286e-07

exp_avg_sq f4 [12, 12]
0	0x2e7d61cd	5.7612404e-11
1	0x34b6d38f	3.405407e-07
2	0x37e25a8c	2.6983464e-05
3	0x39016949	0.0001234162
4	0x39e0fb9e	0.0004291208
5	0x3a7f56cd	0.00097404124
6	0x3a055fdb	0.0005087831
7	0x37694979	1.3904989e-05
8	0x355a9fab	8.1443676e-07
9	0x36022afd	1.9396532e-06
10	0x34e3aef8	4.240935e-07
11	0x339a3c05	7.182101e-08
12	0x30646fa5	8.3104573e-10
13	0x33bb5de0	8.724942e-08
14	0x358686de	1.002303e-06
15	0x367869be	3.701643e-06
16	0x36a3f2cf	4.886045e-06
17	0x36c44d26	5.8502364e-06
18	0x3614f2bb	2.2195006e-06
19	0x329a8d2d	1.7992159e-08
20	0x2cdfac71	6.357186e-12
21	0x30112bc3	5.281288e-10
22	0x316d36e3	3.4519239e-09
23	0x3142ecfa	2.8365421e-09
24	0x00000000	0.0
25	0x00000000	0.0
26	0x00000000	0.0
27	0x00000000	0.0
28	0x00000000	0.0
29	0x00000000	0.0
30	0x00000000	0.0
31	0x00000000	0.0
32	0x00000000	0.0
33	0x00000000	0.0
34	0x00000000	0.0
35	0x00000000	0.0
36	0x33f0c5ae	1.12118286e-07
37	0x370badb9	8.325494e-06
38	0x37dd5bf0	2.6388065e-05
39	0x37f625fc	2.9343173e-05
40	0x3796af2d	1.7962966e-05
41	0x39069fad	0.0001283872
42	0x3973f421	0.00023265231
43	0x389fc945	7.6192e-05
44	0x374aeafb	1.2094849e-05
45	0x35b246fc	1.3282693e-06
46	0x340a5be1	1.2885677e-07
47	0x32cbd674	2.3729832e-08
48	0x25077aab	1.1750945e-16
49	0x2e37f300	4.182521e-11
50	0x3442553f	1.809867e-07
51	0x3740c872	1.1490762e-05
52	0x37b8b9ce	2.2021031e-05
53	0x37e336f3	2.7086096e-05
54	0x3879e2a9	5.957732e-05
55	0x3848894b	4.781158e-05
56	0x370aae95	8.266089e-06
57	0x3500ce0d	4.798356e-07
58	0x32384ec7	1.07281215e-08
59	0x31b82066	5.358788e-09
60	0x322d0cac	1.0072807e-08
61	0x356cca08	8.8210845e-07
62	0x36797f5c	3.7178024e-06
63	0x36d1d3f3	6.2533595e-06
64	0x37834cad	1.5652122e-05
65	0x380a6150	3.2992393e-05
66	0x3886ab2b	6.4215004e-05
67	0x38177652	3.61114e-05
68	0x36f4d6a1	7.2967528e-06
69	0x3542d93d	7.2586755e-07
70	0x33cb04fa	9.4538294e-08
71	0x32fb8796	2.9281903e-08
72	0x32aaceb1	1.9884597e-08
73	0x37282c46	1.00238885e-05
74	0x39155f79	0.00014245314
75	0x37ccec9c	2.4428875e-05
76	0x33293381	3.939522e-08
77	0x2b1faade	5.6725273e-13
78	0x1fa9bdc7	7.1888244e-20
79	0x10ca080e	7.968736e-29
80	0x000861a1	7.69707e-40
81	0x00000000	0.0
82	0x00000000	0.0
83	0x00000000	0.0
84	0x321cc996	9.12623e-09
85	0x358b586a	1.0382039e-06
86	0x36ca9bf4	6.0382245e-06
87	0x37586c93	1.2899883e-05
88	0x38002627	3.055311e-05
89	0x38ce092a	9.8245524e-05
90	0x391ff02a	0.0001525289
91	0x3854c808	5.0731032e-05
92	0x368f715c	4.274929e-06
93	0x348a3d11	2.5748935e-07
94	0x331aed4f	3.607175e-08
95	0x31bbe2c2	5.4681957e-09
96	0x2928c4f6	3.747433e-14
97	0x309b2a77	1.1289804e-09
98	0x3549170b	7.4911867e-07
99	0x375f8a41	1.33240255e-05
100	0x36832f61	3.90962e-06
101	0x325ddec6	1.2914546e-08
102	0x2aed1e5a	4.2120718e-13
103	0x20193b2c	1.2979182e-19
104	0x11ea37ac	3.6953e-28
105	0x0068372c	9.570684e-39
106	0x00000000	0.0
107	0x00000000	0.0
108	0x00000000	0.0
109	0x00000000	0.0
110	0x00000000	0.0
111	0x00000000	0.0
112	0x00000000	0.0
113	0x00000000	0.0
114	0x00000000	0.0
115	0x00000000	0.0
116	0x00000000	0.0
117	0x00000000	0.0
118	0x00000000	0.0
119	0x00000000	0.0
120	0x32adc636	2.0229987e-08
121	0x3535c166	6.7709186e-07
122	0x3465d8ce	2.140616e-07
123	0x30ff2368	1.8563755e-09
124	0x351c7f22	5.829953e-07
125	0x37879364	1.6161888e-05
126	0x378c1c7d	1.6702566e-05
127	0x36452dcb	2.9381943e-06
128	0x335353df	4.9203546e-08
129	0x3390bcda	6.7398744e-08
130	0x33ac84ce	8.033531e-08
131	0x3338606f	4.2928544e-08
132	0x00000000	0.0
133	0x098c6608	3.3799724e-33
134	0x1980e5e2	1.3327739e-23
135	0x260e84b2	4.944598e-16
136	0x2f47e283	1.8179418e-10
137	0x3545f0e3	7.3738755e-07
138	0x3831e5e1	4.241418e-05
139	0x388584f1	6.3666965e-05
140	0x37029612	7.783545e-06
141	0x34ac6119	3.2108144e-07
142	0x328bb856	1.6265556e-08
143	0x2f889f50	2.4851454e-10

exp_avg f4 [24, 12]
0	0x39a01b76	0.00030538038
1	0x37a52368	1.968602e-05
2	0x00000000	0.0
3	0xb94326d0	-0.00018611108
4	0xb7d799f4	-2.5701687e-05
5	0xb88cc425	-6.712255e-05
6	0x351538ec	5.558966e-07
7	0x37668b2b	1.3741471e-05
8	0x367f4ca4	3.8042572e-06
9	0x00000000	0.0
10	0xb816b426	-3.5930563e-05
11	0xb8853520	-6.3518295e-05
12	0x3a965ccd	0.0011471749
13	0x395ad18d	0.00020868164
14	0x00000000	0.0
15	0x3a7d4682	0.00096616906
16	0x399107a4	0.00027662248
17	0x3a98b449	0.0011650409
18	0x368247be	3.882654e-06
19	0x3a2d98d0	0.0006622197
20	0x386215dd	5.390296e-05
21	0x00000000	0.0
22	0x3952347a	0.0002004671
23	0x38b9a8d1	8.852932e-05
24	0x3a51fb5a	0.00080101716
25	0x391695b7	0.00014360888
26	0x00000000	0.0
27	0x39858a8a	0.00025470956
28	0x392c5121	0.00016433421
29	0x39e73729	0.0004410085
30	0x3684d2bb	3.958439e-06
31	0x39b40e54	0.0003434295
32	0x3834ba93	4.3089105e-05
33	0x00000000	0.0
34	0xb74a507e	-1.2058879e-05
35	0x3802f8d3	3.122615e-05
36	0x3a40081d	0.0007325428
37	0x38e6d25e	0.000110064386
38	0x00000000	0.0
39	0x39d79877	0.0004112159
40	0x38fdcea0	0.00012102467
41	0x3a0595e8	0.0005095885
42	0x35cd0da9	1.5277666e-06
43	0x39a3eba0	0.00031265337
44	0x3814a117	3.5435976e-05
45	0x00000000	0.0
46	0x38e53c2a	0.00010930777
47	0xb30fb09e	-3.3455414e-08
48	0x3b1aac07	0.0023601071
49	0x39f48f6c	0.00046646164
50	0x00000000	0.0
51	0x3b1d5392	0.002400611
52	0x3a2d70d6	0.000661624
53	0x3b34c452	0.0027582836
54	0x36a746a0	4.9852097e-06
55	0x3ac780ad	0.0015220843
56	0x38fe881d	0.00012137017
57	0x00000000	0.0
58	0x3a0ad02b	0.00052953017
59	0x39921677	0.00027864028
60	0xba7c00f5	-0.000961318
61	0xb90ab8ab	-0.000132295
62	0x00000000	0.0
63	0xb9a92b24	-0.00032266334
64	0xb95722fe	-0.00020517033
65	0xba1fd0e1	-0.0006096494
66	0xb6a8539a	-5.0165227e-06
67	0xb9dca2f4	-0.0004208308
68	0xb822f90b	-3.885575e-05
69	0x00000000	0.0
70	0xb7ae8cff	-2.0808073e-05
71	0xb84c3146	-4.868328e-05
72	0x3aa3d2b1	0.0012498704
73	0x37bb8a5f	2.2356571e-05
74	0x00000000	0.0
75	0xba7771ef	-0.00094392797
76	0x38ff1b60	0.000121644465
77	0xb95f5b05	-0.00021300845
78	0x3752843a	1.2547762e-05
79	0x3909972f	0.00013121658
80	0x37c1b072	2.3089557e-05
81	0x00000000	0.0
82	0xb9a6a359	-0.0003178369
83	0xb88066d9	-6.1226725e-05
84	0xb983a2ed	-0.00025107656
85	0xb7f48e5e	-2.9153362e-05
86	0x00000000	0.0
87	0xbaaa926b	-0.0013013607
88	0xb9c3ad3b	-0.00037322365
89	0xbaa62ffc	-0.0012679095
90	0x36c1dc91	5.7775255e-06
91	0xba179441	-0.00057822844
92	0x37790596	1.4842857e-05
93	0x00000000	0.0
94	0xb9b7fa2c	-0.00035090873
95	0xb998bdec	-0.00029133202
96	0xba273183	-0.0006377922
97	0xb8e61f4c	-0.00010973084
98	0x00000000	0.0
99	0xb961a06b	-0.00021517432
100	0xb910e9d1	-0.00013820014
101	0xb9bc71f0	-0.00035943044
102	0xb643c134	-2.9169723e-06
103	0xb996a518	-0.00028733234
104	0xb7ef6c1d	-2.8541364e-05
105	0x00000000	0.0
106	0x372795e5	9.988876e-06
107	0xb7de292b	-2.6483633e-05
108	0xbaa942b4	-0.0012913556
109	0xb9835959	-0.00025052836
110	0x00000000	0.0
111	0xbac5a5fd	-0.0015079376
112	0xb9f91c21	-0.0004751394
113	0xbae71ab4	-0.001763186
114	0xb689ae22	-4.10319e-06
115	0xba755fd2	-0.00093602866
116	0xb891d098	-6.9529924e-05
117	0x00000000	0.0
118	0xb9a39dd7	-0.00031207383
119	0xb98702d6	-0.0002575132
120	0x3a92add7	0.0011190724
121	0x3933d1ec	0.00017148972
122	0x00000000	0.0
123	0x3a9643ba	0.0011464276
124	0x39f40cdb	0.00046548885
125	0x3ac36b8d	0.0014909372
126	0xb49efe2d	-2.961473e-07
127	0x3a4b2f82	0.00077509147
128	0x382f0202	4.172512e-05
129	0x00000000	0.0
130	0x395a1ed1	0.0002080158
131	0x398e5630	0.00027148565
132	0x3b267874	0.0025401386
133	0x39b45ffa	0.00034403784
134	0x00000000	0.0
135	0x3a8cf7c9	0.0010754998
136	0x3a0c9958	0.0005363426
137	0x3ae7e340	0.0017691627
138	0x374dbfed	1.2263638e-05
139	0x3a985777	0.0011622746
140	0x38affd54	8.391836e-05
141	0x00000000	0.0
142	0x3924a55a	0.00015701857
143	0x38f087d5	0.000114693925
144	0x3a825217	0.0009942678
145	0x393628d3	0.00017372081
146	0x00000000	0.0
147	0x3b2ac38c	0.0026056496
148	0x3a5003a1	0.0007935111
149	0x3b31841e	0.0027086805
150	0xb60c726a	-2.0928223e-06
151	0x3aae3ec9	0.0013293858
152	0x37b5fd12	2.1694726e-05
153	0x00000000	0.0
154	0x3a1d9544	0.0006011317
155	0x3a13134e	0.00056104816
156	0x3a07ad86	0.00051756983
157	0x38c476ee	9.368161e-05
158	0x00000000	0.0
159	0xb7d60fe6	-2.5518191e-05
160	0x388838b7	6.495549e-05
161	0x38f04b42	0.0001145811
162	0x367e434e	3.7888126e-06
163	0x391ffc15	0.0001525733
164	0x37fa5d0f	2.9845656e-05
165	0x00000000	0.0
166	0xb882348d	-6.2086714e-05
167	0xb78d03c9	-1.6810272e-05
168	0xbb43e910	-0.0029893555
169	0xb9f6bb95	-0.00047060536
170	0x00000000	0.0
171	0x398bd3e1	0.00026670008
172	0xb9450039	-0.00018787467
173	0xba0b1f61	-0.0005307105
174	0xb7b39ab5	-2.1410504e-05
175	0xba3b550f	-0.00071461586
176	0xb9212e64	-0.00015371438
177	0x00000000	0.0
178	0x397db188	0.00024194096
179	0x3985e022	0.0002553473
180	0x3a8d85df	0.0010797343
181	0x38f8f36c	0.000118709024
182	0x00000000	0.0
183	0x3989a0d0	0.0002625049
184	0x3852af09	5.0230916e-05
185	0x39f01fd7	0.0004580009
186	0xb64c7fa8	-3.0472675e-06
187	0x39a63f1f	0.00031709016
188	0x38144d50	3.5357953e-05
189	0x00000000	0.0
190	0x390d1c46	0.0001345734
191	0xb8dd9401	-0.00010565669
192	0x3a46ea9a	0.0007588059
193	0x3929309d	0.00016135206
194	0x00000000	0.0
195	0x3a6b7384	0.0008981752
196	0x398944b2	0.00026181858
197	0x3a8a2793	0.0010540358
198	0x36ae1704	5.1882835e-06
199	0x3a166311	0.0005736808
200	0x382b2373	4.080259e-05
201	0x00000000	0.0
202	0x39259742	0.00015791974
203	0x391037ea	0.0001375374
204	0x3bda201a	0.006656659
205	0x3aa10679	0.0012285254
206	0x00000000	0.0
207	0x3c04611a	0.008079791
208	0x3b1f25d0	0.0024284013
209	0x3c16da74	0.009207357
210	0x37899e0c	1.6405269e-05
211	0x3ba2bfd0	0.0049667135
212	0x3990cbb9	0.00027617606
213	0x00000000	0.0
214	0x3ae1b7a1	0.0017220863
215	0x3aa54aba	0.0012610771
216	0xb9153de2	-0.000142328
217	0x3517b6d0	5.651791e-07
218	0x00000000	0.0
219	0x39b5ee13	0.0003470039
220	0x384fae8b	4.95152e-05
221	0x397a7de5	0.00023888757
222	0xb5bdcd0f	-1.4141277e-06
223	0x389883bd	7.272463e-05
224	0x36cc3ea1	6.0869647e-06
225	0x00000000	0.0
226	0x38c1fa56	9.249586e-05
227	0x38888076	6.508913e-05
228	0x3b6958ca	0.00356059
229	0x3a20b2d7	0.0006130165
230	0x00000000	0.0
231	0x3b7275a0	0.003699638
232	0x3a918bc3	0.0011104274
233	0x3b8d0e74	0.0043047015
234	0x3711bc36	8.686495e-06
235	0x3b1bb420	0.0023758486
236	0x3917df16	0.00014483588
237	0x00000000	0.0
238	0x3a5ac005	0.0008344653
239	0x3a03025b	0.00049976044
240	0x3a6644aa	0.00087840355
241	0x3916cf35	0.00014382305
242	0x00000000	0.0
243	0x3a7848da	0.0009471305
244	0x39586729	0.00020637795
245	0x3a8922c6	0.0010462634
246	0xb55dbaa0	-8.260049e-07
247	0x3a12fc0b	0.00056070153
248	0x37a65233	1.9827019e-05
249	0x00000000	0.0
250	0x398d4aaf	0.0002694926
251	0x387e4d53	6.0630333e-05
252	0xba715187	-0.0009205569
253	0xb87c9114	-6.0216596e-05
254	0x00000000	0.0
255	0xbb2491fb	-0.0025111425

exp_avg_sq f4 [24, 12]
0	0x380beaa8	3.3358723e-05
1	0x35207c9d	5.978598e-07
2	0x00000000	0.0
3	0x37a09a58	1.9145358e-05
4	0x36320db6	2.6532048e-06
5	0x38062599	3.1983105e-05
6	0x2ff70638	4.4933457e-10
7	0x373d44ce	1.1281298e-05
8	0x32c07bb7	2.2408e-08
9	0x00000000	0.0
10	0x359bb60c	1.1601383e-06
11	0x34f2b5d4	4.520831e-07
12	0x389ca258	7.4688985e-05
13	0x3647e4c7	2.9786477e-06
14	0x00000000	0.0
15	0x38956e5b	7.125429e-05
16	0x36dbf5dd	6.555331e-06
17	0x38d14d07	9.980244e-05
18	0x30ebcaf3	1.7156182e-09
19	0x380ae652	3.3116266e-05
20	0x341a216e	1.435453e-07
21	0x00000000	0.0
22	0x3660bb41	3.3487597e-06
23	0x3589e6f4	1.0274512e-06
24	0x384d268c	4.891171e-05
25	0x35db22d7	1.6326911e-06
26	0x00000000	0.0
27	0x357e201a	9.466909e-07
28	0x35138824	5.495988e-07
29	0x36cac19f	6.0426096e-06
30	0x30337db7	6.529847e-10
31	0x369d4e01	4.6880455e-06
32	0x3427767d	1.5596193e-07
33	0x00000000	0.0
34	0x34255670	1.5398268e-07
35	0x3416245c	1.3983066e-07
36	0x3760aaa6	1.3391173e-05
37	0x34dbdf8c	4.095458e-07
38	0x00000000	0.0
39	0x370f5f1a	8.545607e-06
40	0x35653cbd	8.5397534e-07
41	0x37475ab5	1.1882444e-05
42	0x2ebf4cef	8.6993406e-11
43	0x3686688b	4.0056816e-06
44	0x330c83b4	3.2716073e-08
45	0x00000000	0.0
46	0x350bdb24	5.2100427e-07
47	0x33e705b4	1.0757813e-07
48	0x39ce7459	0.00039378068
49	0x378bb8ab	1.6656084e-05
50	0x00000000	0.0
51	0x39aeab77	0.00033315617
52	0x380017c9	3.053973e-05
53	0x39f9016c	0.0004749404
54	0x31a19ddb	4.703663e-09
55	0x3926fdf8	0.00015925604
56	0x35718229	8.9968904e-07
57	0x00000000	0.0
58	0x378d8613	1.6870943e-05
59	0x36952865	4.4452486e-06
60	0x370ee5c3	8.517355e-06
61	0x342f5331	1.632841e-07
62	0x00000000	0.0
63	0x37191be1	9.126002e-06
64	0x34e8ca3c	4.3360512e-07
65	0x36e41843	6.797754e-06
66	0x2ef55c6b	1.1157727e-10
67	0x35d9a121	1.6214655e-06
68	0x32a26384	1.8904537e-08
69	0x00000000	0.0
70	0x3564f9da	8.53002e-07
71	0x34be6d2d	3.5469694e-07
72	0x39273165	0.00015944762
73	0x3730f85d	1.0548244e-05
74	0x00000000	0.0
75	0x3a334755	0.00068389374
76	0x38309369	4.2098956e-05
77	0x3a2cb95d	0.00065889006
78	0x30f5cedf	1.7884892e-09
79	0x392b4f6a	0.00016337415
80	0x34c008ea	3.5769273e-07
81	0x00000000	0.0
82	0x38256739	3.94352e-05
83	0x379f032a	1.895575e-05
84	0x37f53829	2.9232428e-05
85	0x355a987b	8.1433217e-07
86	0x00000000	0.0
87	0x3863891d	5.4248714e-05
88	0x36c3e13f	5.837675e-06
89	0x388f120d	6.8221336e-05
90	0x2febbdf7	4.288123e-10
91	0x37a58c7a	1.9734947e-05
92	0x330009c4	2.9811204e-08
93	0x00000000	0.0
94	0x36749240	3.6443962e-06
95	0x36175cf7	2.2554866e-06
96	0x380074be	3.0626303e-05
97	0x3599f15a	1.1469631e-06
98	0x00000000	0.0
99	0x35428b42	7.247328e-07
100	0x34c43ac1	3.6550594e-07
101	0x3680c9c0	3.838184e-06
102	0x2f864c69	2.442875e-10
103	0x363f162b	2.8474121e-06
104	0x33d62631	9.9720985e-08
105	0x00000000	0.0
106	0x33fa9269	1.1668164e-07
107	0x33ce6fcd	9.612959e-08
108	0x380695bb	3.2087537e-05
109	0x35aa8d92	1.2707189e-06
110	0x00000000	0.0
111	0x379ac246	1.8448696e-05
112	0x362068f4	2.3902949e-06
113	0x3803918f	3.1368396e-05
114	0x3014a883	5.4081556e-10
115	0x37412d54	1.151425e-05
116	0x33b1dcdf	8.282381e-08
117	0x00000000	0.0
118	0x35469fab	7.3993095e-07
119	0x34f403b8	4.5451247e-07
120	0x3a41cc80	0.00073928386
121	0x379fd937	1.9055426e-05
122	0x00000000	0.0
123	0x3a14eca0	0.0005681012
124	0x38b0317b	8.4015504e-05
125	0x3a75bced	0.00093741604
126	0x31e900a3	6.781265e-09
127	0x39a6f5f5	0.0003184524
128	0x35731935	9.0561235e-07
129	0x00000000	0.0
130	0x37deae07	2.65455e-05
131	0x379d19b2	1.8727824e-05
132	0x391e28e9	0.00015083294
133	0x3626099d	2.4741523e-06
134	0x00000000	0.0
135	0x374ae1c1	1.2092701e-05
136	0x3672d9be	3.6187553e-06
137	0x382563ab	3.943189e-05
138	0x310b6656	2.0285333e-09
139	0x37b0a59e	2.1057956e-05
140	0x341e2f62	1.4732134e-07
141	0x00000000	0.0
142	0x34f6fd9e	4.6005601e-07
143	0x349a1ae5	2.8704304e-07
144	0x37ee33cd	2.8395933e-05
145	0x35b9fbed	1.3856894e-06
146	0x00000000	0.0
147	0x395bc33b	0.00020958197
148	0x3792587c	1.744576e-05
149	0x395f4983	0.00021294323
150	0x2ff65a26	4.4811194e-10
151	0x384e8e51	4.924677e-05
152	0x331279c0	3.4104005e-08
153	0x00000000	0.0
154	0x3753ba4a	1.2619954e-05
155	0x371387c2	8.793491e-06
156	0x373701d1	1.0908073e-05
157	0x34886444	2.5404927e-07
158	0x00000000	0.0
159	0x380488af	3.159855e-05
160	0x36259f34	2.4679584e-06
161	0x380633bf	3.1996282e-05
162	0x2f7619a1	2.2382675e-10
163	0x3704b1e7	7.909234e-06
164	0x32a56a0b	1.925675e-08
165	0x00000000	0.0
166	0x36259aa1	2.4676922e-06
167	0x35aa0fe7	1.2670615e-06
168	0x3930204e	0.00016796702
169	0x36607a63	3.344984e-06
170	0x00000000	0.0
171	0x38d23476	0.00010023352
172	0x36843bce	3.9408687e-06
173	0x38523111	5.01136e-05
174	0x31f0d2dc	7.0088912e-09
175	0x36ff0bed	7.6009806e-06
176	0x34f1c75b	4.5034798e-07
177	0x00000000	0.0
178	0x372f1e49	1.0437864e-05
179	0x370dfb76	8.462803e-06
180	0x393e63b3	0.00018156953
181	0x36a9e0d3	5.0627655e-06
182	0x00000000	0.0
183	0x3907b5b7	0.00012942297
184	0x3742f200	1.1619646e-05
185	0x3943a727	0.00018658918
186	0x2f8a7387	2.518414e-10
187	0x388092e4	6.130876e-05
188	0x348e2370	2.6475345e-07
189	0x00000000	0.0
190	0x372d0060	1.0311691e-05
191	0x35aebf4e	1.3019687e-06
192	0x3846fbb6	4.7441303e-05
193	0x35edfea3	1.7731985e-06
194	0x00000000	0.0
195	0x382a2ca1	4.0572722e-05
196	0x3681c38f	3.8672656e-06
197	0x387dd36d	6.0516806e-05
198	0x30d72607	1.5654117e-09
199	0x37afc49b	2.0953177e-05
200	0x33822cee	6.0617694e-08
201	0x00000000	0.0
202	0x35e1ef57	1.6833463e-06
203	0x351b747a	5.7911495e-07
204	0x3b9e4e34	0.0048311
205	0x39276cb7	0.0001596686
206	0x00000000	0.0
207	0x3b88674f	0.004162706
208	0x39ee7a67	0.00045486094
209	0x3bcb3135	0.0062009343
210	0x3391b231	6.7845015e-08
211	0x3b09e73b	0.0021042365
212	0x36e81f01	6.917748e-06
213	0x00000000	0.0
214	0x39589cb8	0.00020657748
215	0x38a82e7b	8.019522e-05
216	0x378281db	1.5557676e-05
217	0x3503773a	4.89748e-07
218	0x00000000	0.0
219	0x37817324	1.5431615e-05
220	0x35d30fa8	1.5725282e-06
221	0x37af4f11	2.0898444e-05
222	0x2f8324dc	2.385495e-10
223	0x36dcbf1b	6.5787585e-06
224	0x32ec9c87	2.7545196e-08
225	0x00000000	0.0
226	0x353e6a3d	7.093511e-07
227	0x3501053e	4.8063873e-07
228	0x3a015e71	0.00049350323
229	0x3795aa68	1.7841536e-05
230	0x00000000	0.0
231	0x39c01897	0.00036639415
232	0x3810b8df	3.450445e-05
233	0x3a0bfad9	0.00053398084
234	0x31a897ae	4.9066875e-09
235	0x39423257	0.00018520035
236	0x356e933d	8.887617e-07
237	0x00000000	0.0
238	0x37a932ca	2.017002e-05
239	0x368e6f3b	4.2448787e-06
240	0x39459f42	0.00018846712
241	0x36c65304	5.910524e-06
242	0x00000000	0.0
243	0x3981d2f7	0.00024761978
244	0x37b49032	2.1524818e-05
245	0x39a84e94	0.00032102002
246	0x310c93a2	2.04566e-09
247	0x38cb41c5	9.692045e-05
248	0x3443c44d	1.8232204e-07
249	0x00000000	0.0
250	0x3785d30d	1.5953114e-05
251	0x369309b3	4.3820705e-06
252	0x392353a9	0.00015576057
253	0x3663b82e	3.3932843e-06
254	0x00000000	0.0
255	0x39a9293f	0.00032264923

exp_avg f4 [12]
0	0x3b7287a0	0.0037007108
1	0xb9b4b469	-0.0003446669
2	0x00000000	0.0
3	0xbba3079c	-0.0049752723
4	0xbad16610	-0.0015975852
5	0x3a8c3ea3	0.001069982
6	0x3afd726b	0.0019336467
7	0x3b48c8a9	0.003063718
8	0x3a739a7d	0.0009292735
9	0x00000000	0.0
10	0x3a3331dd	0.00068357383
11	0x3abd68f0	0.001445083

exp_avg_sq f4 [12]
0	0x3b6e5561	0.0036366808
1	0x37ee8ed0	2.8438313e-05
2	0x00000000	0.0
3	0x3aa5d384	0.0012651538
4	0x39426ce5	0.00018541848
5	0x39ae089d	0.00033194284
6	0x3923a7c6	0.00015607392
7	0x3a1f9930	0.00060881954
8	0x378bd92a	1.6671216e-05
9	0x00000000	0.0
10	0x384a7654	4.8270755e-05
11	0x390a882d	0.00013211435

exp_avg f4 [24]
0	0x384b1318	4.8416754e-05
1	0x3a56bdb9	0.0008191723
2	0x39beb07f	0.00036371124
3	0x39dcefa7	0.00042140225
4	0x3af2f8f4	0.0018537329
5	0xb9f8b5d3	-0.00047437716
6	0x3890cec0	6.904965e-05
7	0xba220d7a	-0.0006181818
8	0xb99c46ab	-0.0002980729
9	0xba8f21a5	-0.0010920061
10	0x3a66fcc6	0.000881147
11	0x3ab55d07	0.0013836928
12	0x3abbbacb	0.0014322636
13	0x3923e004	0.00015628344
14	0xba73847f	-0.0009289458
15	0x3a099245	0.0005247931
16	0x3a2ca413	0.0006585728
17	0x3bbc0c0c	0.005738741
18	0x388d2270	6.7298184e-05
19	0x3b396139	0.002828671
20	0x3a41d8ee	0.0007394691
21	0xbab41f2c	-0.00137422
22	0x3b767b4b	0.003761011
23	0x3885ac55	6.3740335e-05

exp_avg_sq f4 [24]
0	0x377aee8f	1.4956705e-05
1	0x38376e38	4.373325e-05
2	0x36f8d295	7.415491e-06
3	0x36c45d78	5.8521364e-06
4	0x396494be	0.00021799185
5	0x36062550	1.9989275e-06
6	0x3957e4ab	0.00020589183
7	0x37c12b81	2.3027651e-05
8	0x36a16faa	4.8111733e-06
9	0x37751709	1.4608501e-05
10	0x39cb188c	0.00038737466
11	0x38072931	3.222487e-05
12	0x386e3ebf	5.680206e-05
13	0x3717ef7a	9.056059e-06
14	0x3724dc01	9.826385e-06
15	0x38c06856	9.1747075e-05
16	0x37e46bb3	2.722987e-05
17	0x3b309a68	0.0026947502
18	0x37079329	8.08089e-06
19	0x39854715	0.00025420697
20	0x390bbaf8	0.00013325724
21	0x3910b61d	0.00013800753
22	0x399b1995	0.00029582964
23	0x35d33b84	1.5738046e-06

exp_avg f4 [12, 12]
0	0xb79e28f8	-1.8854145e-05
1	0xb91e370f	-0.00015088565
2	0xbadc7780	-0.0016820282
3	0xbc0e3fad	-0.008682174
4	0xbc805f36	-0.0156704
5	0xbc65651b	-0.014001156
6	0xbb3a8579	-0.0028460904
7	0xb89eaeed	-7.5666096e-05
8	0xb686b2f2	-4.014343e-06
9	0xb82e10af	-4.150037e-05
10	0xb8ab1092	-8.157002e-05
11	0xb87290cf	-5.783216e-05
12	0xb2811785	-1.5028272e-08
13	0xb70870e1	-8.132513e-06
14	0xb9dbd7e4	-0.00041931786
15	0xbb0d35c1	-0.0021546932
16	0xbb07a61a	-0.002069837
17	0x3831d053	4.2394106e-05
18	0x3b96c74f	0.004601396
19	0x3ad836c7	0.0016495817
20	0x388a4f26	6.595095e-05
21	0x349ff041	2.9790866e-07
22	0x2f1d678b	1.4315853e-10
23	0x27faa97d	6.95727e-15
24	0x3818325a	3.6286518e-05
25	0xb8ce3491	-9.832637e-05
26	0xba8ff69f	-0.0010983533
27	0xba37d663	-0.0007012842
28	0x3b891f4a	0.004184638
29	0x3bd76415	0.00657321
30	0x3b7b74a9	0.0038369095
31	0x3a812520	0.0009852983
32	0x398e5807	0.00027149936
33	0x3960eb5b	0.00021449981
34	0x37d6bfc4	2.5600086e-05
35	0xb5dfbfa2	-1.6670567e-06
36	0xb6c79489	-5.947954e-06
37	0x3941a9e7	0.00018469208
38	0x3ab2e8c1	0.0013649688
39	0x3b3ff781	0.002929181
40	0x3b658d40	0.0035026819
41	0x3ade2c5c	0.0016950476
42	0x39043ac1	0.00012610389
43	0xb94f99a5	-0.00019798295
44	0xb9738dc3	-0.00023227096
45	0xb90c5588	-0.00013383303
46	0xb7faf951	-2.991842e-05
47	0xb5a76775	-1.247258e-06
48	0x00000000	0.0
49	0x00000000	0.0
50	0x00000000	0.0
51	0x00000000	0.0
52	0x00000000	0.0
53	0x00000000	0.0
54	0x00000000	0.0
55	0x00000000	0.0
56	0x00000000	0.0
57	0x00000000	0.0
58	0x00000000	0.0
59	0x00000000	0.0
60	0x00000000	0.0
61	0x00000000	0.0
62	0x00000000	0.0
63	0x00000000	0.0
64	0x00000000	0.0
65	0x00000000	0.0
66	0x00000000	0.0
67	0x00000000	0.0
68	0x00000000	0.0
69	0x00000000	0.0
70	0x00000000	0.0
71	0x00000000	0.0
72	0x3945b805	0.00018855937
73	0x3ac42265	0.0014963864
74	0x3b5778dd	0.0032878437
75	0x3b30b2d5	0.002696206
76	0x3a0e957f	0.0005439147
77	0x3a202be7	0.00061100576
78	0x39a66f9a	0.00031745137
79	0xb920c0cf	-0.00015330616
80	0xb71b7c6f	-9.267692e-06
81	0x36f83434	7.397053e-06
82	0x383d3d5d	4.511826e-05
83	0x387339c1	5.7989502e-05
84	0x3889d040	6.571459e-05
85	0x3a0f8910	0.0005475441
86	0x39e43bec	0.00043532194
87	0xbb3f5504	-0.002919496
88	0xbc0bdfb0	-0.008537218
89	0xbc2a6e0b	-0.010402213
90	0xbb72d50b	-0.0037053253
91	0xb9d859af	-0.0004126555
92	0xb854cda0	-5.0736242e-05
93	0xb8ca6f97	-9.652896e-05
94	0xb65c8ec4	-3.2865655e-06
95	0xb6a9545f	-5.0464146e-06
96	0x00000000	0.0
97	0x00000000	0.0
98	0x00000004	6e-45
99	0x00000004	6e-45
100	0x00000004	6e-45
101	0x00000004	6e-45
102	0x00000004	6e-45
103	0x00000004	6e-45
104	0x00000004	6e-45
105	0x00000004	6e-45
106	0x00000004	6e-45
107	0x00000004	6e-45
108	0x391134b1	0.00013847907
109	0x3aaacd52	0.0013031161
110	0x3b378fb4	0.0028009238
111	0x3af40b29	0.0018619049
112	0x398e5bf6	0.00027152867
113	0x36c194e0	5.7691796e-06
114	0x3257e459	1.2566567e-08
115	0xb2cd8420	-2.3925224e-08
116	0xb6508fe0	-3.1078162e-06
117	0xb83365b4	-4.2771644e-05
118	0xb8df2115	-0.00010639631
119	0xb8e40352	-0.00010872506
120	0x393411cd	0.00017172769
121	0x3aa04375	0.0012227135
122	0x3b0ef65d	0.0021814324
123	0x3a8b6f59	0.0010638043
124	0xba8658b1	-0.0010249821
125	0xbb0c319c	-0.0021391874
126	0xba439d83	-0.0007462131
127	0xb8e43000	-0.00010880828
128	0x388646ee	6.4028296e-05
129	0x38f7dfaf	0.00011819542
130	0x389a3e97	7.3549505e-05
131	0x38258eb2	3.947196e-05
132	0x376c1894	1.4072419e-05
133	0x38961eed	7.158318e-05
134	0x38091ca9	3.2690037e-05
135	0x35ab6277	1.276915e-06
136	0xb7ca367a	-2.4105644e-05
137	0xba574375	-0.0008211651
138	0xbb642752	-0.0034813476
139	0xbb368ad1	-0.0027853737
140	0xba30dce9	-0.00067467854
141	0xb832c4cd	-4.2621792e-05
142	0xb78b86c6	-1.663285e-05
143	0xb6c979d0	-6.0044476e-06

exp_avg_sq f4 [12, 12]
0	0x3367245a	5.381694e-08
1	0x36099033	2.0498526e-06
2	0x38cad214	9.671241e-05
3	0x3b26beff	0.0025443432
4	0x3c2371dd	0.009975878
5	0x3c03e10a	0.008049259
6	0x39a0fcb5	0.0003070586
7	0x3458b1d2	2.0181258e-07
8	0x3225de90	9.654869e-09
9	0x35746bd6	9.1054005e-07
10	0x361492ea	2.2139234e-06
11	0x354b15e1	7.565523e-07
12	0x2bf34929	1.7286495e-12
13	0x31e36dc1	6.619047e-09
14	0x3703410f	7.823356e-06
15	0x39de04c2	0.00042346684
16	0x3ac6a485	0.0015155232
17	0x3a5c7fe3	0.00084113906
18	0x394d87b3	0.00019600875
19	0x37f52dc1	2.9227582e-05
20	0x337dcc64	5.9092045e-08
21	0x2bc5b55e	1.4048031e-12
22	0x20cf93bd	3.516493e-19
23	0x12881b5c	8.589551e-28
24	0x3371095c	5.6120697e-08
25	0x374b41b5	1.21150415e-05
26	0x3923d94c	0.00015625841
27	0x3923a585	0.00015606552
28	0x39f7df06	0.00047277677
29	0x3a97f9fb	0.0011594886
30	0x3a1c0be6	0.0005952701
31	0x380ff3cb	3.4320907e-05
32	0x3810208f	3.4362598e-05
33	0x3781c874	1.5471342e-05
34	0x359db04f	1.1748724e-06
35	0x326284fd	1.3185169e-08
36	0x3273981d	1.4179048e-08
37	0x36a1b500	4.819245e-06
38	0x38fef40f	0.00012157123
39	0x39b57c48	0.00034615607
40	0x39c6c4b7	0.00037912067
41	0x38bebd39	9.0951515e-05
42	0x349d21e9	2.9268202e-07
43	0x3719bec3	9.163926e-06
44	0x36fd15b3	7.5425137e-06
45	0x3542d2ad	7.2577205e-07
46	0x33f92ae0	1.1602765e-07
47	0x3354a5b4	4.9510803e-08
48	0x00000000	0.0
49	0x00000000	0.0
50	0x00000000	0.0
51	0x00000000	0.0
52	0x00000000	0.0
53	0x00000000	0.0
54	0x00000000	0.0
55	0x00000000	0.0
56	0x00000000	0.0
57	0x00000000	0.0
58	0x00000000	0.0
59	0x00000000	0.0
60	0x00000000	0.0
61	0x00000000	0.0
62	0x00000000	0.0
63	0x00000000	0.0
64	0x00000000	0.0
65	0x00000000	0.0
66	0x00000000	0.0
67	0x00000000	0.0
68	0x00000000	0.0
69	0x00000000	0.0
70	0x00000000	0.0
71	0x00000000	0.0
72	0x355d520d	8.2448315e-07
73	0x386ac802	5.597622e-05
74	0x39a69caa	0.0003177871
75	0x39784f07	0.00023680563
76	0x371eaf4d	9.458349e-06
77	0x3734cdc8	1.0776748e-05
78	0x37dc203e	2.6241058e-05
79	0x36ebde2a	7.029409e-06
80	0x3300cc9f	2.9988424e-08
81	0x30734aa3	8.850895e-10
82	0x32d0ba72	2.4299172e-08
83	0x33101749	3.354879e-08
84	0x35664fea	8.5797967e-07
85	0x3860a7f1	5.356217e-05
86	0x390a0057	0.00013160832
87	0x38fdb584	0.0001209779
88	0x3adf5423	0.0017038625
89	0x3b293316	0.0025817803
90	0x39d9841c	0.00041487894
91	0x38c412bc	9.349498e-05
92	0x37fce377	3.0146663e-05
93	0x366453fa	3.4023528e-06
94	0x34c38445	3.641782e-07
95	0x338e1775	6.616657e-08
96	0x00000000	0.0
97	0x00000000	0.0
98	0x00000000	0.0
99	0x00000000	0.0
100	0x00000000	0.0
101	0x00000016	3.1e-44
102	0x005bf9d6	8.446654e-39
103	0x0e59e9d1	2.6859894e-30
104	0x198b133e	1.4380035e-23
105	0x218e97cf	9.662478e-19
106	0x264be69b	7.07423e-16
107	0x27c3f183	5.438522e-15
108	0x3591149b	1.0809339e-06
109	0x3906da5a	0.00012860578
110	0x3a7533da	0.0009353735
111	0x39d0686a	0.00039750646
112	0x36a572d9	4.930753e-06
113	0x30b358ac	1.3049166e-09
114	0x27a304e5	4.5246895e-15
115	0x298240ce	5.7844015e-14
116	0x3011d842	5.3058014e-10
117	0x33962c17	6.992939e-08
118	0x349b2145	2.8895207e-07
119	0x34578365	2.0071236e-07
120	0x3532f727	6.666982e-07
121	0x380ad38b	3.309878e-05
122	0x38a8334d	8.02042e-05
123	0x37e1dad5	2.6923992e-05
124	0x3991879d	0.00027757595
125	0x3a07b162	0.00051762734
126	0x39518dde	0.00019984643
127	0x373a9fd1	1.1123674e-05
128	0x375208bc	1.2519009e-05
129	0x36931a5e	4.384011e-06
130	0x34863168	2.4995393e-07
131	0x32f77eb7	2.8812208e-08
132	0x338bd528	6.511465e-08
133	0x359f382d	1.1862772e-06
134	0x3447525f	1.8563286e-07
135	0x2f96408c	2.7330704e-10
136	0x332fcb42	4.0930225e-08
137	0x385e859c	5.3053358e-05
138	0x3a9a0a84	0.0011752401
139	0x3a8cb8a9	0.0010736185
140	0x38e05b65	0.00010698176
141	0x354702a6	7.413713e-07
142	0x34b8ca35	3.4419796e-07
143	0x35122150	5.4437714e-07

exp_avg f4 [24, 12]
0	0x3a762031	0.0009388952
1	0x3aad0c4f	0.0013202521
2	0x3b6350f9	0.0034685715
3	0x3ab19720	0.0013549067
4	0x00000000	0.0
5	0x00000000	0.0
6	0x393ed5b5	0.00018199424
7	0x3b7998c2	0.0038085436
8	0x80000004	-6e-45
9	0xb9118090	-0.00013876171
10	0x3b53f9d0	0.0032344945
11	0x39d380db	0.0004034106
12	0xb9e8b421	-0.00044384695
13	0xba2c2da3	-0.00065680797
14	0xbaf24488	-0.0018483559
15	0xba1a333d	-0.0005882269
16	0x00000000	0.0
17	0x00000000	0.0
18	0xb87981b3	-5.9487018e-05
19	0xbae910db	-0.0017781513
20	0x80000004	-6e-45
21	0x3884daf1	6.3350315e-05
22	0xbaedee73	-0.0018152728
23	0xb9590616	-0.00020697
24	0xbabf62de	-0.0014601608
25	0xbad2e71c	-0.0016090604
26	0xbbae0409	-0.0053105396
27	0xbb0bcbf3	-0.002133128
28	0x00000000	0.0
29	0x00000000	0.0
30	0xb95854ab	-0.00020630907
31	0xbb9acbd1	-0.004724004
32	0x80000004	-6e-45
33	0xb8c1fc0b	-9.249904e-05
34	0xbbc0b5cf	-0.0058810483
35	0xb9996a15	-0.0002926147
36	0x39aa12d9	0.0003243897
37	0x3a45bd24	0.0007543138
38	0x3b0665c9	0.0020507446
39	0x3a1d1688	0.0005992432
40	0x00000000	0.0
41	0x00000000	0.0
42	0x3984c52b	0.00025323904
43	0x3b81b1e9	0.003957976
44	0x80000004	-6e-45
45	0x381bc558	3.713867e-05
46	0x3b103dd1	0.0022009502
47	0x3a09c743	0.00052558276
48	0x3a483c1a	0.00076383504
49	0x3a1ebfe8	0.0006055818
50	0x3b3464f0	0.0027525984
51	0x3a88733b	0.0010410318
52	0x00000000	0.0
53	0x00000000	0.0
54	0x37a570fc	1.9722145e-05
55	0x3ae3cb6d	0.0017379351
56	0x00000004	6e-45
57	0x390ea62a	0.00013604076
58	0x3b670220	0.003524907
59	0xb799a597	-1.831613e-05
60	0xb9ff3a19	-0.00048680676
61	0xba7efec4	-0.0009727294
62	0xbb0865dc	-0.0020812666
63	0xba5c9d97	-0.00084158167
64	0x00000000	0.0
65	0x00000000	0.0
66	0xb93d3986	-0.00018045874
67	0xbb5a18f2	-0.0033279029
68	0x80000004	-6e-45
69	0x39217102	0.00015396255
70	0xbaccf92d	-0.0015638225
71	0xb9f8f79a	-0.00047486724
72	0x39b6d437	0.00034871857
73	0x3a0dcd7c	0.00054093427
74	0x39229253	0.00015504034
75	0x39d24e97	0.00040112875
76	0x00000000	0.0
77	0x00000000	0.0
78	0x37e09775	2.6773409e-05
79	0x39920f77	0.00027858812
80	0x00000004	6e-45
81	0xb9769bf1	-0.00023518481
82	0xba1e5069	-0.0006039204
83	0x37d77104	2.5682624e-05
84	0x3af156f1	0.0018412751
85	0x3ae21822	0.0017249624
86	0x3bccac20	0.006246105
87	0x3b345706	0.002751769
88	0x00000000	0.0
89	0x00000000	0.0
90	0x392bfc12	0.00016401734
91	0x3ba51bc9	0.0050387126
92	0x80000004	-6e-45
93	0x395d9bf7	0.00021134304
94	0x3beb4307	0.007179621
95	0x395f7020	0.00021308707
96	0xba7b93bf	-0.0009596906
97	0xba8eda75	-0.0010898846
98	0xbb6e3e38	-0.0036353003
99	0xbaa5c009	-0.0012645732
100	0x00000000	0.0
101	0x00000000	0.0
102	0xb90caee1	-0.00013416588
103	0xbb4b83e7	-0.0031053962
104	0x00000004	6e-45
105	0xb833e1e4	-4.2887303e-05
106	0xbb86da5d	-0.0041153864
107	0xb92a285c	-0.00016227498
108	0x3981c0ec	0.00024748535
109	0x39514113	0.00019956035
110	0x3a5ac33e	0.00083451334
111	0x393b2029	0.0001784569
112	0x00000000	0.0
113	0x00000000	0.0
114	0x35f87431	1.8511256e-06
115	0x3922b2f2	0.00015516186
116	0x80000004	-6e-45
117	0xb691d798	-4.346435e-06
118	0x3a803b61	0.0009783321
119	0xb8b2f477	-8.5332365e-05
120	0x3afdf4fe	0.0019375382
121	0x3b138e96	0.0022515408
122	0x3bc53118	0.0060178153
123	0x3b57503e	0.0032854225
124	0x00000000	0.0
125	0x00000000	0.0
126	0x3933b12c	0.00017136772
127	0x3b9bed69	0.004758526
128	0x80000004	-6e-45
129	0xb98440fd	-0.00025225422
130	0x3baf8b7c	0.005357204
131	0x39a82386	0.00032069924
132	0x383de01c	4.526983e-05
133	0xba86392f	-0.0010240431
134	0xb9e473f5	-0.00043573944
135	0x3a48688a	0.0007644972
136	0x00000000	0.0
137	0x00000000	0.0
138	0xb933834b	-0.0001711968
139	0xbab9ec43	-0.0014184791
140	0x00000004	6e-45
141	0x3a7d8f9b	0.0009672583
142	0x3ad7000e	0.0016403215
143	0xba447da1	-0.0007495527
144	0xba51513a	-0.0007984821
145	0xba4b1495	-0.00077469024
146	0xbb3c4b8b	-0.002873155
147	0xba8ead57	-0.00108854
148	0x00000000	0.0
149	0x00000000	0.0
150	0x377a2aaf	1.4911099e-05
151	0xbaf33978	-0.0018556556
152	0x80000004	-6e-45
153	0xba022d78	-0.0004965882
154	0xbb852641	-0.004063398
155	0x397b7c00	0.00023983419
156	0x39b8bc6f	0.0003523561
157	0x3a2fa58b	0.0006700388
158	0x3af1f8b3	0.0018460959
159	0x3a19e415	0.00058704737
160	0x00000000	0.0
161	0x00000000	0.0
162	0x3931f683	0.00016971868
163	0x3b39fa36	0.0028377897
164	0x80000004	-6e-45
165	0xb78ef78e	-1.7042996e-05
166	0x3af282ad	0.0018502079
167	0x39bca689	0.00035982233
168	0xba0295f1	-0.00049814495
169	0x3a29ab0f	0.0006472328
170	0xba9f1fd5	-0.0012140224
171	0xba528fb1	-0.0008032276
172	0x00000000	0.0
173	0x00000000	0.0
174	0x3996a5f9	0.0002873389
175	0x3b18a0eb	0.0023289274
176	0x00000004	6e-45
177	0xba010332	-0.00049214356
178	0xbb35851e	-0.0027697752
179	0x3a5471b8	0.00081041036
180	0x39d0084b	0.0003967903
181	0x39fc81e0	0.0004816195
182	0x3b125631	0.0022329206
183	0x3a664ef3	0.0008785568
184	0x00000000	0.0
185	0x00000000	0.0
186	0x3950d714	0.00019916549
187	0x3b6663e0	0.0035154745
188	0x80000004	-6e-45
189	0xb6b63b47	-5.4309235e-06
190	0x3b27a717	0.002558177
191	0x39e4257f	0.00043515486
192	0x3acae742	0.0015480297
193	0x3a9d246f	0.0011989007
194	0x3b928101	0.004470945
195	0x3b4b6fab	0.00310419
196	0x00000000	0.0
197	0x00000000	0.0
198	0x3933cc85	0.0001714696
199	0x3b971b6a	0.0046114223
200	0x00000004	6e-45
201	0x3a06dcef	0.0005144616
202	0x3bb320b0	0.005466543
203	0x39338622	0.00017120739
204	0xb8882db9	-6.493502e-05
205	0x39eca965	0.00045139636
206	0xba8951b6	-0.0010476622
207	0x3824881c	3.922741e-05
208	0x00000000	0.0
209	0x00000000	0.0
210	0xb8304974	-4.203008e-05
211	0xba5f9811	-0.00085294346
212	0x80000004	-6e-45
213	0xba2a423a	-0.0006494854
214	0xbb308fa9	-0.0026941097
215	0x3918bd87	0.00014566454
216	0x3965a51f	0.00021900654
217	0x3a1e5444	0.0006039778
218	0x3ae5220a	0.0017481458
219	0x3900dd47	0.00012289463
220	0x00000000	0.0
221	0x00000000	0.0
222	0x392b5aa2	0.00016341594
223	0x3b406b34	0.0029360773
224	0x00000004	6e-45
225	0xb8da08f8	-0.000103967206
226	0x3b00590d	0.0019584328
227	0x39a76b32	0.0003193259
228	0xb972965a	-0.00023134929
229	0xba82c5fa	-0.0009977215
230	0xbab1bebc	-0.0013560872
231	0xb9b33751	-0.00034182754
232	0x00000000	0.0
233	0x00000000	0.0
234	0xb9969fb8	-0.0002872923
235	0xbb5f6664	-0.003408813
236	0x80000004	-6e-45
237	0x3a144dbb	0.00056573347
238	0xb8ed9579	-0.00011328882
239	0xba4b2afd	-0.0007750241
240	0x3a1ac42b	0.0005903865
241	0x3a358ee4	0.00069258944
242	0x3b1b6977	0.0023713985
243	0x3a9c70c4	0.0011935462
244	0x00000000	0.0
245	0x00000000	0.0
246	0x391fe4b3	0.00015248619
247	0x3b3e6558	0.0029052105
248	0x80000004	-6e-45
249	0x3815aad3	3.568346e-05
250	0x3b271563	0.0025494925
251	0x39aba6a2	0.00032739813
252	0x3bc96317	0.0061458456
253	0x3bc6311e	0.0060483357
254	0x3cafa6af	0.021441786
255	0x3c12de26	0.008964097

exp_avg_sq f4 [24, 12]
0	0x37b81a26	2.1946686e-05
1	0x384dc7c3	4.906185e-05
2	0x39bf2ff8	0.00036466098
3	0x38d6845f	0.00010228971
4	0x00000000	0.0
5	0x00000000	0.0
6	0x35afefba	1.3108286e-06
7	0x3a3334d3	0.00068361795
8	0x204c6d59	1.7315652e-19
9	0x35610f2f	8.3841127e-07
10	0x39a56122	0.00031543622
11	0x3747b78e	1.19040615e-05
12	0x36f9baa3	7.4425056e-06
13	0x376ccd7d	1.411454e-05
14	0x38fb918d	0.000119957236
15	0x37b895ef	2.2004328e-05
16	0x00000000	0.0
17	0x00000000	0.0
18	0x3485ad68	2.489935e-07
19	0x3928140b	0.00016029195
20	0x1eb7b0dc	1.9449026e-20
21	0x342f717f	1.6339435e-07
22	0x39011ab0	0.0001231234
23	0x362337df	2.4321414e-06
24	0x38307af2	4.207617e-05
25	0x385b0b76	5.2224343e-05
26	0x3a28ccba	0.0006439198
27	0x38d8f2dc	0.00010344919
28	0x00000000	0.0
29	0x00000000	0.0
30	0x35ab203b	1.2749873e-06
31	0x3a1e2ffb	0.00060343713
32	0x1d19f7f7	2.0377576e-21
33	0x34a8320d	3.1328855e-07
34	0x3a5802e3	0.0008240176
35	0x364cebf0	3.0535703e-06
36	0x37dac42b	2.6078973e-05
37	0x38662ce0	5.4878066e-05
38	0x3a1cab8f	0.0005976492
39	0x3957728b	0.00020546668
40	0x00000000	0.0
41	0x00000000	0.0
42	0x36a3ce8d	4.881824e-06
43	0x3ad873c7	0.0016513997
44	0x21819fad	8.783646e-19
45	0x35da5c84	1.6269191e-06
46	0x3a3f4d96	0.0007297633
47	0x37e6453e	2.745038e-05
48	0x3783b827	1.570217e-05
49	0x372bdba6	1.0243535e-05
50	0x394c900c	0.00019508618
51	0x376a2be8	1.395771e-05
52	0x00000000	0.0
53	0x00000000	0.0
54	0x336bf469	5.493749e-08
55	0x381a122b	3.673338e-05
56	0x20071a6c	1.1443687e-19
57	0x34a371a5	3.0443803e-07
58	0x39aa9b52	0.0003254065
59	0x35e1cbad	1.6823084e-06
60	0x37bcffd1	2.253047e-05
61	0x3891f877	6.960419e-05
62	0x39dee45e	0.00042513286
63	0x3969a02b	0.00022280279
64	0x00000000	0.0
65	0x00000000	0.0
66	0x363bf59f	2.8008142e-06
67	0x3a9b139a	0.0011831403
68	0x2060b2b3	1.9032665e-19
69	0x36577781	3.2107057e-06
70	0x39a13023	0.00030744178
71	0x3806a7a3	3.2104213e-05
72	0x379a67c2	1.8406547e-05
73	0x37d29982	2.5105433e-05
74	0x3a1db981	0.0006016717
75	0x393410c3	0.00017172382
76	0x00000000	0.0
77	0x00000000	0.0
78	0x36512a1c	3.1167938e-06
79	0x3aa32b52	0.0012448824
80	0x21ed5e98	1.6084783e-18
81	0x377500e4	1.4603345e-05
82	0x3a921f83	0.0011148307
83	0x37469b63	1.18378985e-05
84	0x38fce1ec	0.000120583776
85	0x38f48288	0.0001165914
86	0x3aca5497	0.0015436587
87	0x39aba63f	0.00032739525
88	0x00000000	0.0
89	0x00000000	0.0
90	0x35ad0d2e	1.289334e-06
91	0x3a99a4c9	0.0011722083
92	0x1f89646c	5.818789e-20
93	0x3636688a	2.7180963e-06
94	0x3b086451	0.0020811746
95	0x3651c0d3	3.1255665e-06
96	0x3797bc3e	1.808826e-05
97	0x37b64adc	2.173095e-05
98	0x398d83ad	0.00026991722
99	0x38180aa5	3.6249538e-05
100	0x00000000	0.0
101	0x00000000	0.0
102	0x3501c8db	4.834853e-07
103	0x395d6be5	0.00021116396
104	0x1f21a578	3.422995e-20
105	0x3478c3bd	2.3168009e-07
106	0x39bd92ab	0.00036158165
107	0x3547a6fd	7.4376277e-07
108	0x36b98ab9	5.529579e-06
109	0x36c4fdc2	5.8707965e-06
110	0x38a75da6	7.980624e-05
111	0x36d56050	6.359107e-06
112	0x00000000	0.0
113	0x00000000	0.0
114	0x33b7396f	8.532049e-08
115	0x37fa43b2	2.9833845e-05
116	0x1f96801f	6.373943e-20
117	0x33af24ba	8.155753e-08
118	0x38f197e2	0.00011520066
119	0x34678013	2.1560145e-07
120	0x38a0d5c2	7.66921e-05
121	0x38941e46	7.062829e-05
122	0x3a2eb720	0.0006664861
123	0x39e2d912	0.0004326781
124	0x00000000	0.0
125	0x00000000	0.0
126	0x34d30fd0	3.9313318e-07
127	0x39c4eaf7	0.00037559096
128	0x2200b956	1.744535e-18
129	0x35a0dde8	1.1985512e-06
130	0x3a1bbe42	0.00059411314
131	0x3652dbd8	3.1420404e-06
132	0x376cdaa7	1.4117605e-05
133	0x38aea7fb	8.328255e-05
134	0x39b4db2d	0.00034495574
135	0x392145e6	0.00015380196
136	0x00000000	0.0
137	0x00000000	0.0
138	0x36aef249	5.21381e-06
139	0x3ab4327d	0.0013747957
140	0x1f88a021	5.786315e-20
141	0x3747a310	1.189929e-05
142	0x39396978	0.00017682265
143	0x388c2cdc	6.684076e-05
144	0x383137b7	4.2251977e-05
145	0x38475b2e	4.7530215e-05
146	0x3a191f29	0.000584113
147	0x388c47b3	6.689075e-05
148	0x00000000	0.0
149	0x00000000	0.0
150	0x34b06696	3.2857196e-07
151	0x39facf4f	0.00047838173
152	0x20399823	1.5720447e-19
153	0x372b6cc1	1.02177155e-05
154	0x3a8381ac	0.0010033152
155	0x3511f595	5.437408e-07
156	0x369bbca8	4.6413224e-06
157	0x3798c091	1.8209483e-05
158	0x390cd321	0.00013430092
159	0x3813a606	3.5202153e-05
160	0x00000000	0.0
161	0x00000000	0.0
162	0x35b51511	1.3491682e-06
163	0x39d50ee1	0.00040637612
164	0x1e9c7100	1.6563878e-20
165	0x347b0b1e	2.3380241e-07
166	0x38f9f92c	0.00011919657
167	0x37222d9e	9.6665735e-06
168	0x3849f78f	4.815269e-05
169	0x37d310ac	2.5160924e-05
170	0x39dfc797	0.0004268258
171	0x38bb24d5	8.923715e-05
172	0x00000000	0.0
173	0x00000000	0.0
174	0x36a27c9a	4.8424818e-06
175	0x3a1d209c	0.0005993934
176	0x21865c73	9.104664e-19
177	0x37217a90	9.624884e-06
178	0x3a6a8ae9	0.0008947091
179	0x3831a7ac	4.2356245e-05
180	0x370d11cc	8.408399e-06
181	0x37a72933	1.9927136e-05
182	0x39853d47	0.00025413392
183	0x388f19c4	6.8235706e-05
184	0x00000000	0.0
185	0x00000000	0.0
186	0x3623481c	2.4330866e-06
187	0x3a68cb05	0.000888035
188	0x20289339	1.4278865e-19
189	0x33fd0c05	1.1783417e-07
190	0x399f6bb1	0.0003040708
191	0x3783f5dc	1.5730904e-05
192	0x38a4f6c2	7.8660916e-05
193	0x381f208a	3.793886e-05
194	0x3a451dbb	0.0007519384
195	0x39677586	0.00022073658
196	0x00000000	0.0
197	0x00000000	0.0
198	0x350a009a	5.140988e-07
199	0x3a1da352	0.00060134113
200	0x1f40a2eb	4.0792344e-20
201	0x374480bb	1.1712483e-05
202	0x3aad625e	0.0013228168
203	0x352703ba	6.221777e-07
204	0x382d039d	4.124978e-05
205	0x3821c8d6	3.8572434e-05
206	0x3a82c9c9	0.000997835
207	0x395b4b6d	0.00020913566
208	0x00000000	0.0
209	0x00000000	0.0
210	0x369ec2e2	4.7314543e-06
211	0x3ae5ae7d	0.0017523315
212	0x217b0a70	8.505592e-19
213	0x38127379	3.4916655e-05
214	0x3b05cf44	0.002041773
215	0x372448ea	9.792138e-06
216	0x36ad1836	5.1586203e-06
217	0x37aaffee	2.0384756e-05
218	0x391bfa0e	0.00014875105
219	0x3780a8d1	1.53374e-05
220	0x00000000	0.0
221	0x00000000	0.0
222	0x35ad65c2	1.291912e-06
223	0x39cb705f	0.000388029
224	0x208cb821	2.383877e-19
225	0x3682502a	3.8836342e-06
226	0x391f188a	0.00015172563
227	0x36dfb796	6.66729e-06
228	0x368816da	4.055776e-06
229	0x382623a8	3.961069e-05
230	0x39167467	0.00014348478
231	0x38789ac7	5.9271955e-05
232	0x00000000	0.0
233	0x00000000	0.0
234	0x3692c1eb	4.373714e-06
235	0x3a7d62c3	0.0009665901
236	0x20dd2389	3.7462371e-19
237	0x370ed2a8	8.512907e-06
238	0x38925b9a	6.9788846e-05
239	0x382b6ade	4.0869105e-05
240	0x37bb96ee	2.236242e-05
241	0x37f58e2d	2.9272482e-05
242	0x39ac8023	0.00032901866
243	0x38d0c919	9.95567e-05
244	0x00000000	0.0
245	0x00000000	0.0
246	0x359e79c5	1.1807357e-06
247	0x3a02af80	0.0004985258
248	0x1f5b3cc0	4.6425305e-20
249	0x3531fdc1	6.63069e-07
250	0x39d468e2	0.00040513935
251	0x36b9c261	5.5360583e-06
252	0x3a93a6bc	0.0011264901
253	0x3a989470	0.0011640918
254	0x3c764303	0.015030625
255	0x3b35f5f7	0.0027765015

exp_avg f4 [12]
0	0xbcda92ed	-0.026681388
1	0x3a89c0e0	0.0010509752
2	0x3c0fa498	0.00876727
3	0x3bb9f8c1	0.0056754057
4	0x00000000	0.0
5	0x00000000	0.0
6	0x3bb8087c	0.005616246
7	0xbc7d0727	-0.0154436
8	0x00000004	6e-45
9	0x3b751032	0.0037393686
10	0x3a200cc4	0.0006105418
11	0xbb9b8258	-0.004745763

exp_avg_sq f4 [12]
0	0x3ce4edc1	0.027945401
1	0x3b461743	0.0030226267
2	0x3b18d213	0.0023318573
3	0x3a93619d	0.0011244301
4	0x00000000	0.0
5	0x00000000	0.0
6	0x3a57dc23	0.0008234402
7	0x3b7e7775	0.0038828526
8	0x27cd33a2	5.695491e-15
9	0x3accd210	0.0015626568
10	0x3a8a24e6	0.0010539561
11	0x3b352b14	0.0027644085
