Model/epoch50/Model_6/model6.ckpt (torch_old, 286080 bytes, 464 tensors)

exp_avg f4 [72]
0	0x3b2ee6e8	0.0026687924
1	0xbb523375	-0.0032074128
2	0x3cafe6f2	0.021472428
3	0xbb6a8e51	-0.0035790394
4	0xbb922550	-0.0044600144
5	0x3aa1a5de	0.0012332757
6	0xbbf10478	-0.007355269
7	0xbcb3b6c7	-0.021937741
8	0x3c40624f	0.011742189
9	0xbba9b22d	-0.005178711
10	0xbc581e6a	-0.013190845
11	0xbb01b8a0	-0.0019793883
12	0x3baf964a	0.005358492
13	0xbbfb8ab6	-0.0076764477
14	0x39c09e28	0.0003673893
15	0x3c065cd9	0.008200848
16	0x3c0941f5	0.008377542
17	0x3b3e0e2e	0.002900015
18	0x3b680f10	0.0035409369
19	0x3b18e6cc	0.0023330925
20	0x3a829d39	0.0009965069
21	0xbc67f8ba	-0.014158422
22	0xbbc8e86f	-0.006131224
23	0xbbe60bf0	-0.007020466
24	0xbc4270e5	-0.0118677365
25	0xbc43513b	-0.011921222
26	0x3a7968fd	0.00095142407
27	0xbbb7c14d	-0.00560776
28	0xbbec6f5b	-0.007215423
29	0x3a8c142a	0.0010687162
30	0x3affd0aa	0.0019517143
31	0x3bb3c057	0.005485575
32	0x39c8a6ba	0.00038271194
33	0xbc58820c	-0.013214599
34	0xbc646329	-0.013939657
35	0xbadbbeaa	-0.0016765196
36	0x3ba8e0e2	0.0051537612
37	0x3b874446	0.004128012
38	0xb90fc8e7	-0.00013712385
39	0x3ca5cd3b	0.020239463
40	0x3c821a3e	0.015881654
41	0x3b7f7dd0	0.0038984902
42	0xbc5332c5	-0.012890522
43	0xbb633371	-0.0034668113
44	0xbb9de607	-0.004818681
45	0x3b26c0f7	0.0025444606
46	0x3b462c30	0.003023874
47	0x3b581693	0.003297244
48	0x3b5e9fcd	0.003396976
49	0xbab9c8c7	-0.0014174216
50	0xb9b5c484	-0.00034669426
51	0x3a167b03	0.0005740376
52	0xbb1d9b20	-0.002404876
53	0x3a8b2785	0.0010616636
54	0x3b5e7357	0.003394326
55	0x3be83382	0.0070862183
56	0xbbbf3d7a	-0.005836186
57	0xbc0c1303	-0.008549455
58	0x3aad7b02	0.0013235512
59	0xbbc4c15c	-0.0060044955
60	0x3bb91dcb	0.0056493036
61	0x3bd0fbbd	0.006377666
62	0xba111c3f	-0.000553552
63	0xb8cf9fc0	-9.900285e-05
64	0xba489d67	-0.00076528493
65	0x3b9a3493	0.0047059744
66	0xba9e23f2	-0.0012065156
67	0xbbac9320	-0.005266562
68	0x3c359016	0.011081716
69	0x3bc3bf9f	0.0059737707
70	0x3c1dc096	0.009628436
71	0xbb063233	-0.0020476698

exp_avg_sq f4 [72]
0	0x3a3ba7c8	0.0007158485
1	0x3a9a03b8	0.0011750376
2	0x3c96eacf	0.018422512
3	0x3979e453	0.00023831548
4	0x3981efe1	0.0002478352
5	0x38a0c31d	7.665737e-05
6	0x3b503f41	0.0031775984
7	0x3c0e2fa3	0.00867835
8	0x3b2e820f	0.0026627814
9	0x3acacca1	0.0015472361
10	0x3beeed1d	0.0072914497
11	0x3a58eca3	0.0008275008
12	0x3abcb730	0.0014397856
13	0x3acd2e06	0.0015653975
14	0x3a1dbeac	0.0006017487
15	0x3a688fd9	0.00088715326
16	0x3b3554b6	0.00276689
17	0x3ae098df	0.0017135403
18	0x3915892c	0.00014260848
19	0x386afc4a	5.602491e-05
20	0x39ac78ca	0.0003289639
21	0x3a854044	0.0010166247
22	0x3a2bdb88	0.0006555845
23	0x39b6eb2a	0.00034888956
24	0x3b35cb9d	0.0027739771
25	0x3af72a9e	0.0018857305
26	0x390ba336	0.00013316874
27	0x3b075e13	0.0020655438
28	0x3ab11d27	0.0013512716
29	0x38d6e470	0.00010246865
30	0x3b203130	0.002444338
31	0x3a3aee9b	0.0007130892
32	0x3ad56f8c	0.0016283854
33	0x3bb8f9c7	0.00564501
34	0x3bb6e87b	0.005581913
35	0x38b3f6e2	8.581371e-05
36	0x395222b0	0.00020040083
37	0x3a082c2f	0.0005194572
38	0x39873d46	0.0002579486
39	0x3ba0ea20	0.0049107224
40	0x3b9d10fe	0.0047932854
41	0x38d3eb09	0.00010105043
42	0x3bd99257	0.0066397595
43	0x39b92ac0	0.000353178
44	0x3b7057b2	0.0036673364
45	0x39e9b57f	0.00044576448
46	0x3a911b67	0.0011070789
47	0x39da8796	0.0004168122
48	0x39ae84ef	0.0003328691
49	0x3799d5b4	1.8338535e-05
50	0x38769f06	5.8799073e-05
51	0x38e76a5f	0.000110347515
52	0x398884b7	0.00026038822
53	0x39f6103b	0.0004693287
54	0x3a31a270	0.0006776219
55	0x3a9ef279	0.0012126706
56	0x3a846637	0.0010101263
57	0x3b7c10f3	0.003846225
58	0x394c6f52	0.00019496426
59	0x3b388a3b	0.0028158564
60	0x39565c38	0.00020442985
61	0x3a8af509	0.0010601591
62	0x3a1d12f0	0.00059918966
63	0x396ba3aa	0.00022472316
64	0x380a84ac	3.3025324e-05
65	0x3af2b3cd	0.001851672
66	0x398423c2	0.00025203644
67	0x3a13d8bd	0.00056399015
68	0x3be978f1	0.007125013
69	0x3b229098	0.0024805423
70	0x3b0848bc	0.0020795306
71	0x3a0605b5	0.0005112545

exp_avg f4 [24]
0	0x3cab7d5e	0.020933803
1	0xbbdf0304	-0.0068057794
2	0xbc8fc6bf	-0.017550824
3	0xbca6b2d5	-0.020348946
4	0xbaffaa25	-0.0019505663
5	0x3c9f912c	0.019478403
6	0x3be1223d	0.0068705366
7	0xbcdfb973	-0.027310109
8	0xbcbb15c8	-0.022837535
9	0xbc4095cc	-0.011754464
10	0x3c001f77	0.007820002
11	0xbcec2e89	-0.028830783
12	0x3c15d371	0.00914465
13	0x3d23eb9a	0.04001961
14	0xbcad794f	-0.021176009
15	0x3c1140ee	0.008865578
16	0x3ad605b7	0.0016328607
17	0xba49a281	-0.00076917565
18	0x3b982fb7	0.00464436
19	0xbc58c450	-0.013230398
20	0x3c3bfb02	0.011473419
21	0x3b7bc4c5	0.0038416844
22	0x3b970412	0.0046086395
23	0x3c5e13da	0.013554538

exp_avg_sq f4 [24]
0	0x3c71b6e3	0.014753076
1	0x3a4fe59a	0.00079306366
2	0x3c32da97	0.010916374
3	0x3c3af271	0.011410342
4	0x3aff9b51	0.0019501244
5	0x3b639b0f	0.0034729873
6	0x3a416328	0.0007377141
7	0x3b4d5a01	0.0031334164
8	0x3c33611f	0.010948448
9	0x3bc7824d	0.006088531
10	0x3c4bbf3b	0.01243573
11	0x3cbd1237	0.023079975
12	0x3a399f66	0.0007080942
13	0x3c9c88ff	0.019108294
14	0x3cd00299	0.025391864
15	0x3ad7e936	0.00164727
16	0x3a1a1624	0.0005877933
17	0x39b7a23c	0.00035025354
18	0x3ac4c2c2	0.0015011656
19	0x3c29f8a0	0.010374218
20	0x3a5048ac	0.0007945399
21	0x3b3a2c1c	0.002840764
22	0x3bb442ac	0.005501112
23	0x3c227cc1	0.009917439

exp_avg f4 [12, 12]
0	0x36816f46	3.8574535e-06
1	0x390175da	0.00012346302
2	0x3a83d751	0.0010058676
3	0x3b3ee051	0.0029125402
4	0x3babccda	0.005242926
5	0x3ba93054	0.005163232
6	0x3b3307d8	0.0027317908
7	0x39ca5817	0.00038594074
8	0x376fae35	1.4286071e-05
9	0x38150fca	3.5539073e-05
10	0x37f24dca	2.8884871e-05
11	0x370d8358	8.434836e-06
12	0xb6f08b94	-7.1688064e-06
13	0xb7e23d9f	-2.6969994e-05
14	0x3981a93f	0.00024730896
15	0x39d8e8e6	0.00041372253
16	0x3956843b	0.0002045789
17	0x3794b0a7	1.7725235e-05
18	0x34392929	1.7244442e-07
19	0x3500b4c6	4.7946776e-07
20	0x376977d4	1.3915782e-05
21	0x386837b7	5.5365e-05
22	0x385169cf	4.9928025e-05
23	0x3800f689	3.0747182e-05
24	0x00000000	0.0
25	0x00000000	0.0
26	0x00000000	0.0
27	0x00000000	0.0
28	0x00000000	0.0
29	0x00000000	0.0
30	0x00000000	0.0
31	0x00000000	0.0
32	0x00000000	0.0
33	0x00000000	0.0
34	0x00000000	0.0
35	0x00000000	0.0
36	0xb8ad32ab	-8.2587205e-05
37	0xba4247e7	-0.0007411227
38	0xbac8f3a8	-0.0015331404
39	0xbaffc379	-0.0019513211
40	0xbaaf40e1	-0.0013370776
41	0xbb2fdd13	-0.0026834651
42	0xbb645a60	-0.0034843907
43	0xbacdd99f	-0.0015705115
44	0xb9c758f2	-0.00038022507
45	0xb8a9c23a	-8.0947255e-05
46	0xb8248ae1	-3.9229988e-05
47	0xb7d988bc	-2.5932088e-05
48	0xb4432b52	-1.817655e-07
49	0xb65e9d35	-3.3172084e-06
50	0xb884ca3a	-6.331918e-05
51	0x3738994d	1.1002948e-05
52	0x3a0daf79	0.00054048706
53	0x39c64e62	0.00037823903
54	0x392ed36c	0.00016672694
55	0x38da2e3f	0.00010403664
56	0x38701269	5.7237605e-05
57	0x384b9da2	4.854578e-05
58	0x36b2561a	5.314837e-06
59	0xb74840e3	-1.1936037e-05
60	0x37bb8028	2.2351815e-05
61	0x3935b526	0.00017328988
62	0x3a05fc07	0.00051111024
63	0x3a915757	0.0011088651
64	0x3acfe556	0.0015861194
65	0x3aa91054	0.0012898543
66	0x39830908	0.00024992996
67	0xb9cf3ec7	-0.0003952889
68	0xb9b4ae61	-0.00034462198
69	0xb9133129	-0.00014037326
70	0xb835e3d9	-4.3365962e-05
71	0xb7a94015	-2.017621e-05
72	0x38767c66	5.8766826e-05
73	0x3a2cc9fb	0.0006591377
74	0x3abab9ee	0.0014246085
75	0x3a120351	0.0005569952
76	0x37cb6a22	2.4248908e-05
77	0x33d6312f	9.974098e-08
78	0x2e26503e	3.78153e-11
79	0x26be37c6	1.3199016e-15
80	0x1da07a19	4.2477893e-21
81	0x12c80687	1.2623384e-27
82	0x0638630f	3.467933e-35
83	0x0000001b	3.8e-44
84	0x37dc634a	2.6272279e-05
85	0x39836df4	0.0002506819
86	0x3a27411f	0.0006380248
87	0x3a0ec3ad	0.0005446028
88	0x3995e6f2	0.00028591562
89	0xba1b43a7	-0.0005922862
90	0xba906e04	-0.0011019115
91	0xb9b7ef4e	-0.00035082776
92	0x38e905e2	0.000111114015
93	0x38834c76	6.260809e-05
94	0x38232bd3	3.8903043e-05
95	0x37f44ce0	2.9122864e-05
96	0x3312983c	3.413173e-08
97	0x3704d753	7.917947e-06
98	0x397dc8ce	0.00024202766
99	0x3a88ae28	0.0010427879
100	0x3a185f67	0.0005812556
101	0x381b2da6	3.6997393e-05
102	0x348522fb	2.4798632e-07
103	0x2f38203a	1.6746152e-10
104	0x2847ffcc	1.1102186e-14
105	0x1fa7d1e2	7.107447e-20
106	0x155722cb	4.344635e-26
107	0x09510876	2.5161438e-33
108	0x00000000	0.0
109	0x00000000	0.0
110	0x00000000	0.0
111	0x00000000	0.0
112	0x00000000	0.0
113	0x00000000	0.0
114	0x00000000	0.0
115	0x00000000	0.0
116	0x00000000	0.0
117	0x00000000	0.0
118	0x00000000	0.0
119	0x00000000	0.0
120	0xb8c7edf8	-9.5333846e-05
121	0xba0a8a1a	-0.0005284861
122	0xb991508a	-0.0002771656
123	0xb8454c8e	-4.7039757e-05
124	0xba8308f1	-0.0009997172
125	0xbb78db74	-0.00379726
126	0xbb14de19	-0.0022715388
127	0xb8fe2c1a	-0.000121198784
128	0x38dc3613	0.000105004896
129	0x390cb4b0	0.00013418752
130	0x38c883de	9.561305e-05
131	0x387e9b88	6.070317e-05
132	0x1a70c809	4.9792424e-23
133	0x23f88a05	2.6946667e-17
134	0x2bc31827	1.3862287e-12
135	0x31eab268	6.8305788e-09
136	0x365a958f	3.2571586e-06
137	0x391fb008	0.00015228998
138	0x3a37e593	0.0007015105
139	0x3963e127	0.00021732283
140	0xb99ea83c	-0.00030261453
141	0xb9814263	-0.0002465426
142	0xb8b48479	-8.607744e-05
143	0xb7b4613f	-2.1502956e-05

exp_avg_sq f4 [12, 12]
0	0x31003edf	1.866219e-09
1	0x34b56a8f	3.379141e-07
2	0x37799375	1.4875889e-05
3	0x38f1d639	0.000115316776
4	0x39dd5902	0.0004221872
5	0x3a0c1c8c	0.000534483
6	0x3930b825	0.00016853267
7	0x3652cdd3	3.1412244e-06
8	0x3365f946	5.354493e-08
9	0x34ac3a2d	3.2079825e-07
10	0x34423710	1.808769e-07
11	0x33a2f478	7.5881815e-08
12	0x3096058d	1.0915514e-09
13	0x33fe2e76	1.1836248e-07
14	0x36ab09f8	5.0973576e-06
15	0x3777c5b4	1.4768379e-05
16	0x3684cef9	3.9580013e-06
17	0x338588f2	6.218205e-08
18	0x32844a06	1.5400484e-08
19	0x2eff15e7	1.1599948e-10
20	0x3115ba3f	2.1788222e-09
21	0x3302a3bd	3.0416903e-08
22	0x32d3f6ab	2.4675805e-08
23	0x320f8935	8.354893e-09
24	0x00000000	0.0
25	0x00000000	0.0
26	0x00000000	0.0
27	0x00000000	0.0
28	0x00000000	0.0
29	0x00000000	0.0
30	0x00000000	0.0
31	0x00000000	0.0
32	0x00000000	0.0
33	0x00000000	0.0
34	0x00000000	0.0
35	0x00000000	0.0
36	0x33ad019e	8.0562344e-08
37	0x36f074bb	7.1661466e-06
38	0x37efe2c8	2.8596623e-05
39	0x380b7568	3.3249526e-05
40	0x37892439	1.634854e-05
41	0x390c06a4	0.00013353914
42	0x398b2e64	0.0002654671
43	0x386a6a30	5.5888842e-05
44	0x365a807a	3.2559315e-06
45	0x3489554f	2.558031e-07
46	0x337561f3	5.7132592e-08
47	0x328a3607	1.6089883e-08
48	0x2f1b9240	1.4149126e-10
49	0x31421e67	2.8247997e-09
50	0x34c0f5ba	3.5941576e-07
51	0x370cb5d8	8.386989e-06
52	0x378a2a97	1.6470714e-05
53	0x37999c48	1.8311795e-05
54	0x3736c490	1.0893811e-05
55	0x3658bd30	3.229663e-06
56	0x3514d28c	5.544068e-07
57	0x33dd3955	1.0301543e-07
58	0x3361ba21	5.2556178e-08
59	0x32f1c4cf	2.814559e-08
60	0x3253f3ac	1.2337221e-08
61	0x35560dcd	7.9741295e-07
62	0x36c816f0	5.9631348e-06
63	0x37f2951c	2.8918083e-05
64	0x3873e2fe	5.8147118e-05
65	0x381caebe	3.735604e-05
66	0x3724f20d	9.831519e-06
67	0x3714fc22	8.880192e-06
68	0x363a1bef	2.773242e-06
69	0x34907f64	2.691478e-07
70	0x32f1182f	2.806709e-08
71	0x32058e55	7.7739815e-09
72	0x33b2bc8e	8.323069e-08
73	0x3779947e	1.487613e-05
74	0x38ba8d21	8.8954584e-05
75	0x374b68a1	1.2124104e-05
76	0x32a4c797	1.9182876e-08
77	0x2a9e558f	2.8125806e-13
78	0x1f2b8e4e	3.632837e-20
79	0x104f205d	4.0848484e-29
80	0x0004565e	3.98325e-40
81	0x00000000	0.0
82	0x00000000	0.0
83	0x00000000	0.0
84	0x331ac0f9	3.6031427e-08
85	0x36600a83	3.338472e-06
86	0x37c3b4cd	2.3330003e-05
87	0x37f1c491	2.8820972e-05
88	0x3811fc6f	3.480579e-05
89	0x3801c10a	3.093578e-05
90	0x37a7a3ae	1.998417e-05
91	0x36b24738	5.3131043e-06
92	0x3555d189	7.9653597e-07
93	0x342ef5dd	1.6294457e-07
94	0x3365347a	5.3365945e-08
95	0x32b18b12	2.0668754e-08
96	0x28a9cbbc	1.8851125e-14
97	0x308fe05f	1.046839e-09
98	0x3589cc92	1.0266833e-06
99	0x37ac81f7	2.0564517e-05
100	0x36e5b69b	6.84599e-06
101	0x32f844ea	2.8902338e-08
102	0x2bb9f8ba	1.3214076e-12
103	0x21323ef8	6.0392084e-19
104	0x1350d5b2	2.635865e-27
105	0x021134c8	1.0668065e-37
106	0x00000000	0.0
107	0x00000000	0.0
108	0x00000000	0.0
109	0x00000000	0.0
110	0x00000000	0.0
111	0x00000000	0.0
112	0x00000000	0.0
113	0x00000000	0.0
114	0x00000000	0.0
115	0x00000000	0.0
116	0x00000000	0.0
117	0x00000000	0.0
118	0x00000000	0.0
119	0x00000000	0.0
120	0x341ecd2c	1.4789538e-07
121	0x36992449	4.5639795e-06
122	0x35ab59c1	1.2766615e-06
123	0x3319da20	3.5821472e-08
124	0x3777365b	1.4735003e-05
125	0x39487951	0.0001911868
126	0x38d83fc6	0.00010311561
127	0x37fc8e09	3.0106881e-05
128	0x35eae512	1.7501027e-06
129	0x358d19e9	1.051286e-06
130	0x35317090	6.610144e-07
131	0x3482be40	2.4352812e-07
132	0x0000000f	2.1e-44
133	0x0b021338	2.5051548e-32
134	0x1aaafa62	7.071487e-23
135	0x2705a957	1.8549257e-15
136	0x300178f0	4.710179e-10
137	0x35a860f0	1.2545188e-06
138	0x382f1485	4.174236e-05
139	0x37d234e7	2.5058585e-05
140	0x3639031e	2.7568963e-06
141	0x355dfdbf	8.2698165e-07
142	0x33b09250	8.222253e-08
143	0x32176188	8.811533e-09

exp_avg f4 [24, 12]
0	0x3b54cfad	0.0032472417
1	0x39b28057	0.00034046426
2	0x00000000	0.0
3	0x3ac2131e	0.0014806723
4	0x3a6cd380	0.00090342015
5	0x3b07e5ee	0.0020736414
6	0x376bee83	1.4062624e-05
7	0x3a805c9a	0.0009793222
8	0x390aaa0d	0.00013224054
9	0x00000000	0.0
10	0x3a1653c2	0.0005734527
11	0x387b1e8f	5.9871523e-05
12	0x3b0cada1	0.0021465796
13	0x39a3ed78	0.0003126671
14	0x00000000	0.0
15	0x3ac9a84b	0.0015385238
16	0x3a31923a	0.00067738036
17	0x3ae47830	0.0017430838
18	0x36f5f437	7.3299993e-06
19	0x3a4c2631	0.00077876734
20	0x38d20d96	0.00010016111
21	0x00000000	0.0
22	0x3a0d9c9c	0.000540206
23	0x38bf6f59	9.12833e-05
24	0xbaaab9fe	-0.0013025401
25	0xb91d9975	-0.00015029854
26	0x00000000	0.0
27	0xba0f1ef2	-0.00054596283
28	0xb9ae99e7	-0.00033302532
29	0xba4bcd50	-0.00077744294
30	0xb70d6c5a	-8.4294825e-06
31	0xb9b708c6	-0.00034911017
32	0xb82d1293	-4.1263713e-05
33	0x00000000	0.0
34	0xb916843c	-0.00014354376
35	0x37a61758	1.9799612e-05
36	0x3aa970a8	0.0012927251
37	0x38d17db6	9.989312e-05
38	0x00000000	0.0
39	0xb7cac694	-2.4172747e-05
40	0xb828eec9	-4.0276707e-05
41	0x3855779b	5.089455e-05
42	0x36acaa9c	5.145861e-06
43	0xb969c8e1	-0.00022295445
44	0x38a4c0af	7.8560195e-05
45	0x00000000	0.0
46	0x393145ef	0.00016906088
47	0xba003fd7	-0.00048923254
48	0x3b784659	0.0037883727
49	0x3a1cf3d7	0.00059872627
50	0x00000000	0.0
51	0x3b2f6ed5	0.0026768942
52	0x3aa4da5a	0.0012577281
53	0x3b4c2a32	0.003115308
54	0x36de8288	6.6313114e-06
55	0x3abd3120	0.0014434196
56	0x395c0762	0.00020983585
57	0x00000000	0.0
58	0x3a7c01af	0.0009613288
59	0x39944875	0.00028282744
60	0x3a6ef652	0.0009115684
61	0x38d4ed35	0.00010153131
62	0x00000000	0.0
63	0x3a1c80c2	0.0005970114
64	0x39942a74	0.0002826039
65	0x3a340a13	0.0006867956
66	0x367ee43b	3.7981797e-06
67	0x39af4a0a	0.00033433764
68	0x37caec16	2.4190213e-05
69	0x00000000	0.0
70	0x3968aae6	0.00022188909
71	0x37c2d840	2.3227301e-05
72	0xba54ee05	-0.0008122626
73	0xb9247eca	-0.00015687491
74	0x00000000	0.0
75	0x3a0aa4f1	0.00052888604
76	0x3968a1d8	0.00022185536
77	0x39a7b523	0.0003198768
78	0x321e472f	9.212996e-09
79	0x39e1792c	0.00043005624
80	0xb881ec83	-6.195253e-05
81	0x00000000	0.0
82	0x3948a655	0.0001913545
83	0x39f61ae5	0.00046940814
84	0xb8cfe554	-9.913245e-05
85	0xb85b3d67	-5.2270854e-05
86	0x00000000	0.0
87	0xba9cb868	-0.0011956813
88	0xb9d64601	-0.00040869418
89	0xba7b0361	-0.00095753936
90	0x3735ce5f	1.083649e-05
91	0xba12d5d1	-0.0005601319
92	0x377ccb82	1.5067753e-05
93	0x00000000	0.0
94	0xb9e9912b	-0.00044549382
95	0xb9b6b952	-0.0003485182
96	0xb899956e	-7.323442e-05
97	0xb88a9e59	-6.609847e-05
98	0x00000000	0.0
99	0x3918948e	0.0001455119
100	0x389300e1	7.00967e-05
101	0x38ef7067	0.00011417345
102	0xb59f7b1f	-1.1882256e-06
103	0x38da74bc	0.000104167935
104	0xb71aa133	-9.216647e-06
105	0x00000000	0.0
106	0x38e08e43	0.00010707651
107	0x38a6142c	7.919254e-05
108	0xb9cf1ed1	-0.00039505077
109	0xb999891d	-0.0002928459
110	0x00000000	0.0
111	0xbac2edd0	-0.0014871899
112	0xba099097	-0.0005247681
113	0xbab310a5	-0.0013661577
114	0xb5844229	-9.854022e-07
115	0xba5352d5	-0.0008061354
116	0xb8315e59	-4.2287957e-05
117	0x00000000	0.0
118	0xb9964552	-0.00028661877
119	0xba043ff0	-0.0005044928
120	0xbbb59f8b	-0.0055427006
121	0xb9cac94c	-0.0003867842
122	0x00000000	0.0
123	0x3a81f213	0.0009914063
124	0xb919515d	-0.00014621527
125	0xb9e809b5	-0.0004425772
126	0xb79b7b1d	-1.8534769e-05
127	0x3a0a7ddc	0.0005283037
128	0xb9892a73	-0.00026162303
129	0x00000000	0.0
130	0xb7f05f5e	-2.8654638e-05
131	0x3abd4da5	0.0014442696
132	0x3b9266fc	0.004467843
133	0x3a06609c	0.000512609
134	0x00000000	0.0
135	0x3ad4d0fa	0.0016236596
136	0x3a896f7e	0.0010485498
137	0x3b223852	0.0024752808
138	0x37c09e39	2.2961862e-05
139	0x3a7e5595	0.0009702084
140	0x3937c9ac	0.00017527369
141	0x00000000	0.0
142	0x3a16ab18	0.0005747541
143	0xb9298c68	-0.00016169401
144	0x3bb5a93a	0.005543855
145	0x3a3c1a7c	0.00071755773
146	0x00000000	0.0
147	0x3aff4166	0.0019474446
148	0x3a8ed750	0.0010897908
149	0x3b394e27	0.0028275342
150	0x37c551e7	2.3522369e-05
151	0x3a803a93	0.0009783081
152	0x39806151	0.0002448657
153	0x00000000	0.0
154	0x3a3e7b6e	0.0007266317
155	0xb9ee81c5	-0.00045491583
156	0xba3ba41f	-0.000715794
157	0xb8a3851b	-7.7972385e-05
158	0x00000000	0.0
159	0xb9e0ab57	-0.00042852268
160	0xb9714eb6	-0.00023012873
161	0xba0dd159	-0.00054099184
162	0xb60221c1	-1.9391157e-06
163	0xb98aebc9	-0.00026497085
164	0xb8060912	-3.1956537e-05
165	0x00000000	0.0
166	0xb91ba346	-0.00014842776
167	0xb83e0ee6	-4.5313405e-05
168	0xbad1ead4	-0.0016015419
169	0xb987dc3c	-0.00025913294
170	0x00000000	0.0
171	0x398f551f	0.00027338506
172	0xb8ab1adb	-8.1589176e-05
173	0xb96ee606	-0.00022783139
174	0xb773b264	-1.45254635e-05
175	0x36deefe8	6.6440443e-06
176	0xb8cfc16d	-9.9065575e-05
177	0x00000000	0.0
178	0x395baa43	0.00020948895
179	0x398cf5a3	0.00026885894
180	0x3b07c9d6	0.0020719669
181	0x397d9a75	0.000241855
182	0x00000000	0.0
183	0x3a83b1c7	0.0010047489
184	0x3a0ae037	0.0005297693
185	0x3aa82456	0.0012828212
186	0x3598c891	1.1383255e-06
187	0x3a06e1c3	0.00051453355
188	0x38ecb986	0.000112879134
189	0x00000000	0.0
190	0x39fbe455	0.0004804457
191	0xb8255cf8	-3.942565e-05
192	0x3b1279cb	0.0022350426
193	0x39f5be89	0.00046872
194	0x00000000	0.0
195	0x3b1be73e	0.0023788954
196	0x3a731fce	0.00092744536
197	0x3b2057b6	0.0024466342
198	0x373a5187	1.1105446e-05
199	0x3a99a00b	0.001172067
200	0x3903208f	0.00012505263
201	0x00000000	0.0
202	0x3a3c6211	0.0007186244
203	0x39b496eb	0.00034444718
204	0x3bee9b8c	0.007281726
205	0x3ad2a353	0.0016070403
206	0x00000000	0.0
207	0x3c2224fd	0.009896514
208	0x3b7c071b	0.0038456384
209	0x3c20e7b6	0.009820869
210	0x37e9cb35	2.787039e-05
211	0x3baa6dda	0.0052010836
212	0x39c5d9fb	0.00037737176
213	0x00000000	0.0
214	0x3b45a076	0.0030155457
215	0x3b054845	0.0020337265
216	0xbb0f5f68	-0.0021876935
217	0xb9685777	-0.00022157827
218	0x00000000	0.0
219	0xb9983a47	-0.0002903512
220	0xb9d6ca4d	-0.00040967987
221	0xba5e7b6b	-0.00084870186
222	0xb71e32e6	-9.429385e-06
223	0xb9ace5f4	-0.00032977725
224	0xb8903ef5	-6.878182e-05
225	0x00000000	0.0
226	0xb8a41d6e	-7.825611e-05
227	0x391ecfad	0.0001514542
228	0x3c061117	0.0081827855
229	0x3a8e1f31	0.0010843036
230	0x00000000	0.0
231	0x3b682859	0.003542444
232	0x3b00e0f4	0.0019665333
233	0x3ba1d83b	0.0049391068
234	0x37c9d646	2.4060846e-05
235	0x3b008eb9	0.001961632
236	0x39d29597	0.00040165774
237	0x00000000	0.0
238	0x3aabb570	0.0013100337
239	0xb94e04b0	-0.00019647437
240	0x3bf2a864	0.0074053276
241	0x3a65599c	0.00087490096
242	0x00000000	0.0
243	0x3b8655d4	0.004099587
244	0x3b105208	0.002202155
245	0x3baa4d50	0.0051972046
246	0x37d40e62	2.5279067e-05
247	0x3b1a401c	0.0023536747
248	0x399e798e	0.00030226674
249	0x00000000	0.0
250	0x3aca35b2	0.0015427379
251	0x394cf968	0.00019547867
252	0xba24891b	-0.0006276534
253	0xb727c527	-9.999879e-06
254	0x00000000	0.0
255	0xbadbd848	-0.0016772831

exp_avg_sq f4 [24, 12]
0	0x3917e0be	0.00014484205
1	0x35bea99b	1.4205465e-06
2	0x00000000	0.0
3	0x37954412	1.7793882e-05
4	0x3708008d	8.10636e-06
5	0x38223675	3.8674527e-05
6	0x31390bf8	2.6927847e-09
7	0x3718c44e	9.105612e-06
8	0x348d5db5	2.6331477e-07
9	0x00000000	0.0
10	0x361b01c6	2.3097832e-06
11	0x3555573d	7.947563e-07
12	0x388816fb	6.489266e-05
13	0x35eafde5	1.7508252e-06
14	0x00000000	0.0
15	0x380dbbdf	3.379199e-05
16	0x36c4fca2	5.8706655e-06
17	0x382fcd3c	4.191439e-05
18	0x3103b4ef	1.9165858e-09
19	0x37103e91	8.597636e-06
20	0x342d2243	1.6124345e-07
21	0x00000000	0.0
22	0x3685e1f1	3.990012e-06
23	0x33d4a32b	9.9016994e-08
24	0x37a17a58	1.9249666e-05
25	0x345e4d68	2.0703521e-07
26	0x00000000	0.0
27	0x36df2b4e	6.650959e-06
28	0x35d489ce	1.5835337e-06
29	0x3717dc96	9.0516605e-06
30	0x3081be9c	9.44016e-10
31	0x36042568	1.9691306e-06
32	0x32637345	1.3239348e-08
33	0x00000000	0.0
34	0x3590ed9b	1.0797988e-06
35	0x334d82df	4.784931e-08
36	0x38375d08	4.3717242e-05
37	0x35084245	5.0760383e-07
38	0x00000000	0.0
39	0x371f0d64	9.480256e-06
40	0x3616394b	2.238509e-06
41	0x37490aab	1.1983017e-05
42	0x30038c6a	4.785706e-10
43	0x36a359e0	4.8682414e-06
44	0x33f7e75a	1.15439164e-07
45	0x00000000	0.0
46	0x35b7b475	1.3687082e-06
47	0x369ff0d1	4.766604e-06
48	0x397030a1	0.000229063
49	0x36f0fb9e	7.1818495e-06
50	0x00000000	0.0
51	0x38ecabd0	0.000112853595
52	0x37bcc9db	2.2505343e-05
53	0x391d5723	0.00015005148
54	0x312324d0	2.3740547e-09
55	0x381340c7	3.510786e-05
56	0x353dbc05	7.068159e-07
57	0x00000000	0.0
58	0x3770c0e3	1.4350025e-05
59	0x35612d5f	8.3885055e-07
60	0x3733e96c	1.0723579e-05
61	0x3420e87a	1.4985736e-07
62	0x00000000	0.0
63	0x36dee453	6.642696e-06
64	0x35adbe26	1.2944845e-06
65	0x3704e1f1	7.920419e-06
66	0x2fa35a21	2.9713568e-10
67	0x3608ff19	2.0414066e-06
68	0x3214d706	8.6636245e-09
69	0x00000000	0.0
70	0x35915ce6	1.0830379e-06
71	0x33ba5d6e	8.678295e-08
72	0x3a23110b	0.0006220496
73	0x373b84a1	1.1176949e-05
74	0x00000000	0.0
75	0x3933c764	0.00017145049
76	0x38343fa4	4.2974614e-05
77	0x398bef0d	0.00026690253
78	0x32277398	9.746962e-09
79	0x385dc2a5	5.2871783e-05
80	0x3595a6a8	1.1149868e-06
81	0x00000000	0.0
82	0x37dfb545	2.6668082e-05
83	0x36124972	2.1798446e-06
84	0x381def33	3.765449e-05
85	0x35514426	7.7957736e-07
86	0x00000000	0.0
87	0x388d9ae4	6.7522546e-05
88	0x3714a77d	8.860484e-06
89	0x385e12a5	5.294629e-05
90	0x31271798	2.431511e-09
91	0x37855284	1.589326e-05
92	0x33ef992f	1.1157169e-07
93	0x00000000	0.0
94	0x3747b6b7	1.1903866e-05
95	0x36657495	3.4191519e-06
96	0x36b5de5b	5.420106e-06
97	0x349000e0	2.6822727e-07
98	0x00000000	0.0
99	0x3653c81b	3.1557927e-06
100	0x3527f2c8	6.256564e-07
101	0x3658d53b	3.2310625e-06
102	0x2f977f34	2.7557123e-10
103	0x35867de8	1.0020422e-06
104	0x329a13a5	1.7936893e-08
105	0x00000000	0.0
106	0x35884988	1.015419e-06
107	0x34407b7e	1.792632e-07
108	0x377c379f	1.5033321e-05
109	0x3624e3e9	2.4570566e-06
110	0x00000000	0.0
111	0x3878451f	5.919218e-05
112	0x36db67c3	6.538788e-06
113	0x38505248	4.9667695e-05
114	0x3024e60a	5.998976e-10
115	0x3787bb1a	1.618038e-05
116	0x339d0fa8	7.31373e-08
117	0x00000000	0.0
118	0x3675784f	3.6577874e-06
119	0x36841873	3.936753e-06
120	0x39f7969a	0.00047223718
121	0x36bcd52f	5.6276544e-06
122	0x00000000	0.0
123	0x38d481a0	0.00010133092
124	0x37bfbcf0	2.2856955e-05
125	0x3904c3e8	0.00012661482
126	0x31c02c54	5.592975e-09
127	0x3823feea	3.9099636e-05
128	0x3579d75b	9.307311e-07
129	0x00000000	0.0
130	0x372b9f06	1.022942e-05
131	0x38068267	3.2069536e-05
132	0x39a6d094	0.0003181739
133	0x36ac7ee1	5.14077e-06
134	0x00000000	0.0
135	0x38867aa4	6.4124615e-05
136	0x37a1ba31	1.9279398e-05
137	0x38ea595a	0.000111746325
138	0x3220b9d1	9.3554755e-09
139	0x37d32217	2.5169034e-05
140	0x3515816d	5.5695165e-07
141	0x00000000	0.0
142	0x37008620	7.660623e-06
143	0x364e8c26	3.077797e-06
144	0x39cd210d	0.00039125272
145	0x36dfce0a	6.669904e-06
146	0x00000000	0.0
147	0x38eb0a3c	0.000112075795
148	0x37abb69b	2.046982e-05
149	0x391a348e	0.00014706163
150	0x31f5ee6d	7.1575443e-09
151	0x37db82a2	2.6167665e-05
152	0x35107eaa	5.38285e-07
153	0x00000000	0.0
154	0x37b6a1e5	2.1771479e-05
155	0x368a2034	4.1164694e-06
156	0x380ca50f	3.3532324e-05
157	0x34f86c7e	4.6272538e-07
158	0x00000000	0.0
159	0x376747ca	1.3785388e-05
160	0x36648883	3.4054108e-06
161	0x37a4d86f	1.9651108e-05
162	0x3064f4e2	8.3293916e-10
163	0x36972744	4.504722e-06
164	0x333eb1c6	4.4399506e-08
165	0x00000000	0.0
166	0x360946cd	2.0455802e-06
167	0x34146904	1.3821779e-07
168	0x392e9eb7	0.00016653059
169	0x368cf1a8	4.2004576e-06
170	0x00000000	0.0
171	0x38615237	5.372075e-05
172	0x36dfa021	6.6645594e-06
173	0x38285b64	4.0139435e-05
174	0x3203c466	7.669859e-09
175	0x372dc31d	1.0357032e-05
176	0x353b3174	6.973489e-07
177	0x00000000	0.0
178	0x37772250	1.4730336e-05
179	0x36928b91	4.3673867e-06
180	0x39001e30	0.00012218277
181	0x35e7744d	1.7244689e-06
182	0x00000000	0.0
183	0x37f41a92	2.909944e-05
184	0x370fe751	8.577322e-06
185	0x384a93f8	4.829836e-05
186	0x2eb9aa00	8.443024e-11
187	0x3721402e	9.611291e-06
188	0x34915632	2.707107e-07
189	0x00000000	0.0
190	0x36e6f816	6.883415e-06
191	0x339c52a6	7.27935e-08
192	0x38cef75f	9.868922e-05
193	0x3691c4db	4.3442537e-06
194	0x00000000	0.0
195	0x38b90bb4	8.823667e-05
196	0x376818c7	1.38340465e-05
197	0x38d22308	0.000100201054
198	0x315d47ab	3.2200471e-09
199	0x37ca9542	2.414978e-05
200	0x349b28f3	2.8900794e-07
201	0x00000000	0.0
202	0x370a0a02	8.227771e-06
203	0x35b45119	1.3434648e-06
204	0x3a99868e	0.0011713074
205	0x386d7241	5.661161e-05
206	0x00000000	0.0
207	0x3afbc685	0.0019208944
208	0x399360f4	0.0002811026
209	0x3afad8e5	0.0019138126
210	0x330186d1	3.0157768e-08
211	0x3a107d6d	0.0005511854
212	0x3648db68	2.9930034e-06
213	0x00000000	0.0
214	0x394f052a	0.00019742982
215	0x388c75d3	6.697667e-05
216	0x3851e25e	5.0040304e-05
217	0x35224fc2	6.0465766e-07
218	0x00000000	0.0
219	0x37a14e68	1.9229206e-05
220	0x36294050	2.5220397e-06
221	0x3783c166	1.5706475e-05
222	0x3062762f	8.238627e-10
223	0x368ac4ff	4.135654e-06
224	0x338b1530	6.476546e-08
225	0x00000000	0.0
226	0x363753d8	2.7317928e-06
227	0x35f3cc29	1.8164329e-06
228	0x3aabe4d8	0.0013114465
229	0x37f039a3	2.8637069e-05
230	0x00000000	0.0
231	0x39fa35d4	0.0004772382
232	0x38cc5ff6	9.745352e-05
233	0x3a2d785e	0.00066173624
234	0x32938b35	1.7176356e-08
235	0x3911debf	0.00013911257
236	0x362d94e0	2.5865666e-06
237	0x00000000	0.0
238	0x389ec471	7.570617e-05
239	0x35bd9034	1.4123566e-06
240	0x3a3ace94	0.00071261195
241	0x3724f75e	9.832756e-06
242	0x00000000	0.0
243	0x3920409e	0.00015282861
244	0x38585be8	5.1584007e-05
245	0x39941b1e	0.00028248964
246	0x3231b181	1.0343116e-08
247	0x387fbbd3	6.0971663e-05
248	0x359b97e3	1.1592605e-06
249	0x00000000	0.0
250	0x37bf2645	2.2786795e-05
251	0x3585c59b	9.966783e-07
252	0x382e7d02	4.1601255e-05
253	0x3541dce5	7.2219547e-07
254	0x00000000	0.0
255	0x38ec9d30	0.000112826354

exp_avg f4 [12]
0	0x3c3217a4	0.010869894
1	0x3a263f3f	0.0006341822
2	0x00000000	0.0
3	0xbc0c9f4a	-0.008582899
4	0x3a427ca2	0.00074190844
5	0x3b201c83	0.0024431057
6	0x3adbcc17	0.0016769198
7	0xb79dd799	-1.8816254e-05
8	0x3a9a32bc	0.0011764388
9	0x00000000	0.0
10	0xbb9a387b	-0.00470644
11	0x3985e50b	0.00025538387

exp_avg_sq f4 [12]
0	0x3b02415d	0.0019875385
1	0x37fb85b8	2.99838e-05
2	0x00000000	0.0
3	0x3a978bbe	0.0011562032
4	0x38af2db8	8.353166e-05
5	0x39475842	0.00019010997
6	0x38e967ad	0.00011129617
7	0x398a1ec1	0.00026344325
8	0x37de44e8	2.649655e-05
9	0x00000000	0.0
10	0x39c2cd48	0.0003715551
11	0x3860d606	5.3605087e-05

exp_avg f4 [24]
0	0x3aed6367	0.0018111289
1	0x3abb86b3	0.0014307111
2	0xba3990e7	-0.0007078782
3	0x39db43bc	0.000418214
4	0x3b25172b	0.002519081
5	0x3a1b3c88	0.00059218006
6	0xb8ef50a3	-0.00011411428
7	0xba11188a	-0.00055349676
8	0x37f8aa8a	2.9643317e-05
9	0xba494111	-0.0007677237
10	0xbad96bc9	-0.0016587909
11	0x3b19c9b9	0.0023466183
12	0x3b3cbe63	0.0028800003
13	0xb9e67261	-0.00043954237
14	0xb9e98e76	-0.00044547365
15	0x3a9ab544	0.0011803289
16	0x3aee3cb0	0.0018176045
17	0x3bdf3fb3	0.0068130135
18	0xba763a50	-0.00093928445
19	0x3b952452	0.004551449
20	0x3b9243f5	0.0044636675
21	0xba79bb0b	-0.0009526468
22	0xb98260e2	-0.00024867716
23	0x3a281af5	0.00064127083

exp_avg_sq f4 [24]
0	0x3809cff9	3.2857035e-05
1	0x37f21c68	2.8861876e-05
2	0x36f83872	7.397547e-06
3	0x371ec111	9.462486e-06
4	0x38d30d02	0.00010063687
5	0x36b2b333	5.325675e-06
6	0x3962d948	0.00021633983
7	0x37dad23b	2.6085521e-05
8	0x35f2c039	1.8086349e-06
9	0x37a4e5a7	1.9657264e-05
10	0x38d5530a	0.00010172099
11	0x38bfc342	9.143959e-05
12	0x3910fd7a	0.00013827338
13	0x3765aa4e	1.3689116e-05
14	0x37f2d5ed	2.8948265e-05
15	0x382a3ce0	4.0587853e-05
16	0x3872b70d	5.7867775e-05
17	0x3a77ccd2	0.0009452823
18	0x372f613f	1.0453455e-05
19	0x3a076073	0.00051642134
20	0x396d2cd9	0.00022618788
21	0x382e924f	4.1621093e-05
22	0x3952c0e4	0.00020099018
23	0x374a8645	1.20714e-05

exp_avg f4 [12, 12]
0	0xb80c5a74	-3.3462842e-05
1	0x3815d33c	3.5721096e-05
2	0x3a0693e4	0.0005133732
3	0xbad6c4b3	-0.0016385525
4	0xbb881fff	-0.004154205
5	0xbb142a99	-0.0022608398
6	0xb94ab61c	-0.00019332062
7	0xb59a7e96	-1.1510735e-06
8	0xb740e9c2	-1.1498518e-05
9	0xb90b0236	-0.00013256897
10	0xb966e2df	-0.00022019025
11	0xb8de42fa	-0.0001059826
12	0x310c0d2c	2.0380169e-09
13	0xb5c73a92	-1.4843702e-06
14	0xb97569e0	-0.00023404462
15	0xbb202e25	-0.0024441567
16	0xbb890ee2	-0.0041826824
17	0xbb7b23b2	-0.0038320837
18	0x39c43b95	0.00037428425
19	0x3a35ab48	0.0006930125
20	0x382157d0	3.8467173e-05
21	0x34606684	2.089892e-07
22	0x2ef92f6b	1.1331632e-10
23	0x27d7d844	5.9908963e-15
24	0xb8cfe7e8	-9.913725e-05
25	0xba1fb350	-0.00060920883
26	0xba58007f	-0.000823982
27	0xba935281	-0.0011239798
28	0x39fd8de5	0.0004836164
29	0x3b0622ff	0.0020467637
30	0x39a712d6	0.00031866756
31	0xb9fe012d	-0.0004844753
32	0xba9a8ecf	-0.0011791828
33	0xba7a65f4	-0.00095519354
34	0xb9b219f0	-0.0003397013
35	0xb8276427	-3.9909177e-05
36	0x3879213e	5.9397185e-05
37	0x3a09a6fb	0.0005251017
38	0x3ae5a1a4	0.0017519486
39	0x3b8ce9a7	0.0043003145
40	0x3bb59064	0.0055408943
41	0x3b3a9847	0.0028472112
42	0x398bef86	0.00026690605
43	0x38242e1a	3.9143582e-05
44	0x392471e8	0.00015682692
45	0x3949d580	0.00019248389
46	0x38af6169	8.362794e-05
47	0x37e23d60	2.696988e-05
48	0x00000000	0.0
49	0x00000000	0.0
50	0x00000000	0.0
51	0x00000000	0.0
52	0x00000000	0.0
53	0x00000000	0.0
54	0x00000000	0.0
55	0x00000000	0.0
56	0x00000000	0.0
57	0x00000000	0.0
58	0x00000000	0.0
59	0x00000000	0.0
60	0x00000000	0.0
61	0x00000000	0.0
62	0x00000000	0.0
63	0x00000000	0.0
64	0x00000000	0.0
65	0x00000000	0.0
66	0x00000000	0.0
67	0x00000000	0.0
68	0x00000000	0.0
69	0x00000000	0.0
70	0x00000000	0.0
71	0x00000000	0.0
72	0x386846a3	5.5378896e-05
73	0x39e594c6	0.00043789129
74	0x3a36ec0e	0.0006977924
75	0x39cd4577	0.00039152402
76	0x38370e42	4.364388e-05
77	0x38ca5599	9.6480544e-05
78	0x3999e3c1	0.00029352124
79	0x38b082a3	8.416667e-05
80	0x3640c10b	2.8722595e-06
81	0x3789b13a	1.64142e-05
82	0x3863a136	5.4271157e-05
83	0x382f4f21	4.1796946e-05
84	0x392d604e	0.00016534442
85	0x3a7ae3e4	0.00095707015
86	0x3a9b6a75	0.0011857288
87	0x39b89116	0.00035203312
88	0xbb37d2ec	-0.0028049303
89	0xba82a748	-0.0009968067
90	0x3b10c005	0.0022087109
91	0x3add2c8b	0.0016874237
92	0x3a3c2fcf	0.0007178755
93	0x39708b8a	0.00022940166
94	0x391ea195	0.00015128248
95	0x388e07a6	6.772512e-05
96	0x00000000	0.0
97	0x00000000	0.0
98	0x00000004	6e-45
99	0x00000004	6e-45
100	0x00000004	6e-45
101	0x00000004	6e-45
102	0x00000004	6e-45
103	0x00000004	6e-45
104	0x00000004	6e-45
105	0x00000004	6e-45
106	0x00000004	6e-45
107	0x00000004	6e-45
108	0x38ef036e	0.00011397047
109	0x3ab41d34	0.0013741613
110	0x3b9dc40b	0.00481463
111	0x3b866f70	0.00410264
112	0x3a2f8d58	0.0006696782
113	0x37813b2e	1.5405556e-05
114	0x3327bc95	3.9054232e-08
115	0xb3c566b6	-9.1922104e-08
116	0xb7339598	-1.0704061e-05
117	0xb91377d5	-0.00014063653
118	0xb99699ae	-0.0002872473
119	0xb9555487	-0.00020344752
120	0x38c1139d	9.2066104e-05
121	0x3a0885d7	0.0005207932
122	0x398612bf	0.0002557244
123	0xbb32e17f	-0.002729505
124	0xbbf491ec	-0.0074636843
125	0xbc0f73b4	-0.008755613
126	0xbba069f1	-0.0048954417
127	0xbb1155bd	-0.0022176348
128	0xba945957	-0.0011318129
129	0xb9916917	-0.00027734853
130	0xb7317a2c	-1.05784675e-05
131	0x37bdc61f	2.2622813e-05
132	0x3620191c	2.3856473e-06
133	0x3791bc30	1.7372979e-05
134	0x3722f832	9.71374e-06
135	0x34ec12e7	4.397218e-07
136	0xb716133a	-8.945173e-06
137	0xb9f2871d	-0.00046258504
138	0xbb5d55e1	-0.0033773112
139	0xbbaa953e	-0.0052057793
140	0xbb1ef4c1	-0.0024254771
141	0xb986b3d9	-0.0002569247
142	0xb9429346	-0.00018556145
143	0xb976cefa	-0.00023537493

exp_avg_sq f4 [12, 12]
0	0x337b5346	5.851623e-08
1	0x35cab213	1.5101999e-06
2	0x37878e23	1.6159442e-05
3	0x3a327f48	0.00068091275
4	0x3b3abb4d	0.0028492988
5	0x3ac0a3da	0.0014697269
6	0x37e52da3	2.7320179e-05
7	0x32019ee7	7.5449185e-09
8	0x31290595	2.459591e-09
9	0x34cb88de	3.791128e-07
10	0x35b8a8ca	1.3758192e-06
11	0x34f2d132	4.5228222e-07
12	0x2766b286	3.201569e-15
13	0x308ff304	1.0473689e-09
14	0x36a1b1ef	4.818888e-06
15	0x39ac64f4	0.00032881612
16	0x3aa5793a	0.0012624629
17	0x3ae61784	0.0017554616
18	0x39cdd5d7	0.0003925997
19	0x37a07059	1.9125802e-05
20	0x331f840b	3.7140165e-08
21	0x2b84bf31	9.43223e-13
22	0x209591e0	2.5338114e-19
23	0x125282cc	6.6425536e-28
24	0x347328c1	2.2645965e-07
25	0x36fef9fc	7.598892e-06
26	0x37b73730	2.1840999e-05
27	0x389e0ba3	7.5361946e-05
28	0x39cfbfe7	0.00039625095
29	0x3a51888e	0.00079930655
30	0x3943e967	0.00018683598
31	0x38038d20	3.1364267e-05
32	0x38279408	3.9953768e-05
33	0x37976bcf	1.8050805e-05
34	0x3605c078	1.9930576e-06
35	0x32eed6e6	2.7804571e-08
36	0x34478469	1.858149e-07
37	0x37211ddc	9.6033e-06
38	0x38e3e647	0.00010867096
39	0x3a35503b	0.00069165573
40	0x3adc3963	0.001680177
41	0x39fe0c39	0.00048455762
42	0x368d0fac	4.203952e-06
43	0x35de9b1a	1.6585429e-06
44	0x3677b844	3.6913125e-06
45	0x353d7a53	7.058599e-07
46	0x33b3454c	8.347942e-08
47	0x328d251b	1.6431434e-08
48	0x00000000	0.0
49	0x00000000	0.0
50	0x00000000	0.0
51	0x00000000	0.0
52	0x00000000	0.0
53	0x00000000	0.0
54	0x00000000	0.0
55	0x00000000	0.0
56	0x00000000	0.0
57	0x00000000	0.0
58	0x00000000	0.0
59	0x00000000	0.0
60	0x00000000	0.0
61	0x00000000	0.0
62	0x00000000	0.0
63	0x00000000	0.0
64	0x00000000	0.0
65	0x00000000	0.0
66	0x00000000	0.0
67	0x00000000	0.0
68	0x00000000	0.0
69	0x00000000	0.0
70	0x00000000	0.0
71	0x00000000	0.0
72	0x331c5449	3.6398237e-08
73	0x35b8c398	1.3765994e-06
74	0x36936ad0	4.393376e-06
75	0x36896896	4.0950936e-06
76	0x33ec2ec3	1.0998112e-07
77	0x335b1fac	5.1018716e-08
78	0x34e83e71	4.32588e-07
79	0x33194719	3.568775e-08
80	0x2e6d1ec1	5.3914876e-11
81	0x32561662	1.2461529e-08
82	0x341f3a7e	1.4829308e-07
83	0x33ea2f9f	1.0905136e-07
84	0x35476022	7.427317e-07
85	0x37dfb15e	2.6666265e-05
86	0x381a40f6	3.677696e-05
87	0x3842d3bd	4.64504e-05
88	0x39f16131	0.00046039515
89	0x3a0ac7af	0.00052940374
90	0x393a6c9d	0.00017778804
91	0x3876c0c8	5.8830512e-05
92	0x37399c96	1.1063317e-05
93	0x3596183e	1.1182926e-06
94	0x345ba50e	2.0456011e-07
95	0x3362a2d4	5.2767817e-08
96	0x00000000	0.0
97	0x00000000	0.0
98	0x00000000	0.0
99	0x00000000	0.0
100	0x00000000	0.0
101	0x00000022	4.8e-44
102	0x000b2d4a	1.026437e-39
103	0x0d1a09f5	4.74669e-31
104	0x18663937	2.975569e-24
105	0x2073f45c	2.0663752e-19
106	0x252ee191	1.5168519e-16
107	0x26a8281d	1.1668214e-15
108	0x352bfc11	6.406927e-07
109	0x38a574fd	7.889604e-05
110	0x3a42c04c	0.0007429167
111	0x39f2a52f	0.00046280908
112	0x3734db24	1.0779859e-05
113	0x31b05112	5.131491e-09
114	0x29088fa8	3.0322668e-14
115	0x29df2d35	9.9110315e-14
116	0x30d56398	1.5526096e-09
117	0x34aa97c0	3.177538e-07
118	0x35cd5073	1.5297104e-06
119	0x354ec569	7.702825e-07
120	0x34c95418	3.7500354e-07
121	0x371eaa88	9.457239e-06
122	0x3716e6cb	8.994432e-06
123	0x39947979	0.00028319264
124	0x3a8cc588	0.0010740021
125	0x3ab47dd4	0.001377041
126	0x39d6adf4	0.00040946866
127	0x38a767a5	7.982486e-05
128	0x37e5fd34	2.7416834e-05
129	0x365544a0	3.1779418e-06
130	0x34588030	2.0163202e-07
131	0x33282880	3.9152383e-08
132	0x329c2750	1.8178667e-08
133	0x34b29562	3.3263774e-07
134	0x3360add6	5.2312167e-08
135	0x2e9b0967	7.050254e-11
136	0x308d3979	1.0275435e-09
137	0x3614b0f8	2.2156728e-06
138	0x38de1198	0.00010589062
139	0x398dbc0c	0.00027033722
140	0x3873940d	5.8073598e-05
141	0x351c39ce	5.8198646e-07
142	0x34e0e8c5	4.1892613e-07
143	0x355eb85e	8.2969734e-07

exp_avg f4 [24, 12]
0	0xb8b2240d	-8.4944164e-05
1	0xb993b478	-0.00028172485
2	0xba8e0aaf	-0.0010836924
3	0x384ae285	4.8371516e-05
4	0x00000000	0.0
5	0x00000000	0.0
6	0x3651b5e4	3.1249301e-06
7	0xbabc71d7	-0.0014377189
8	0x80000004	-6e-45
9	0xb9e4431a	-0.00043537543
10	0xbb1b75ea	-0.0023721405
11	0x38ea800b	0.00011181839
12	0xb93d12b9	-0.0001803142
13	0xba135000	-0.0005619526
14	0xba40ba3a	-0.00073519687
15	0xb9453a57	-0.00018809117
16	0x00000000	0.0
17	0x00000000	0.0
18	0x370cd46b	8.394108e-06
19	0xb9fb94f9	-0.00047985444
20	0x80000004	-6e-45
21	0x38260a5f	3.9587143e-05
22	0xba504e03	-0.0007946195
23	0xb8211db7	-3.8413065e-05
24	0xba52d0b6	-0.00080419646
25	0xbb052d67	-0.0020321251
26	0xbb5f7321	-0.0034095722
27	0xbad3d7ba	-0.0016162314
28	0x00000000	0.0
29	0x00000000	0.0
30	0xb777a750	-1.4761303e-05
31	0xbb3e298c	-0.0029016463
32	0x80000004	-6e-45
33	0xb6f1a476	-7.2015055e-06
34	0xbb8b8228	-0.004257459
35	0xb920a14e	-0.0001531888
36	0x3a9cf985	0.0011976218
37	0x3b69c803	0.0035672195
38	0x3bcb855a	0.006210965
39	0x3b80a9f0	0.003926508
40	0x00000000	0.0
41	0x00000000	0.0
42	0x3889e186	6.574676e-05
43	0x3c2b5fcd	0.010459852
44	0x80000004	-6e-45
45	0x387b60b1	5.9933114e-05
46	0x3bfe5f0b	0.007762795
47	0x3aaf5fc2	0.0013379978
48	0x3a97c095	0.001157778
49	0x3b467954	0.003028472
50	0x3bb45e01	0.00550437
51	0x3b1b04e6	0.0023654043
52	0x00000000	0.0
53	0x00000000	0.0
54	0x37437eee	1.1652459e-05
55	0x3bb563a1	0.0055355583
56	0x00000004	6e-45
57	0x399fee88	0.00030504563
58	0x3bfa2ead	0.0076349587
59	0x39544313	0.00020242883
60	0xba1c0755	-0.00059520203
61	0xbaf5849a	-0.0018731535
62	0xbb25c642	-0.0025295173
63	0xbb17a0af	-0.0023136546
64	0x00000000	0.0
65	0x00000000	0.0
66	0xb6faf5ab	-7.47918e-06
67	0xbb85ceff	-0.0040835137
68	0x00000004	6e-45
69	0x3997488f	0.00028855025
70	0xbb0c0448	-0.0021364857
71	0xba501fc0	-0.00079393014
72	0xba5a025c	-0.00083163916
73	0xbabbb458	-0.0014320714
74	0xbb61ab25	-0.0034434285
75	0xbb52cac7	-0.0032164322
76	0x00000000	0.0
77	0x00000000	0.0
78	0xb83df6b7	-4.5290883e-05
79	0xbb76f7aa	-0.003768424
80	0x00000004	6e-45
81	0xb9e0971a	-0.0004283719
82	0xbba15e79	-0.004924592
83	0xb97c0286	-0.00024033533
84	0x3a0a4da4	0.00052758516
85	0x3a7b4376	0.00095849426
86	0x3aaf82ed	0.0013390459
87	0x3aa3ad09	0.0012487482
88	0x00000000	0.0
89	0x00000000	0.0
90	0x3799ea46	1.8348113e-05
91	0x397986c5	0.00023796696
92	0x80000004	-6e-45
93	0xb9425c3b	-0.0001853564
94	0x3a8ff1ec	0.0010982133
95	0xb80f0d6f	-3.4106368e-05
96	0xb98ea056	-0.0002720381
97	0xba10b2cf	-0.00055198086
98	0xbaaa76d5	-0.0013005385
99	0xba01c66f	-0.00049505284
100	0x00000000	0.0
101	0x00000000	0.0
102	0xb6ffdb5f	-7.6251304e-06
103	0xba813719	-0.0009858339
104	0x80000004	-6e-45
105	0xb9466751	-0.0001892124
106	0xbb07e8ee	-0.0020738202
107	0x380cf685	3.360819e-05
108	0x3a152ae0	0.0005690288
109	0x3ad9614a	0.001658478
110	0x3b3153e7	0.0027058066
111	0x3a9f16d5	0.0012137542
112	0x00000000	0.0
113	0x00000000	0.0
114	0x3457f71e	2.0113336e-07
115	0x3b4ea6c8	0.0031532515
116	0x00000004	6e-45
117	0x3904dca5	0.00012670697
118	0x3b689acf	0.0035492664
119	0x392ec498	0.0001666717
120	0xba1a538e	-0.00058870844
121	0xbb115d38	-0.0022180807
122	0xbb5e1676	-0.00338879
123	0x3ab31deb	0.0013665532
124	0x00000000	0.0
125	0x00000000	0.0
126	0x38c836bb	9.5469375e-05
127	0xbb0a5c1e	-0.0021112035
128	0x80000004	-6e-45
129	0xb9e2c877	-0.00043255437
130	0xbbb67bb7	-0.005568947
131	0x3a093e8a	0.00052354543
132	0xb94b1765	-0.00019368304
133	0xba8c4253	-0.0010700919
134	0xba8f38e7	-0.0010926992
135	0xb98b0986	-0.00026519242
136	0x00000000	0.0
137	0x00000000	0.0
138	0x37d235a2	2.5058926e-05
139	0xbab45fb7	-0.0013761435
140	0x80000004	-6e-45
141	0x3a2d160f	0.0006602713
142	0x38eb6464	0.000112243724
143	0xba2493d3	-0.0006278131
144	0xba186c3b	-0.00058144674
145	0xbab5a5cc	-0.0013858615
146	0xbb395362	-0.002827846
147	0xba6186d0	-0.00086031575
148	0x00000000	0.0
149	0x00000000	0.0
150	0x37b5628d	2.1622773e-05
151	0xbb07afc5	-0.0020704132
152	0x80000004	-6e-45
153	0xb9fff893	-0.00048822592
154	0xbb96d7b7	-0.004603352
155	0x398a250d	0.00026349016
156	0x39934de6	0.00028096064
157	0x3a5fc7ec	0.00085365656
158	0x3aa5c43d	0.0012646985
159	0x3a88ce55	0.0010437468
160	0x00000000	0.0
161	0x00000000	0.0
162	0x375f0df7	1.3295087e-05
163	0x3b2308a3	0.0024876974
164	0x80000004	-6e-45
165	0xb7b3e095	-2.1443042e-05
166	0x3aa54557	0.0012609166
167	0x39df1e23	0.00042556328
168	0xb9ae83f3	-0.00033286176
169	0xba4689b9	-0.0007573623
170	0xbae97b45	-0.0017813226
171	0xbabfa7cd	-0.0014622152
172	0x00000000	0.0
173	0x00000000	0.0
174	0xb6807914	-3.8287926e-06
175	0xbb1c3936	-0.0023837811
176	0x00000004	6e-45
177	0xb9d1fb12	-0.00040050648
178	0xbb518b0f	-0.0031973755
179	0xb921b4ee	-0.00015421558
180	0x3a2ba596	0.00065478066
181	0x3a9dfec0	0.0012054071
182	0x3b3018c7	0.0026870237
183	0x3af89b96	0.0018967267
184	0x00000000	0.0
185	0x00000000	0.0
186	0x385f33c3	5.321555e-05
187	0x3b427af2	0.0029675332
188	0x80000004	-6e-45
189	0x3990682b	0.00027543431
190	0x3b7e3a2d	0.0038792
191	0x393f7952	0.00018260375
192	0x3a77b7a1	0.0009449665
193	0x3b34943a	0.002755417
194	0x3ba0c281	0.004905999
195	0x3b4f2b11	0.0031611363
196	0x00000000	0.0
197	0x00000000	0.0
198	0x384c011d	4.8638427e-05
199	0x3c042118	0.008064531
200	0x80000004	-6e-45
201	0x3a3413be	0.0006869397
202	0x3be509e9	0.006989707
203	0x3a3193c8	0.0006774035
204	0xba88a3cd	-0.0010424793
205	0xbb2b578d	-0.0026144714
206	0xbba1be50	-0.004936017
207	0xbafa5edb	-0.0019101755
208	0x00000000	0.0
209	0x00000000	0.0
210	0xb75f9f22	-1.3328887e-05
211	0xbba4d294	-0.0050299857
212	0x80000004	-6e-45
213	0xb9b9eb76	-0.00035461382
214	0xbbe7e432	-0.0070767635
215	0x38de15ac	0.000105898216
216	0xb976c254	-0.00023532781
217	0xb996bcfa	-0.00028751028
218	0xba65598e	-0.00087490014
219	0xba4b3509	-0.00077517383
220	0x00000000	0.0
221	0x00000000	0.0
222	0xb6e74c1b	-6.8931963e-06
223	0xbaae690a	-0.001330645
224	0x00000004	6e-45
225	0xb9c84916	-0.00038201426
226	0xbae4f524	-0.0017468077
227	0x36f22dd9	7.2174994e-06
228	0xba08363a	-0.00051960687
229	0xbac70feb	-0.0015187239
230	0xbb2e0912	-0.00265557
231	0xbadec05e	-0.0016994586
232	0x00000000	0.0
233	0x00000000	0.0
234	0xb83345d7	-4.274197e-05
235	0xbb80b0ea	-0.00392734
236	0x00000004	6e-45
237	0x3951ffb5	0.00020027052
238	0xbb3e7a60	-0.002906464
239	0xba3611c3	-0.0006945396
240	0x3a6f815a	0.00091364013
241	0x3b26ae6a	0.0025433549
242	0x3b997f8a	0.0046843933
243	0x3b3a8b0b	0.0028464224
244	0x00000000	0.0
245	0x00000000	0.0
246	0x380ab7d0	3.3072953e-05
247	0x3be5bfac	0.0070113745
248	0x80000004	-6e-45
249	0x39830206	0.00024987775
250	0x3bca95ae	0.006182394
251	0x3a4d258b	0.0007825724
252	0x3b1802de	0.0023195068
253	0x3bb4d81a	0.0055189254
254	0x3c11f992	0.0089096
255	0x3b9ec603	0.004845382

exp_avg_sq f4 [24, 12]
0	0x35d0bd12	1.5552234e-06
1	0x377db021	1.5120983e-05
2	0x37ac30d3	2.0526733e-05
3	0x36ce2080	6.143062e-06
4	0x00000000	0.0
5	0x00000000	0.0
6	0x3115bf39	2.1791051e-09
7	0x37c41ec6	2.337935e-05
8	0x1f7a2c0b	5.297599e-20
9	0x3644c7a9	2.9322493e-06
10	0x37f6ec5d	2.943555e-05
11	0x352430e0	6.1165883e-07
12	0x36013ad1	1.9256734e-06
13	0x378d78e0	1.6864797e-05
14	0x381710ff	3.6017034e-05
15	0x3694da31	4.4361445e-06
16	0x00000000	0.0
17	0x00000000	0.0
18	0x317214a6	3.5227372e-09
19	0x379cab0e	1.8676303e-05
20	0x1d082709	1.801963e-21
21	0x344218f1	1.8076732e-07
22	0x3846c06a	4.738608e-05
23	0x33c89de6	9.341947e-08
24	0x37d7d354	2.5728405e-05
25	0x3934c61d	0.0001723994
26	0x3a07a637	0.0005174609
27	0x38db30ba	0.0001045181
28	0x00000000	0.0
29	0x00000000	0.0
30	0x324b90fb	1.184912e-08
31	0x39f24585	0.00046209633
32	0x1b40c7e7	1.594646e-22
33	0x3500ba21	4.795457e-07
34	0x3a6741ea	0.00088217726
35	0x3588acd9	1.0183095e-06
36	0x38036ee4	3.133611e-05
37	0x3981aded	0.00024734382
38	0x3a600723	0.00085459853
39	0x39a8f0b1	0.00032222786
40	0x00000000	0.0
41	0x00000000	0.0
42	0x33b5705c	8.448907e-08
43	0x3b0aea08	0.0021196622
44	0x2033cf6a	1.5230517e-19
45	0x362c22e0	2.5650297e-06
46	0x3ac39173	0.0014920667
47	0x37c2bb31	2.321377e-05
48	0x3835e546	4.336729e-05
49	0x397f15b1	0.00024326776
50	0x3a6eb15a	0.0009105407
51	0x394d2e16	0.00019567492
52	0x00000000	0.0
53	0x00000000	0.0
54	0x32af24b8	2.0389379e-08
55	0x3a582060	0.00082445703
56	0x1e6f24c7	1.266016e-20
57	0x36c247dc	5.790016e-06
58	0x3af1ea7b	0.0018456721
59	0x351d0584	5.8495084e-07
60	0x36c9770f	6.004127e-06
61	0x38334ae4	4.2746673e-05
62	0x38dee176	0.0001062778
63	0x3893ed81	7.053745e-05
64	0x00000000	0.0
65	0x00000000	0.0
66	0x330e619b	3.3150723e-08
67	0x398a8078	0.00026417128
68	0x1ed126b8	2.214475e-20
69	0x373ceca6	1.1260772e-05
70	0x396f43a1	0.0002281801
71	0x372d1564	1.0316584e-05
72	0x36cdeb7e	6.136891e-06
73	0x38947049	7.078105e-05
74	0x38fb2cb3	0.000119769385
75	0x387d0d3f	6.0332237e-05
76	0x00000000	0.0
77	0x00000000	0.0
78	0x33244f62	3.8256424e-08
79	0x39937dee	0.0002813185
80	0x20005e29	1.0873177e-19
81	0x371c7a24	9.326763e-06
82	0x39678966	0.00022081062
83	0x3657bbd8	3.2146836e-06
84	0x37cb1216	2.4207908e-05
85	0x38cde35c	9.817511e-05
86	0x39959bed	0.00028535668
87	0x38e9c7d2	0.00011147525
88	0x00000000	0.0
89	0x00000000	0.0
90	0x32840ffe	1.5374095e-08
91	0x392654d4	0.00015862595
92	0x1ec3d4f4	2.0734503e-20
93	0x3479990a	2.3245607e-07
94	0x39eb4b51	0.00044878808
95	0x344b23e0	1.89189e-07
96	0x36c006c9	5.722836e-06
97	0x382cf5ed	4.1237032e-05
98	0x392559bf	0.00015769059
99	0x37bc147d	2.2420887e-05
100	0x00000000	0.0
101	0x00000000	0.0
102	0x31a9b264	4.938828e-09
103	0x393f9f39	0.00018274495
104	0x1d89ff22	3.65274e-21
105	0x363c3f9b	2.8051206e-06
106	0x39bfbcdd	0.00036571073
107	0x341b4a79	1.4462593e-07
108	0x36b66e41	5.436858e-06
109	0x380ff36d	3.4320565e-05
110	0x38df6832	0.000106528765
111	0x37f17f42	2.8788698e-05
112	0x00000000	0.0
113	0x00000000	0.0
114	0x31849b35	3.8593506e-09
115	0x3921e7de	0.00015440534
116	0x1d76f0fa	3.268241e-21
117	0x34fa886b	4.6665386e-07
118	0x39523e69	0.0002005041
119	0x35431c10	7.2683997e-07
120	0x37110b3b	8.645288e-06
121	0x3839804e	4.422693e-05
122	0x38ebe748	0.00011248753
123	0x38f5fb80	0.00011729356
124	0x00000000	0.0
125	0x00000000	0.0
126	0x33f0cd87	1.1213256e-07
127	0x39721435	0.00023086446
128	0x2116812c	5.0992934e-19
129	0x3703f335	7.8648345e-06
130	0x39661c63	0.00021945084
131	0x374bd713	1.2149819e-05
132	0x369bed8f	4.6470154e-06
133	0x38b185d6	8.4649466e-05
134	0x391d30f2	0.0001499092
135	0x379ec947	1.8928795e-05
136	0x00000000	0.0
137	0x00000000	0.0
138	0x32249c8c	9.581651e-09
139	0x398b78da	0.00026602187
140	0x1e9d0931	1.6626823e-20
141	0x36869fc9	4.0121126e-06
142	0x391adb90	0.00014768378
143	0x36f0270b	7.1571026e-06
144	0x37fd9bfb	3.0232584e-05
145	0x392c987d	0.00016460005
146	0x3a1a9c5f	0.0005897935
147	0x38c42418	9.352731e-05
148	0x00000000	0.0
149	0x00000000	0.0
150	0x3249265a	1.170846e-08
151	0x39e934fc	0.000444807
152	0x1f238e8b	3.46345e-20
153	0x3707d9fa	8.097379e-06
154	0x3aa9a636	0.0012943211
155	0x35c8d152	1.4962081e-06
156	0x36117db0	2.1679843e-06
157	0x378c4997	1.6723568e-05
158	0x382ecd14	4.1675827e-05
159	0x376e7ea6	1.4215393e-05
160	0x00000000	0.0
161	0x00000000	0.0
162	0x316387d7	3.3110064e-09
163	0x38c6a555	9.472171e-05
164	0x1d78a9fe	3.291041e-21
165	0x34d80abb	4.0240943e-07
166	0x3892280c	6.969282e-05
167	0x36247dab	2.4511053e-06
168	0x37f93053	2.9705616e-05
169	0x395f7bfa	0.00021313122
170	0x3a5db6f3	0.00084577425
171	0x39829ca7	0.00024912247
172	0x00000000	0.0
173	0x00000000	0.0
174	0x32fd7928	2.9508172e-08
175	0x3abf885e	0.0014612784
176	0x20715ce0	2.0444224e-19
177	0x373a4371	1.1102166e-05
178	0x3ae74a25	0.0017645998
179	0x370cae1f	8.385191e-06
180	0x3700b1c1	7.670781e-06
181	0x3800c699	3.0702537e-05
182	0x39195f71	0.00014626772
183	0x384ec656	4.9298942e-05
184	0x00000000	0.0
185	0x00000000	0.0
186	0x339222eb	6.805006e-08
187	0x39584b91	0.00020627516
188	0x1eac21d1	1.8225195e-20
189	0x363d7f48	2.8237282e-06
190	0x39c0402d	0.00036668908
191	0x351900b2	5.6997953e-07
192	0x370e9473	8.498423e-06
193	0x385a7279	5.208186e-05
194	0x39700cbd	0.00022892929
195	0x38edaa5b	0.00011332772
196	0x00000000	0.0
197	0x00000000	0.0
198	0x330ab6bf	3.2296835e-08
199	0x3a6102ca	0.00085834845
200	0x1eec167c	2.4996771e-20
201	0x36e0beef	6.697948e-06
202	0x3a07ed67	0.0005185217
203	0x370b1ef0	8.292249e-06
204	0x380030c8	3.056301e-05
205	0x392ba828	0.00016370474
206	0x3a31ae10	0.00067779515
207	0x391e16e1	0.00015076577
208	0x00000000	0.0
209	0x00000000	0.0
210	0x33199e9a	3.5767336e-08
211	0x3a836478	0.0010024449
212	0x1fb93717	7.8441686e-20
213	0x372cf0df	1.0308081e-05
214	0x3abacefc	0.001425236
215	0x3645a8ab	2.9453465e-06
216	0x364d312a	3.0575998e-06
217	0x37dac0d6	2.6077421e-05
218	0x3860c45a	5.358863e-05
219	0x37af7c55	2.0919522e-05
220	0x00000000	0.0
221	0x00000000	0.0
222	0x31eb1ebf	6.8428956e-09
223	0x3900d9ef	0.00012288218
224	0x1f2812c6	3.5590913e-20
225	0x36ba738c	5.5566834e-06
226	0x38bde4f9	9.054872e-05
227	0x35b455ed	1.3436053e-06
228	0x36a97c33	5.051051e-06
229	0x384b4f25	4.847268e-05
230	0x39210e91	0.00015359583
231	0x383be066	4.479326e-05
232	0x00000000	0.0
233	0x00000000	0.0
234	0x3306016f	3.120061e-08
235	0x39b4d9f0	0.00034494651
236	0x1eecc581	2.5069158e-20
237	0x35d95cad	1.6194732e-06
238	0x396f810b	0.00022840888
239	0x36cb9a64	6.067845e-06
240	0x370d3a55	8.417836e-06
241	0x38608f0e	5.353899e-05
242	0x3967448b	0.00022055411
243	0x38ca3ce4	9.643452e-05
244	0x00000000	0.0
245	0x00000000	0.0
246	0x32831517	1.5259998e-08
247	0x3a126014	0.0005583775
248	0x1d77afc2	3.2781042e-21
249	0x35c1299f	1.4391734e-06
250	0x39d417fd	0.00040453664
251	0x3701a272	7.726821e-06
252	0x398c8ea8	0.00026809168
253	0x3ac54365	0.0015049992
254	0x3b9614dd	0.004580124
255	0x3a948af8	0.001133292

exp_avg f4 [12]
0	0xbba6a638	-0.005085733
1	0xbbc16fd4	-0.0059032235
2	0xbaec5730	-0.0018031355
3	0x3c1f0eb3	0.009708094
4	0x00000000	0.0
5	0x00000000	0.0
6	0x3ab65abc	0.0013912539
7	0x3b214756	0.002460917
8	0x00000004	6e-45
9	0x3bd10cb2	0.006379687
10	0xbc863606	-0.016383182
11	0xbbf7b406	-0.0075593023

exp_avg_sq f4 [12]
0	0x3bceeab7	0.0063146013
1	0x3ba1f370	0.00494235
2	0x3abae452	0.0014258719
3	0x3b8f9da5	0.0043828064
4	0x00000000	0.0
5	0x00000000	0.0
6	0x3765f928	1.3707475e-05
7	0x3aa8bcaf	0.0012873615
8	0x26b04955	1.223233e-15
9	0x3aae9919	0.0013320773
10	0x3bb37245	0.0054762685
11	0x3a08e3df	0.0005221944
