Model/epoch100/Model_5/model5.ckpt (torch_old, 286080 bytes, 464 tensors)

exp_avg f4 [72]
0	0x3b1434e9	0.0022614545
1	0x3ab8409c	0.0014057341
2	0x3a6f311f	0.0009124446
3	0xbb5c54f2	-0.0033619967
4	0xbad3661c	-0.0016128453
5	0xbb566601	-0.0032714608
6	0xbb7639c0	-0.0037571043
7	0x3909624d	0.00013101958
8	0xbab4c21a	-0.0013790757
9	0x3a198e62	0.00058577035
10	0xbac62c3a	-0.0015119382
11	0x3b0f8969	0.0021901971
12	0x3a38c94d	0.0007049039
13	0xbb0ebaaa	-0.002177874
14	0x3a9bf424	0.0011898321
15	0xbada06fe	-0.0016634164
16	0xbacf9eae	-0.0015840137
17	0xba3ce34b	-0.00072055
18	0xba09e721	-0.0005260576
19	0xb97cc4e6	-0.00024105943
20	0x3986f6e6	0.00025742425
21	0xba704f25	-0.0009167067
22	0x3a63152f	0.00086625194
23	0xb9773325	-0.00023574808
24	0xbb10d832	-0.0022101519
25	0x39e02f48	0.00042759837
26	0xbb05f2a6	-0.002043882
27	0xbb16baa3	-0.0022999428
28	0xba7101df	-0.0009193699
29	0xba005900	-0.00048960745
30	0x3a92de5e	0.0011205187
31	0x3b321900	0.0027175546
32	0xbac40abb	-0.0014956811
33	0xba2794ce	-0.0006392718
34	0xbb3f3bbb	-0.002917989
35	0x3b8906be	0.004181712
36	0x3aeba58b	0.0017978413
37	0x3a073a1e	0.00051585014
38	0x3a63fafe	0.00086967635
39	0x3b231089	0.0024881682
40	0xb91fedab	-0.0001525196
41	0x3ab1e706	0.0013572879
42	0xbbc79690	-0.0060909465
43	0xbb0be769	-0.0021347648
44	0xba83e431	-0.0010062513
45	0xbb8e5b61	-0.0043443893
46	0xbae4bd10	-0.0017451365
47	0xbb1a546c	-0.0023548855
48	0x3b5a7196	0.0033331863
49	0x3b0f8252	0.0021897745
50	0xba8158f1	-0.0009868426
51	0x39bb790e	0.00035757612
52	0xba4f78d5	-0.0007914429
53	0x3a9c511a	0.0011926026
54	0x3b066493	0.0020506724
55	0x3a90fced	0.0011061706
56	0xba85f142	-0.0010218995
57	0xb955bd3a	-0.00020383755
58	0x3a450dd7	0.0007517016
59	0xbabe9692	-0.0014540723
60	0x3ad72c4b	0.0016416399
61	0x3acbb4cc	0.0015541553
62	0xbaca5811	-0.0015437623
63	0x3b412c59	0.0029475896
64	0x3a93dae7	0.0011280448
65	0x39f9f5a1	0.0004767599
66	0x3b1d8105	0.00240332
67	0x39b132c3	0.0003379789
68	0x3aed62cd	0.001811111
69	0x3b8be101	0.004268766
70	0x3b2c84b8	0.0026324224
71	0xba6b7133	-0.00089814066

exp_avg_sq f4 [72]
0	0x3b598d79	0.0033195897
1	0x3927bf31	0.00015997585
2	0x3be0ef82	0.006864489
3	0x3a19bdca	0.00058647676
4	0x39fe7eba	0.00048541074
5	0x38f9d50f	0.000119129305
6	0x3bb4505d	0.005502744
7	0x3bca8226	0.0061800657
8	0x394bcf88	0.000194369
9	0x3aefca9a	0.0018294633
10	0x3bb9acbe	0.0056663444
11	0x3ad1e2b1	0.0016012994
12	0x3ac8682e	0.0015289837
13	0x3b3ec30d	0.0029107959
14	0x3bb7262e	0.005589268
15	0x3a472f26	0.0007598273
16	0x3a3b4972	0.0007144428
17	0x395f7fa6	0.0002131449
18	0x38c0d61b	9.195154e-05
19	0x3834001f	4.2915457e-05
20	0x3a41a50b	0.0007386959
21	0x3a1910e6	0.0005839005
22	0x3b28ee65	0.002577686
23	0x39eed04f	0.000455501
24	0x3a40f864	0.0007361232
25	0x3a838c2b	0.001003628
26	0x3aaabe8c	0.0013026758
27	0x39413fb0	0.0001842964
28	0x39437396	0.00018639708
29	0x3892aedf	6.994395e-05
30	0x3a25082d	0.0006295469
31	0x38e913f1	0.0001111402
32	0x397b4da8	0.00023966155
33	0x3b8307d4	0.003998736
34	0x3b5c6a65	0.0033632752
35	0x39cba6cd	0.00038843454
36	0x39550a4f	0.00020317103
37	0x384597c7	4.7109814e-05
38	0x3813c7f5	3.5233756e-05
39	0x3b7ab1e0	0.0038252994
40	0x3b221f73	0.0024737983
41	0x3a8fbed7	0.0010966909
42	0x3a66973c	0.00087963394
43	0x3acfe6d6	0.0015861641
44	0x3a32b2b7	0.0006816792
45	0x3b419e43	0.0029543794
46	0x398ddc87	0.0002705792
47	0x39e6e258	0.00044037658
48	0x39f7952d	0.00047222656
49	0x389fcf42	7.6203156e-05
50	0x3985d82a	0.00025528792
51	0x38c5d268	9.432883e-05
52	0x37e1c524	2.691389e-05
53	0x385c8963	5.258004e-05
54	0x3a4208e4	0.00074018375
55	0x3a069a9f	0.00051347347
56	0x3a217ee6	0.0006160572
57	0x3a88e340	0.0010443702
58	0x370a6ae3	8.2503275e-06
59	0x39daa6dd	0.00041704523
60	0x391072f4	0.00013775734
61	0x38667090	5.4941105e-05
62	0x3874377f	5.8225818e-05
63	0x39995e58	0.00029252726
64	0x39c784c0	0.00038055144
65	0x38d81656	0.00010303843
66	0x3a83d18c	0.0010056957
67	0x384e981b	4.9255887e-05
68	0x3b48a031	0.003061306
69	0x3abd7892	0.0014455488
70	0x39265c5a	0.00015865397
71	0x3b0a446f	0.0021097919

exp_avg f4 [24]
0	0x3b9610b1	0.0045796265
1	0xbc071b83	-0.008246305
2	0xbba40253	-0.00500516
3	0x3aa5adde	0.0012640317
4	0xb9947259	-0.00028313955
5	0xbb8205d2	-0.003967979
6	0xba059ce0	-0.00050969236
7	0xb9960d24	-0.0002862002
8	0xbb7ac4f7	-0.0038264373
9	0xbb73115a	-0.00370892
10	0x3b1982d5	0.002342393
11	0x3a23b230	0.00062445085
12	0x3b50a00f	0.0031833684
13	0x3b72052c	0.0036929352
14	0xbc1741a6	-0.00923196
15	0xbc0a5a6f	-0.008444413
16	0x3b94a3bb	0.0045361198
17	0x3a46e5f5	0.0007587367
18	0x3b0bea60	0.0021349415
19	0xba6d8e8a	-0.00090620725
20	0x3ad8890e	0.0016520338
21	0x3b952c40	0.004552394
22	0x3b952c61	0.0045524095
23	0x3bc4b533	0.006003046

exp_avg_sq f4 [24]
0	0x3cb16c88	0.021658197
1	0x3af8058d	0.0018922553
2	0x3cb069db	0.02153485
3	0x3be85332	0.007089996
4	0x3cd02a10	0.025410682
5	0x3b249afd	0.0025116794
6	0x3a100315	0.00054936233
7	0x3b412e52	0.0029477072
8	0x3ad7f834	0.0016477169
9	0x3a7a8e0f	0.00095579115
10	0x3a775a84	0.000943579
11	0x3c331601	0.010930539
12	0x3961a033	0.00021517351
13	0x3ca61c75	0.020277241
14	0x3c08911c	0.008335378
15	0x3bef0bde	0.007295116
16	0x3a873882	0.0010316523
17	0x395331b7	0.00020141048
18	0x3a8d96d0	0.0010802392
19	0x3b403b23	0.0029332123
20	0x39987bc5	0.00029083915
21	0x3af884b8	0.0018960452
22	0x3c02e923	0.007990154
23	0x3b0bb032	0.0021314737

exp_avg f4 [12, 12]
0	0x341a84ac	1.4390633e-07
1	0x3765f9fa	1.3707666e-05
2	0x393bd4e5	0.00017913019
3	0x3a1c32e5	0.00059585116
4	0x3a8b7142	0.0010638612
5	0x3ac883bc	0.0015298049
6	0x3a7aee3a	0.00095722417
7	0x3900f5aa	0.00012298548
8	0x387ab6fc	5.9775062e-05
9	0x3904e1b1	0.00012672578
10	0x38933ebb	7.021191e-05
11	0x37e2306d	2.696385e-05
12	0x363ad5fa	2.784071e-06
13	0x385002c2	4.9593633e-05
14	0x398ff148	0.00027454854
15	0x39b9a7a5	0.00035410855
16	0x38d9ddc1	0.00010388671
17	0x367ab98d	3.7360908e-06
18	0x30f5697a	1.7856074e-09
19	0xadb1ad94	-2.0199654e-11
20	0xa7c7e375	-5.5480205e-15
21	0xad87cca0	-1.5438595e-11
22	0xb21dd89e	-9.187856e-09
23	0xb5230471	-6.0728695e-07
24	0x00000000	0.0
25	0x00000000	0.0
26	0x00000000	0.0
27	0x00000000	0.0
28	0x00000000	0.0
29	0x00000000	0.0
30	0x00000000	0.0
31	0x00000000	0.0
32	0x00000000	0.0
33	0x00000000	0.0
34	0x00000000	0.0
35	0x00000000	0.0
36	0xb79d6595	-1.8763161e-05
37	0xb921d01b	-0.00015431682
38	0xb989f095	-0.00026309924
39	0xb8f83c12	-0.000118367505
40	0xb8d71aaa	-0.000102569655
41	0xba11a71e	-0.00055562134
42	0xba272771	-0.00063764217
43	0xb970a9d2	-0.00022951447
44	0x37c726b8	2.3740678e-05
45	0x381060e0	3.4422497e-05
46	0x3825d4d7	3.9537288e-05
47	0x37ddafe8	2.6427166e-05
48	0x305cf053	8.0377055e-10
49	0x350ea953	5.314552e-07
50	0x381f8b22	3.803813e-05
51	0x39c97587	0.00038425272
52	0x3a425520	0.00074131973
53	0x39958ca6	0.00028524286
54	0x392a6095	0.00016248443
55	0x3971ad04	0.00023048004
56	0x391f05a7	0.00015165527
57	0x387cd3eb	6.0278846e-05
58	0x3732a6a2	1.0648424e-05
59	0x36e63ed9	6.8618506e-06
60	0xb785911a	-1.5922404e-05
61	0xb90fd931	-0.00013718453
62	0xb9b3bdce	-0.00034282956
63	0xb9ed480d	-0.00045257845
64	0xba20580a	-0.00061166345
65	0xba641715	-0.0008700949
66	0xba360f22	-0.0006945004
67	0xb9c922c5	-0.00038363613
68	0xb985b5f9	-0.00025503317
69	0xb8f50d19	-0.0001168495
70	0xb829c790	-4.0478597e-05
71	0xb7cbf133	-2.4311803e-05
72	0x3774b24b	1.4585045e-05
73	0xb8547fcc	-5.066376e-05
74	0xba3d4e95	-0.00072214875
75	0xb9a55789	-0.0003153647
76	0xb7445029	-1.1701174e-05
77	0xb32c03d2	-4.0050345e-08
78	0xad6188ad	-1.2820117e-11
79	0xa5dde3a6	-3.849165e-16
80	0x9ca3ec78	-1.0847561e-21
81	0x91b5d840	-2.869004e-28
82	0x85175876	-7.1162336e-36
83	0x8000000f	-2.1e-44
84	0x356696e4	8.590125e-07
85	0xb7a78f6f	-1.9974743e-05
86	0xb8bb45ce	-8.929857e-05
87	0xb9889e47	-0.00026057867
88	0xb9b5e595	-0.00034694062
89	0xb857c944	-5.1447438e-05
90	0x38c138d0	9.213539e-05
91	0x37208827	9.568444e-06
92	0x37102cb6	8.593479e-06
93	0xb80139fc	-3.081e-05
94	0xb747bf30	-1.1905839e-05
95	0xb589ec1c	-1.0276012e-06
96	0x32812b27	1.50372e-08
97	0x360953bd	2.0463333e-06
98	0x380ea44d	3.4008455e-05
99	0x3916d9d9	0.0001438627
100	0x38ea6ede	0.0001117864
101	0x3714e085	8.873762e-06
102	0x338b1635	6.476731e-08
103	0x2e3e7de0	4.3312798e-11
104	0x27402247	2.6663934e-15
105	0x1e8f36ea	1.5163426e-20
106	0x141e1a1b	7.98211e-27
107	0x0801639f	3.893663e-34
108	0x00000000	0.0
109	0x00000000	0.0
110	0x00000000	0.0
111	0x00000000	0.0
112	0x00000000	0.0
113	0x00000000	0.0
114	0x00000000	0.0
115	0x00000000	0.0
116	0x00000000	0.0
117	0x00000000	0.0
118	0x00000000	0.0
119	0x00000000	0.0
120	0xb79f050c	-1.8956627e-05
121	0xb8faacbf	-0.000119531054
122	0xb89545eb	-7.117897e-05
123	0xb6af97e6	-5.2330897e-06
124	0xb8935491	-7.025258e-05
125	0xba026fb4	-0.00049757515
126	0xba124af5	-0.00055806275
127	0xb9339f05	-0.0001713001
128	0x3751d172	1.2506136e-05
129	0x388ace39	6.618765e-05
130	0x384e7da5	4.9231243e-05
131	0x37e33a50	2.7087663e-05
132	0x98e924b6	-6.0266157e-24
133	0xa23f788b	-2.5949142e-18
134	0xa9eeb696	-1.0600997e-13
135	0xafe74d7e	-4.2073717e-10
136	0xb42dbbcc	-1.61802e-07
137	0xb698acc4	-4.5500656e-06
138	0x37f1ca76	2.8823717e-05
139	0x38ed9a00	0.000113297254
140	0x38690653	5.555742e-05
141	0x36c4cfdf	5.8654546e-06
142	0xb7a84e6e	-2.0063682e-05
143	0xb6896d3f	-4.095636e-06

exp_avg_sq f4 [12, 12]
0	0x2b597631	7.725791e-13
1	0x31ca900f	5.8953513e-09
2	0x3652741f	3.136003e-06
3	0x39189da3	0.00014554574
4	0x398b5101	0.000265725
5	0x3899618a	7.3137766e-05
6	0x3863e208	5.4331525e-05
7	0x35c66219	1.47807e-06
8	0x345eecef	2.0761557e-07
9	0x35377381	6.834089e-07
10	0x34473f44	1.8556335e-07
11	0x334e7624	4.807056e-08
12	0x316aebae	3.418545e-09
13	0x34c8a2e1	3.7371413e-07
14	0x379dabba	1.8795825e-05
15	0x3904cf61	0.00012665756
16	0x386843bf	5.5376204e-05
17	0x34e7ca15	4.3174137e-07
18	0x2e3628b5	4.1418164e-11
19	0x24440d72	4.2512114e-17
20	0x1a5f21fd	4.6142775e-23
21	0x22a789e0	4.541142e-18
22	0x2a1d4d10	1.3971138e-13
23	0x2f4d55fa	1.8675186e-10
24	0x00000000	0.0
25	0x00000000	0.0
26	0x00000000	0.0
27	0x00000000	0.0
28	0x00000000	0.0
29	0x00000000	0.0
30	0x00000000	0.0
31	0x00000000	0.0
32	0x00000000	0.0
33	0x00000000	0.0
34	0x00000000	0.0
35	0x00000000	0.0
36	0x33bd209e	8.8069314e-08
37	0x36b2faf2	5.3340273e-06
38	0x380d9a6e	3.3760844e-05
39	0x3892edc0	7.006107e-05
40	0x37a64f80	1.9825762e-05
41	0x37a848e6	2.0061107e-05
42	0x383a756b	4.445521e-05
43	0x3786e339	1.6079854e-05
44	0x359bdc3d	1.1612498e-06
45	0x3428cc06	1.5720443e-07
46	0x3348eee6	4.6783406e-08
47	0x32b01a05	2.0500929e-08
48	0x257a1adc	2.1693144e-16
49	0x2f03f76c	1.2002283e-10
50	0x35495238	7.499798e-07
51	0x388de9de	6.766965e-05
52	0x3927c8c2	0.00016001149
53	0x37a9d0b7	2.024356e-05
54	0x37301b61	1.0496792e-05
55	0x37b7a879	2.1893751e-05
56	0x3685a348	3.9827173e-06
57	0x347417cd	2.273293e-07
58	0x32c6bbee	2.3135694e-08
59	0x32249e00	9.581981e-09
60	0x32a6e1fa	1.9427706e-08
61	0x35b43d52	1.3428892e-06
62	0x374e6e99	1.2304307e-05
63	0x38a00d8a	7.6319164e-05
64	0x3930a09d	0.00016844501
65	0x38a8c3c3	8.047328e-05
66	0x37d2e2b0	2.513951e-05
67	0x37f72d4a	2.9465784e-05
68	0x370070a2	7.655619e-06
69	0x35630cf4	8.458294e-07
70	0x3412de58	1.3678198e-07
71	0x33649e29	5.3229233e-08
72	0x34788afd	2.3147363e-07
73	0x37bea17d	2.2724964e-05
74	0x3892c6a8	6.998825e-05
75	0x3708c8b9	8.152966e-06
76	0x325b53c8	1.2766527e-08
77	0x2a574025	1.911809e-13
78	0x1eec80b1	2.5040697e-20
79	0x100e48f2	2.8060757e-29
80	0x0002eb05	2.6798e-40
81	0x00000000	0.0
82	0x00000000	0.0
83	0x00000000	0.0
84	0x331fbd94	3.7192493e-08
85	0x3621a75f	2.4088292e-06
86	0x37e0d495	2.6801872e-05
87	0x3935c69a	0.0001733549
88	0x39854f52	0.00025426835
89	0x380d4269	3.367887e-05
90	0x3756726d	1.2782036e-05
91	0x37676809	1.37928955e-05
92	0x35d2427c	1.5665569e-06
93	0x33dc1453	1.0248245e-07
94	0x3198fff2	4.45288e-09
95	0x2e1073e7	3.284475e-11
96	0x2b6b149e	8.3517384e-13
97	0x3281f6f3	1.5129876e-08
98	0x36db0335	6.527082e-06
99	0x38e26176	0.00010794673
100	0x380e3f30	3.3914286e-05
101	0x33fd7d2b	1.18039985e-07
102	0x2c8bdd1b	3.9751652e-12
103	0x21b9084f	1.2538287e-18
104	0x13904a6e	3.6424104e-27
105	0x0202d9e1	9.61342e-38
106	0x00000000	0.0
107	0x00000000	0.0
108	0x00000000	0.0
109	0x00000000	0.0
110	0x00000000	0.0
111	0x00000000	0.0
112	0x00000000	0.0
113	0x00000000	0.0
114	0x00000000	0.0
115	0x00000000	0.0
116	0x00000000	0.0
117	0x00000000	0.0
118	0x00000000	0.0
119	0x00000000	0.0
120	0x31d9749c	6.328788e-09
121	0x34dc3678	4.1017825e-07
122	0x34801102	2.3854233e-07
123	0x30d206df	1.5281464e-09
124	0x3409f48d	1.2848086e-07
125	0x3700ccb7	7.677058e-06
126	0x37aee647	2.0849648e-05
127	0x36e8176c	6.9168655e-06
128	0x34c500fc	3.6694826e-07
129	0x3440bd9d	1.7950374e-07
130	0x33dc43e9	1.0256901e-07
131	0x332791d8	3.901536e-08
132	0x000001f4	7e-43
133	0x0b9ae6b0	5.966574e-32
134	0x1b10ce80	1.1978125e-22
135	0x2724c3b1	2.2865657e-15
136	0x2fef0a37	4.3481105e-10
137	0x357296a2	9.0371225e-07
138	0x37d36ac2	2.5202873e-05
139	0x378532e1	1.5878528e-05
140	0x36214939	2.403349e-06
141	0x3519c084	5.727709e-07
142	0x33a30712	7.591565e-08
143	0x30d654dd	1.5594669e-09

exp_avg f4 [24, 12]
0	0x384b7eea	4.851717e-05
1	0x36cec8e0	6.1626633e-06
2	0x00000000	0.0
3	0x392fa3a6	0.00016750264
4	0xb6939ab1	-4.39895e-06
5	0x39036f71	0.00012534649
6	0xb56d5e13	-8.8426276e-07
7	0x36fb19b7	7.4833765e-06
8	0xb61606f2	-2.2355784e-06
9	0x00000000	0.0
10	0x38672271	5.5106768e-05
11	0xb6ccfd05	-6.109129e-06
12	0xb8c1d0ab	-9.2418246e-05
13	0x36a15140	4.8076326e-06
14	0x00000000	0.0
15	0xb59cb522	-1.1675622e-06
16	0xb5489f35	-7.473748e-07
17	0xb7a93269	-2.0169844e-05
18	0x355e7495	8.2871094e-07
19	0xb7788b65	-1.4814407e-05
20	0x3623daca	2.4416245e-06
21	0x00000000	0.0
22	0xb73bb9e6	-1.1189351e-05
23	0x3792a089	1.7479311e-05
24	0xb8b210fe	-8.4908665e-05
25	0xb804aedd	-3.1634107e-05
26	0x00000000	0.0
27	0xb89749da	-7.213997e-05
28	0x37334cb2	1.0687088e-05
29	0xb8a924d7	-8.06541e-05
30	0xb6978848	-4.516016e-06
31	0xb7b9eaef	-2.2163118e-05
32	0xb74239b2	-1.1576734e-05
33	0x00000000	0.0
34	0xb7599e30	-1.2971039e-05
35	0x37993275	1.8262517e-05
36	0xba1b4f11	-0.00059245626
37	0xb8a00303	-7.6299555e-05
38	0x00000000	0.0
39	0xb9dec55c	-0.00042490184
40	0xb844b7b2	-4.690112e-05
41	0xb9fb11c9	-0.00047887702
42	0xb64e8619	-3.0774447e-06
43	0xb91ba708	-0.00014844176
44	0xb7e6ff9e	-2.7537168e-05
45	0x00000000	0.0
46	0xb8f5a080	-0.00011712406
47	0x3720ba8b	9.580176e-06
48	0x39aed2a8	0.00033344817
49	0x38c3610a	9.3163995e-05
50	0x00000000	0.0
51	0x39d738d6	0.00041050342
52	0x38ec8390	0.00011277862
53	0x39dc1362	0.0004197611
54	0xb58fe6fa	-1.0721553e-06
55	0x392abd32	0.00016282944
56	0x3803c799	3.1418724e-05
57	0x00000000	0.0
58	0x38a0fcc3	7.676475e-05
59	0x38c5d80b	9.433933e-05
60	0x39e2f88f	0.0004329127
61	0x387b87ab	5.9969414e-05
62	0x00000000	0.0
63	0x398f6c23	0.00027355654
64	0x384b774d	4.851008e-05
65	0x39b0b3b4	0.00033703225
66	0x36acd993	5.1513284e-06
67	0x3902cd74	0.00012474303
68	0x36f59326	7.3186993e-06
69	0x00000000	0.0
70	0x38747022	5.8278565e-05
71	0xb5c9ad21	-1.5026054e-06
72	0x3aae9a48	0.0013321126
73	0x390926c7	0.00013079784
74	0x00000000	0.0
75	0x39762c4d	0.00023476892
76	0xb91b4eb3	-0.0001481127
77	0x39ada32e	0.0003311871
78	0xb5763199	-9.1714315e-07
79	0x37376375	1.0930807e-05
80	0x383096b9	4.210204e-05
81	0x00000000	0.0
82	0x38d54b8f	0.00010170705
83	0xb9be28cf	-0.0003627003
84	0x3aad06c2	0.0013200867
85	0x394ca2c5	0.00019515592
86	0x00000000	0.0
87	0x3a214545	0.00061519846
88	0x38e416f4	0.000108761626
89	0x3a5ba4d1	0.00083787466
90	0x36ffcf7b	7.623746e-06
91	0x399414d0	0.00028244266
92	0x38b33ddf	8.5469095e-05
93	0x00000000	0.0
94	0x3911f04d	0.00013917797
95	0xb8214211	-3.844692e-05
96	0x36582302	3.2206885e-06
97	0x37abcfcb	2.048155e-05
98	0x00000000	0.0
99	0xb8e7178c	-0.00011019324
100	0xb817b357	-3.616823e-05
101	0xb8eb2ac3	-0.00011213638
102	0x3608eaa5	2.040216e-06
103	0xb7dded91	-2.6455878e-05
104	0x35b89e6d	1.3755176e-06
105	0x00000000	0.0
106	0xb829c6c3	-4.047785e-05
107	0xb85f7253	-5.3273816e-05
108	0xb9326d94	-0.00017016224
109	0xb879a739	-5.9521964e-05
110	0x00000000	0.0
111	0xb9b809c1	-0.00035102482
112	0xb81aeacc	-3.6935133e-05
113	0xb99b76d3	-0.00029652435
114	0xb16d72ea	-3.455336e-09
115	0xb8c9509d	-9.599442e-05
116	0xb7b72237	-2.1831233e-05
117	0x00000000	0.0
118	0xb8be1364	-9.063518e-05
119	0xb8047f9f	-3.159011e-05
120	0x3b074a9a	0.0020643831
121	0x39c3694b	0.00037271748
122	0x00000000	0.0
123	0x3b2a76db	0.0026010785
124	0x3a0b5505	0.0005315098
125	0x3b360853	0.0027775958
126	0x35ffa443	1.9046787e-06
127	0x3a6e2b09	0.0009085392
128	0x38fe159a	0.000121156874
129	0x00000000	0.0
130	0x3a2efb95	0.0006675062
131	0x39ea50f3	0.0004469227
132	0x387a306d	5.9649745e-05
133	0x3782015b	1.5497839e-05
134	0x00000000	0.0
135	0x38764d9e	5.8723257e-05
136	0x38139cbb	3.5193498e-05
137	0x38e1cbfe	0.000107668326
138	0x3690c4b9	4.314436e-06
139	0x37d1a242	2.4990299e-05
140	0x371ba917	9.278089e-06
141	0x00000000	0.0
142	0xb6cc70c0	-6.0927996e-06
143	0x3837b2c3	4.3797085e-05
144	0xba7d5212	-0.00096634135
145	0xb9013a7d	-0.00012324187
146	0x00000000	0.0
147	0xb95ceb39	-0.00021068462
148	0x37fcfc8c	3.0158342e-05
149	0xb989a9c0	-0.0002625715
150	0x35bfa6d3	1.4279161e-06
151	0xb8d06551	-9.9370845e-05
152	0xb82f2753	-4.1759875e-05
153	0x00000000	0.0
154	0xb84a14d8	-4.8179965e-05
155	0x393efeb3	0.00018214695
156	0xb937953f	-0.00017507838
157	0xb7f62efb	-2.9347362e-05
158	0x00000000	0.0
159	0xb984f379	-0.00025358403
160	0xb8a5151b	-7.871744e-05
161	0xb99ce86b	-0.00029927804
162	0xb682d06c	-3.8985654e-06
163	0xb8e5e78e	-0.00010962701
164	0xb7325bb7	-1.0630981e-05
165	0x00000000	0.0
166	0xb8685905	-5.5396016e-05
167	0xb8a8d0ff	-8.049793e-05
168	0x3942006d	0.0001850144
169	0x382b5946	4.085272e-05
170	0x00000000	0.0
171	0x3907cec5	0.00012951631
172	0x38c78e4f	9.5155665e-05
173	0x39856611	0.00025443782
174	0x3708a89d	8.14549e-06
175	0x3911635f	0.00013865296
176	0x37244ca3	9.793005e-06
177	0x00000000	0.0
178	0x3753fa93	1.2634921e-05
179	0x38c84e97	9.551382e-05
180	0xb9a15d76	-0.00030777947
181	0xb86ddddf	-5.6711837e-05
182	0x00000000	0.0
183	0xb96b24e8	-0.00022425095
184	0xb5ee55a3	-1.7757305e-06
185	0xb999b408	-0.00029316568
186	0xb5ea77a6	-1.7469181e-06
187	0xb8495814	-4.8004164e-05
188	0xb7ef1b44	-2.8503717e-05
189	0x00000000	0.0
190	0xb872aadf	-5.7856432e-05
191	0x37840d48	1.574181e-05
192	0x39c902ea	0.0003833988
193	0x38c8482d	9.550187e-05
194	0x00000000	0.0
195	0x3a009e8e	0.0004906439
196	0x38590043	5.1737075e-05
197	0x3a0a9f39	0.0005288008
198	0xb386cd2b	-6.277181e-08
199	0x3907bc85	0.00012944832
200	0x375abbb0	1.3037512e-05
201	0x00000000	0.0
202	0x38e7def3	0.00011056466
203	0x3833ece7	4.2897558e-05
204	0x3a819082	0.0009884986
205	0x394e782a	0.00019690456
206	0x00000000	0.0
207	0x3b353ebb	0.0027655798
208	0x3a09a327	0.0005250447
209	0x3b26fecf	0.0025481468
210	0xb622dc76	-2.4268206e-06
211	0x3a49716c	0.00076844427
212	0x37e8b7f4	2.7742215e-05
213	0x00000000	0.0
214	0x3a42c008	0.00074291276
215	0x3a161481	0.0005725101
216	0xb9a82aa0	-0.00032075215
217	0xb8181422	-3.6258374e-05
218	0x00000000	0.0
219	0xb92e3bbd	-0.00016616187
220	0xb6f268ff	-7.224385e-06
221	0xb93d1e66	-0.00018035769
222	0xb68d1ed3	-4.205716e-06
223	0xb86ccc2d	-5.645694e-05
224	0xb71ac10f	-9.224065e-06
225	0x00000000	0.0
226	0xb833805b	-4.2796466e-05
227	0x3810fbb9	3.456671e-05
228	0xba1307b6	-0.0005608754
229	0xb894ceb5	-7.095692e-05
230	0x00000000	0.0
231	0x3978ed68	0.00023739564
232	0x38848b2c	6.320173e-05
233	0x38257dd8	3.9456267e-05
234	0xb5ae8a27	-1.3004218e-06
235	0x377c8f27	1.5053701e-05
236	0xb830ef0a	-4.2184292e-05
237	0x00000000	0.0
238	0x38884bf4	6.499133e-05
239	0x39251d3d	0.00015746518
240	0x38e82c28	0.00011070847
241	0x37cce7fa	2.4426718e-05
242	0x00000000	0.0
243	0x39e2324d	0.00043143556
244	0x37fec6c1	3.0371712e-05
245	0x39b7039c	0.0003490717
246	0xb61b7e5c	-2.317035e-06
247	0x38991856	7.3001414e-05
248	0xb63f5240	-2.8509094e-06
249	0x00000000	0.0
250	0x39007119	0.00012249163
251	0x38235daa	3.894946e-05
252	0x39b946bd	0.00035338654
253	0x38ad2ec2	8.257992e-05
254	0x00000000	0.0
255	0xb94ebed3	-0.00019716778

exp_avg_sq f4 [24, 12]
0	0x37900017	1.716618e-05
1	0x34396e1d	1.7269527e-07
2	0x00000000	0.0
3	0x370ef1a5	8.520122e-06
4	0x34622683	2.10619e-07
5	0x36b951c0	5.5229466e-06
6	0x2fc9d939	3.6716033e-10
7	0x352a86bc	6.3526e-07
8	0x32f5c2cb	2.8610335e-08
9	0x00000000	0.0
10	0x353353c0	6.680457e-07
11	0x351c17ea	5.814933e-07
12	0x37622b46	1.3480725e-05
13	0x358cb2e9	1.0482883e-06
14	0x00000000	0.0
15	0x36def63c	6.644781e-06
16	0x347a6f50	2.332356e-07
17	0x3712ebee	8.75721e-06
18	0x3135293d	2.6362408e-09
19	0x35ca2d54	1.5063365e-06
20	0x3434d3fc	1.6840926e-07
21	0x00000000	0.0
22	0x34119f46	1.356212e-07
23	0x3320ee81	3.746982e-08
24	0x38b1aa01	8.4716834e-05
25	0x362017d3	2.3855725e-06
26	0x00000000	0.0
27	0x3610cbef	2.1576377e-06
28	0x3540da65	7.184338e-07
29	0x37667da4	1.3738321e-05
30	0x3132ce0e	2.6019538e-09
31	0x367cb3cf	3.7655589e-06
32	0x34c0039f	3.5765422e-07
33	0x00000000	0.0
34	0x338c7506	6.5405445e-08
35	0x341a186c	1.4351252e-07
36	0x37a4aee8	1.963177e-05
37	0x352128b0	6.003638e-07
38	0x00000000	0.0
39	0x3844c9c8	4.6917965e-05
40	0x35e1f4ea	1.6835086e-06
41	0x3840d977	4.5978897e-05
42	0x2f712c84	2.1934637e-10
43	0x368fd350	4.286332e-06
44	0x33aa1f5f	7.921948e-08
45	0x00000000	0.0
46	0x3655878d	3.1818374e-06
47	0x35e37e22	1.6949527e-06
48	0x37e121fa	2.6837912e-05
49	0x35a87a21	1.255252e-06
50	0x00000000	0.0
51	0x37ad8993	2.068727e-05
52	0x354a17db	7.528558e-07
53	0x37cea739	2.4634983e-05
54	0x307c0504	9.1684194e-10
55	0x3646ee5e	2.9643047e-06
56	0x345a1ab8	2.0312552e-07
57	0x00000000	0.0
58	0x358aaa98	1.033145e-06
59	0x34f1e517	4.5056433e-07
60	0x38863abe	6.4005595e-05
61	0x35a1ae73	1.2046206e-06
62	0x00000000	0.0
63	0x36a4063b	4.888306e-06
64	0x355e4ace	8.28103e-07
65	0x378037e4	1.5284815e-05
66	0x30eb33a1	1.7113174e-09
67	0x36546598	3.1649597e-06
68	0x3428ca60	1.5719843e-07
69	0x00000000	0.0
70	0x345f1a8f	2.0778155e-07
71	0x3451a650	1.9525146e-07
72	0x39807317	0.0002449981
73	0x36339260	2.675828e-06
74	0x00000000	0.0
75	0x39a3f1be	0.00031269895
76	0x36e99df8	6.962331e-06
77	0x3940a87f	0.00018373317
78	0x313d484c	2.7544216e-09
79	0x37703f71	1.4319886e-05
80	0x35057c5e	4.972734e-07
81	0x00000000	0.0
82	0x37a8cd2c	2.0122701e-05
83	0x37b4564c	2.1497857e-05
84	0x37e5de5e	2.7402475e-05
85	0x34e5b406	4.2785558e-07
86	0x00000000	0.0
87	0x387409a9	5.818313e-05
88	0x362340bd	2.4326575e-06
89	0x386e673d	5.683977e-05
90	0x30c6e971	1.4472744e-09
91	0x36b6edc3	5.451702e-06
92	0x339b05d6	7.2188115e-08
93	0x00000000	0.0
94	0x36a6036d	4.9475843e-06
95	0x363d0eb2	2.8171748e-06
96	0x380e7f7f	3.397418e-05
97	0x35cee744	1.5415503e-06
98	0x00000000	0.0
99	0x3601ba01	1.9330766e-06
100	0x34b17b28	3.3058427e-07
101	0x36e542d0	6.83251e-06
102	0x305b4309	7.9767e-10
103	0x35e8508a	1.7308787e-06
104	0x342f1cee	1.630867e-07
105	0x00000000	0.0
106	0x32d7ceef	2.5123397e-08
107	0x33744892	5.687668e-08
108	0x379aa40d	1.8434623e-05
109	0x3535e405	6.7759566e-07
110	0x00000000	0.0
111	0x375883a7	1.2905256e-05
112	0x35386266	6.868853e-07
113	0x37937d58	1.7582133e-05
114	0x2f689a36	2.1155064e-10
115	0x361cc323	2.3359396e-06
116	0x341682eb	1.4017466e-07
117	0x00000000	0.0
118	0x352c8b66	6.4277845e-07
119	0x34d2cd65	3.9264992e-07
120	0x39972c78	0.00028834096
121	0x36b0b511	5.2662876e-06
122	0x00000000	0.0
123	0x39504d2f	0.00019865179
124	0x37cab88e	2.4166216e-05
125	0x39aeb8a9	0.0003332545
126	0x31464498	2.8851783e-09
127	0x38444d6f	4.6802157e-05
128	0x354e95eb	7.695914e-07
129	0x00000000	0.0
130	0x371d645f	9.381299e-06
131	0x3799096b	1.8243407e-05
132	0x3827f125	4.0040486e-05
133	0x3516b603	5.6144216e-07
134	0x00000000	0.0
135	0x3790591c	1.7207632e-05
136	0x35890db3	1.0211282e-06
137	0x37a562f8	1.9715619e-05
138	0x30825a26	9.484367e-10
139	0x361eea51	2.3680225e-06
140	0x3370e912	5.609133e-08
141	0x00000000	0.0
142	0x359c6049	1.1650928e-06
143	0x361c81b2	2.3321304e-06
144	0x395eacd0	0.00021235947
145	0x3680ae76	3.835007e-06
146	0x00000000	0.0
147	0x38c15469	9.21868e-05
148	0x35af8e59	1.3079945e-06
149	0x3810f58b	3.4560955e-05
150	0x3275bf37	1.4304354e-08
151	0x36617fa0	3.36019e-06
152	0x358ac9ba	1.0340511e-06
153	0x00000000	0.0
154	0x3724389d	9.788343e-06
155	0x3719998b	9.15526e-06
156	0x38bb444d	8.929577e-05
157	0x35fdb373	1.8902196e-06
158	0x00000000	0.0
159	0x362eff70	2.6076705e-06
160	0x34d7ef45	4.0220962e-07
161	0x36f37335	7.255376e-06
162	0x3124f956	2.4006872e-09
163	0x3624e04d	2.4568465e-06
164	0x34b55a42	3.3779548e-07
165	0x00000000	0.0
166	0x35004f2a	4.7798915e-07
167	0x3557df83	8.0418994e-07
168	0x3a692c29	0.0008894825
169	0x37a96987	2.019551e-05
170	0x00000000	0.0
171	0x38652dd5	5.464054e-05
172	0x35e09ef1	1.6735559e-06
173	0x37f6d1a5	2.9423109e-05
174	0x331eed72	3.7003197e-08
175	0x3783d46a	1.571533e-05
176	0x36739687	3.629744e-06
177	0x00000000	0.0
178	0x37332461	1.06777015e-05
179	0x3795a73e	1.7840062e-05
180	0x37cb755d	2.4254137e-05
181	0x34f34045	4.530904e-07
182	0x00000000	0.0
183	0x378ae0a9	1.6555497e-05
184	0x34b5d9e5	3.3872416e-07
185	0x373a78a1	1.111455e-05
186	0x31b2921a	5.1970916e-09
187	0x359b36ee	1.1564387e-06
188	0x3411c49d	1.3575705e-07
189	0x00000000	0.0
190	0x3602476a	1.9413078e-06
191	0x34a25332	3.0235384e-07
192	0x37510669	1.2458863e-05
193	0x347a8760	2.3332314e-07
194	0x00000000	0.0
195	0x36fd228a	7.5440084e-06
196	0x34b06677	3.2857108e-07
197	0x3724fb21	9.833632e-06
198	0x3031786b	6.456335e-10
199	0x3596b7d0	1.1229367e-06
200	0x330ec81d	3.3243953e-08
201	0x00000000	0.0
202	0x34ea23d6	4.361197e-07
203	0x3480b9f3	2.3977154e-07
204	0x3a192213	0.0005841564
205	0x3791fadb	1.740216e-05
206	0x00000000	0.0
207	0x3a18e757	0.0005832812
208	0x37d3a928	2.523193e-05
209	0x3a353750	0.0006912844
210	0x321f105a	9.258736e-09
211	0x38ad4744	8.262557e-05
212	0x36060e24	1.9975787e-06
213	0x00000000	0.0
214	0x38059c79	3.1855398e-05
215	0x37786b49	1.4806931e-05
216	0x37fba590	2.9998628e-05
217	0x3481004a	2.4028333e-07
218	0x00000000	0.0
219	0x38281c1c	4.00805e-05
220	0x35d766d3	1.6048674e-06
221	0x37d59a5a	2.5463454e-05
222	0x2f8b692f	2.535869e-10
223	0x3603715d	1.9586507e-06
224	0x32c8dda4	2.3383855e-08
225	0x00000000	0.0
226	0x36447d4e	2.9279213e-06
227	0x36a80b12	5.008079e-06
228	0x383bc7ea	4.477046e-05
229	0x35a79e0d	1.2488468e-06
230	0x00000000	0.0
231	0x3866b3e3	5.5003806e-05
232	0x35f0e57a	1.794818e-06
233	0x383fe5ac	4.5751847e-05
234	0x303b7c51	6.820687e-10
235	0x369cf7a7	4.677993e-06
236	0x342a6532	1.5869298e-07
237	0x00000000	0.0
238	0x367f9fcd	3.8090977e-06
239	0x35d1fd18	1.5645373e-06
240	0x38885d7a	6.502397e-05
241	0x3590797f	1.0764196e-06
242	0x00000000	0.0
243	0x3816e709	3.5977955e-05
244	0x35f7e6c0	1.8470091e-06
245	0x383ca744	4.497847e-05
246	0x30a964f2	1.2325059e-09
247	0x36b4bb96	5.386256e-06
248	0x342b0f02	1.5931076e-07
249	0x00000000	0.0
250	0x36190aa0	2.2804961e-06
251	0x35fb9400	1.8744031e-06
252	0x39f18c10	0.00046071457
253	0x37505b41	1.2419013e-05
254	0x00000000	0.0
255	0x3905420b	0.00012708471

exp_avg f4 [12]
0	0x3b41f2a2	0.0029594083
1	0x39fabeb4	0.000478258
2	0x00000000	0.0
3	0xba9e6593	-0.0012084715
4	0x3aa6aa87	0.0012715616
5	0xbb20a595	-0.0024512757
6	0xba2efa6a	-0.0006674888
7	0xb9eb232b	-0.00044848895
8	0x39422564	0.00018515211
9	0x00000000	0.0
10	0xba571d9c	-0.0008206011
11	0x38e15d27	0.00010746187

exp_avg_sq f4 [12]
0	0x39d43d52	0.00040481478
1	0x39646023	0.00021779588
2	0x00000000	0.0
3	0x39495080	0.00019198842
4	0x39106611	0.00013770933
5	0x39bda301	0.00036170337
6	0x38cf02f8	9.871082e-05
7	0x39f03993	0.00045819263
8	0x3912a985	0.00013986796
9	0x00000000	0.0
10	0x386dd786	5.6705925e-05
11	0x381f1cad	3.793526e-05

exp_avg f4 [24]
0	0x38bfb472	9.1412e-05
1	0xb823f00b	-3.9085786e-05
2	0xb89ed310	-7.5733406e-05
3	0xb9e49dce	-0.00043605122
4	0x39a2c848	0.0003104827
5	0x39a84c2b	0.00032100207
6	0x3a2e2091	0.0006642426
7	0x3a5a6cb7	0.000833224
8	0xb814b906	-3.5458266e-05
9	0xb95b2c34	-0.00020901934
10	0x3b01e422	0.0019819816
11	0x38844f77	6.309052e-05
12	0xb9f71e5c	-0.0004713413
13	0xb9430e99	-0.00018602087
14	0x392b356c	0.00016327732
15	0xb98304c3	-0.00024989815
16	0x39ce9306	0.00039400923
17	0x3aca10d0	0.0015416387
18	0xb9573590	-0.00020523951
19	0xb9324818	-0.0001700226
20	0x396aef3d	0.00022405102
21	0x387478f3	5.8286776e-05
22	0xba7a61e0	-0.00095513277
23	0x38b41fe7	8.589011e-05

exp_avg_sq f4 [24]
0	0x3674260d	3.6380982e-06
1	0x36eaf4b7	7.002232e-06
2	0x37aeef88	2.0853957e-05
3	0x37afbff4	2.095101e-05
4	0x378847ed	1.6245956e-05
5	0x3793eca7	1.7633965e-05
6	0x3885970d	6.3700696e-05
7	0x37cc39cb	2.4345607e-05
8	0x3727aa60	9.993644e-06
9	0x3736208b	1.0855622e-05
10	0x39321d22	0.00016986256
11	0x375f01b3	1.3292231e-05
12	0x37ad019b	2.0623955e-05
13	0x37863225	1.5997395e-05
14	0x38fafb46	0.00011967732
15	0x370326f2	7.817276e-06
16	0x36db007b	6.5267645e-06
17	0x39d1797b	0.00039954096
18	0x36bbb44f	5.594025e-06
19	0x37e15d35	2.6865493e-05
20	0x37fa1259	2.9810866e-05
21	0x3822600a	3.8713253e-05
22	0x393a9b8b	0.00017796287
23	0x35996f1f	1.1431729e-06

exp_avg f4 [12, 12]
0	0x36bfe0e7	5.7184257e-06
1	0x38a8cb2e	8.0487094e-05
2	0x3939235f	0.00017656152
3	0xb9bd7e45	-0.00036142967
4	0xb926ea27	-0.00015918222
5	0x3ab9655e	0.001414459
6	0x39b83ae6	0.00035139098
7	0x374417cc	1.1688051e-05
8	0xb6d5f834	-6.3767893e-06
9	0xb899c9f2	-7.333224e-05
10	0xb91b7b95	-0.0001482799
11	0xb89b2cf5	-7.39935e-05
12	0x34e316da	4.2298672e-07
13	0x3867f778	5.5305165e-05
14	0x3a26b8cb	0.0006359934
15	0x3aa3d52a	0.0012499441
16	0x3b3d6a09	0.0028902313
17	0x3b792ee4	0.0038022334
18	0x3b55ff29	0.0032653308
19	0x3a7d6643	0.0009666422
20	0x383c5c8c	4.4908884e-05
21	0x3482a00b	2.4330834e-07
22	0x2f15e40b	1.3632488e-10
23	0x2807706c	7.518383e-15
24	0x38077ca7	3.23026e-05
25	0x39b6a982	0.00034840038
26	0x3a90a99b	0.0011036874
27	0x3acd2c90	0.001565354
28	0x3b2c076c	0.002624954
29	0x3b01f3e0	0.0019829199
30	0x3a7c4cc0	0.0009624474
31	0x394cc3d8	0.00019527914
32	0xb9215d43	-0.00015388899
33	0xb942b7cf	-0.00018569756
34	0xb85ad598	-5.2174175e-05
35	0xb6e1a1bd	-6.7243514e-06
36	0xb8e2b8cf	-0.00010810943
37	0xba3b1211	-0.0007136176
38	0xbab0bf32	-0.0013484715
39	0xbaf891ca	-0.0018964347
40	0xbb25d69a	-0.0025304914
41	0xbae631d4	-0.0017562457
42	0xb97e05c0	-0.0002422547
43	0xb92ea45c	-0.00016655162
44	0xb99890de	-0.00029099634
45	0xb8c3bf5b	-9.333967e-05
46	0x37d64db9	2.554698e-05
47	0x38210fc8	3.840009e-05
48	0x00000000	0.0
49	0x00000000	0.0
50	0x00000000	0.0
51	0x00000000	0.0
52	0x00000000	0.0
53	0x00000000	0.0
54	0x00000000	0.0
55	0x00000000	0.0
56	0x00000000	0.0
57	0x00000000	0.0
58	0x00000000	0.0
59	0x00000000	0.0
60	0x00000000	0.0
61	0x00000000	0.0
62	0x00000000	0.0
63	0x00000000	0.0
64	0x00000000	0.0
65	0x00000000	0.0
66	0x00000000	0.0
67	0x00000000	0.0
68	0x00000000	0.0
69	0x00000000	0.0
70	0x00000000	0.0
71	0x00000000	0.0
72	0x38a15ed5	7.694742e-05
73	0x3a05b43a	0.0005100403
74	0x3a9c5579	0.0011927328
75	0x3a7df599	0.0009687781
76	0x393b476a	0.00017860314
77	0x3a833afb	0.0010012084
78	0x3b3ab521	0.002848931
79	0x3a9727cb	0.0011532245
80	0x38b98b5f	8.847447e-05
81	0x3761df68	1.3463061e-05
82	0x3846cfba	4.740034e-05
83	0x38213389	3.8433387e-05
84	0x384cd7a0	4.8838207e-05
85	0x3947ffec	0.00019073457
86	0xb9879b6d	-0.00025865008
87	0xbb0dfb15	-0.002166455
88	0xbb45d255	-0.0030185182
89	0xbb24a1d0	-0.0025120862
90	0xbaf1177b	-0.0018393839
91	0xba913b3b	-0.0011080274
92	0xb9c90d4b	-0.00038347612
93	0xb8d7d018	-0.000102907594
94	0xb8f94803	-0.000118866585
95	0xb8c9612e	-9.602528e-05
96	0x00000000	0.0
97	0x00000000	0.0
98	0x00000000	0.0
99	0x00000000	0.0
100	0x00000000	0.0
101	0x00000000	0.0
102	0x00000000	0.0
103	0x00000000	0.0
104	0x00000000	0.0
105	0x00000000	0.0
106	0x00000000	0.0
107	0x00000000	0.0
108	0x3685d899	3.988924e-06
109	0xb8b7f219	-8.771214e-05
110	0xb9e21bbc	-0.00043126743
111	0x38d66c01	0.000102244325
112	0x38b6c442	8.714992e-05
113	0x3619665c	2.2858358e-06
114	0x3300ab14	2.9957917e-08
115	0x36a9c21c	5.05919e-06
116	0x38e5a785	0.00010950774
117	0x39a8fd36	0.00032232114
118	0x397ded23	0.000242163
119	0x388d7ce5	6.746667e-05
120	0x36a04a8a	4.777049e-06
121	0x38629087	5.40172e-05
122	0x38b17d5b	8.463367e-05
123	0xba2f295b	-0.00066818827
124	0x37eca7ad	2.8211472e-05
125	0x3b1e6a25	0.0024172154
126	0x3ade413e	0.00169567
127	0x382494ea	3.9239334e-05
128	0xba05a2af	-0.0005097789
129	0xb9cf39a0	-0.0003952505
130	0xb8d6cd5d	-0.00010242567
131	0xb6ba2d53	-5.5485084e-06
132	0x37d158cc	2.495609e-05
133	0x38e6b6fd	0.00011001339
134	0x383c5ac1	4.4907214e-05
135	0x35e32449	1.6923378e-06
136	0x359e4e73	1.1794749e-06
137	0x39192404	0.00014604634
138	0x3aa909a4	0.001289655
139	0x3ae3dbd2	0.0017384237
140	0x39e2f3a4	0.00043287606
141	0xb630a316	-2.6320972e-06
142	0xb88ff2fa	-6.864029e-05
143	0xb6e6da7b	-6.8799686e-06

exp_avg_sq f4 [12, 12]
0	0x33b28db4	8.3145466e-08
1	0x3654a4ce	3.168639e-06
2	0x38014f5c	3.0829906e-05
3	0x3aa3f7b1	0.0012509731
4	0x3bbd790b	0.0057822517
5	0x3bb4ab1e	0.005513563
6	0x39a0d698	0.00030677463
7	0x34b0a954	3.2905757e-07
8	0x3269a811	1.3600599e-08
9	0x35d67c40	1.5980404e-06
10	0x36aad211	5.0908498e-06
11	0x362048e4	2.3884286e-06
12	0x319b857d	4.5262696e-09
13	0x3793c16f	1.761384e-05
14	0x3a44ce13	0.0007507514
15	0x3a002f0d	0.00048898236
16	0x397c7c51	0.00024078904
17	0x397a3d23	0.00023864633
18	0x39d974fd	0.00041476628
19	0x38133294	3.5094636e-05
20	0x3392a00c	6.827767e-08
21	0x2c05d5cb	1.9019116e-12
22	0x212b5827	5.805372e-19
23	0x13092ad5	1.7312949e-27
24	0x331a3c47	3.591074e-08
25	0x3701ca7f	7.7361465e-06
26	0x393a8b60	0.00017790264
27	0x3999ffd4	0.0002937304
28	0x39a4aec0	0.00031410716
29	0x3a1b2fec	0.00059199217
30	0x39ae512f	0.00033248353
31	0x37bd3fd1	2.2560273e-05
32	0x369e31aa	4.7145486e-06
33	0x3613cf8d	2.2025517e-06
34	0x34ac55d3	3.2099942e-07
35	0x31921c81	4.2523998e-09
36	0x34376061	1.7078266e-07
37	0x35faf46b	1.8697586e-06
38	0x386738f0	5.512772e-05
39	0x391fbac2	0.00015232994
40	0x38f01920	0.00011448772
41	0x3822995a	3.876663e-05
42	0x3543e8fc	7.29822e-07
43	0x38212ea9	3.8428847e-05
44	0x3841620c	4.61061e-05
45	0x366229ba	3.3700912e-06
46	0x33ca073f	9.407676e-08
47	0x329071aa	1.6815495e-08
48	0x00000000	0.0
49	0x00000000	0.0
50	0x00000000	0.0
51	0x00000000	0.0
52	0x00000000	0.0
53	0x00000000	0.0
54	0x00000000	0.0
55	0x00000000	0.0
56	0x00000000	0.0
57	0x00000000	0.0
58	0x00000000	0.0
59	0x00000000	0.0
60	0x00000000	0.0
61	0x00000000	0.0
62	0x00000000	0.0
63	0x00000000	0.0
64	0x00000000	0.0
65	0x00000000	0.0
66	0x00000000	0.0
67	0x00000000	0.0
68	0x00000000	0.0
69	0x00000000	0.0
70	0x00000000	0.0
71	0x00000000	0.0
72	0x338ef85a	6.657565e-08
73	0x36bf1bcd	5.69548e-06
74	0x3883c821	6.283844e-05
75	0x38825a70	6.215728e-05
76	0x36804b71	3.82348e-06
77	0x370d939e	8.438625e-06
78	0x38d602e4	0.000102048536
79	0x389acbe4	7.38127e-05
80	0x35e326c4	1.69241e-06
81	0x314365ee	2.8434175e-09
82	0x338d7346	6.586792e-08
83	0x33cd0142	9.546285e-08
84	0x34d5ade4	3.9800864e-07
85	0x3802accf	3.1155356e-05
86	0x38f878dc	0.00011848073
87	0x38b75a2b	8.742915e-05
88	0x3a6564ad	0.00087506586
89	0x3aae5943	0.0013301749
90	0x398f0dca	0.0002728536
91	0x38f22b08	0.000115474744
92	0x37927cd1	1.7462678e-05
93	0x34884062	2.537882e-07
94	0x345105b1	1.9466712e-07
95	0x340f4b64	1.334534e-07
96	0x00000000	0.0
97	0x00000000	0.0
98	0x00000000	0.0
99	0x00000000	0.0
100	0x00000000	0.0
101	0x00000000	0.0
102	0x00000000	0.0
103	0x00000000	0.0
104	0x00000000	0.0
105	0x00000000	0.0
106	0x00000000	0.0
107	0x00000000	0.0
108	0x359a9f5b	1.1520273e-06
109	0x38df6ba6	0.0001065352
110	0x3a01a006	0.0004944805
111	0x39598171	0.00020742953
112	0x3657eb23	3.2174364e-06
113	0x30852479	9.68739e-10
114	0x299ae05e	6.877895e-14
115	0x30c8a0a9	1.4597578e-09
116	0x350df3e7	5.288152e-07
117	0x3679a3c4	3.7199216e-06
118	0x360e7b8f	2.123157e-06
119	0x354f862d	7.730876e-07
120	0x34293324	1.5757956e-07
121	0x36cedfd2	6.1653345e-06
122	0x374f14d2	1.2343009e-05
123	0x383bab5d	4.474387e-05
124	0x392024bf	0.00015272478
125	0x39537bb9	0.00020168618
126	0x383e0fed	4.5314362e-05
127	0x358c2ce0	1.0443873e-06
128	0x360fdb7e	2.1436422e-06
129	0x358b701e	1.0388937e-06
130	0x3381843e	6.031085e-08
131	0x301e87b3	5.7672905e-10
132	0x33fe2294	1.18340864e-07
133	0x3610461b	2.149848e-06
134	0x34b40a01	3.3534891e-07
135	0x2fe97755	4.2467244e-10
136	0x334da151	4.7877e-08
137	0x388675b7	6.411544e-05
138	0x3ac6b995	0.0015161509
139	0x3ab6ed08	0.0013956139
140	0x38d776d6	0.00010274134
141	0x3534d076	6.7358576e-07
142	0x35e3608a	1.6940915e-06
143	0x360f2d24	2.1334936e-06

exp_avg f4 [24, 12]
0	0xb87ff037	-6.1020455e-05
1	0xb7b886f2	-2.1997348e-05
2	0xb7e6c50e	-2.7509897e-05
3	0x39a09d09	0.00030634578
4	0x00000000	0.0
5	0x00000000	0.0
6	0x38346d6b	4.3017248e-05
7	0x3988dc56	0.00026104104
8	0x00000000	0.0
9	0x37f9d879	2.9783916e-05
10	0xb7ca6095	-2.4125251e-05
11	0x38854aed	6.35589e-05
12	0x38ada2b1	8.2795865e-05
13	0xb7094a43	-8.183127e-06
14	0x399b4332	0.00029613968
15	0xb4c706a2	-3.7071464e-07
16	0x00000000	0.0
17	0x00000000	0.0
18	0x37700c0d	1.43079205e-05
19	0x3955fecc	0.00020408182
20	0x00000000	0.0
21	0x349a7de5	2.8776336e-07
22	0x39d19c3c	0.0003997999
23	0x378fec4d	1.7156965e-05
24	0xb814a152	-3.543619e-05
25	0x37c551ff	2.3522412e-05
26	0xb9af3c50	-0.00033423537
27	0xb9094ded	-0.00013094368
28	0x00000000	0.0
29	0x00000000	0.0
30	0xb7607625	-1.3378948e-05
31	0xb9a663b7	-0.0003173628
32	0x00000000	0.0
33	0xb85bb774	-5.2384523e-05
34	0xb9dadfd4	-0.00041746965
35	0xb847a423	-4.759816e-05
36	0xb96b4442	-0.00022436774
37	0xb9838a36	-0.00025089242
38	0xba2afff6	-0.00065231265
39	0xba207eff	-0.00061224395
40	0x00000000	0.0
41	0x00000000	0.0
42	0xb91fe66e	-0.00015249263
43	0xba002441	-0.0004888215
44	0x00000000	0.0
45	0x3938d3c7	0.000176265
46	0xb8c05f8b	-9.17307e-05
47	0xb9124946	-0.00013950942
48	0x398c98c8	0.00026816712
49	0x39d895f5	0.00041310457
50	0x3a7a6dbf	0.00095530966
51	0x39aa462a	0.00032477203
52	0x00000000	0.0
53	0x00000000	0.0
54	0x3933e9c6	0.00017157858
55	0x3a88c2b7	0.0010434006
56	0x00000000	0.0
57	0x38a6015a	7.9157486e-05
58	0x3a5c3a5c	0.000840103
59	0x3909b7c1	0.00013133792
60	0x38a44261	7.8324934e-05
61	0x38ce489e	9.8363715e-05
62	0x39b94498	0.00035337056
63	0xba0214db	-0.0004962214
64	0x00000000	0.0
65	0x00000000	0.0
66	0xb752d2e8	-1.2566081e-05
67	0x39ca44a0	0.00038579572
68	0x00000000	0.0
69	0xb7be506a	-2.268721e-05
70	0x3a11a438	0.00055557815
71	0xb8201266	-3.8164108e-05
72	0x386ad693	5.5989785e-05
73	0x39801f50	0.00024437392
74	0x3adb63b0	0.0016738083
75	0xb9f0ea02	-0.00045950717
76	0x00000000	0.0
77	0x00000000	0.0
78	0x39d17cc8	0.00039956556
79	0x3b50cd35	0.0031860594
80	0x00000000	0.0
81	0xb83b4aab	-4.4653814e-05
82	0x3b00b009	0.0019636175
83	0x39f1aff0	0.00046098186
84	0xb9432cf4	-0.00018613396
85	0xb8564b78	-5.109186e-05
86	0xb99bbc89	-0.00029704373
87	0xb9046f83	-0.00012630042
88	0x00000000	0.0
89	0x00000000	0.0
90	0x37aad592	2.036503e-05
91	0x3919332f	0.00014610284
92	0x00000000	0.0
93	0xb83e1c52	-4.5325905e-05
94	0xb9d39604	-0.00040356827
95	0x37c239f2	2.3153585e-05
96	0x39954a5e	0.00028474903
97	0x393b0aaa	0.00017837682
98	0x3a5a9940	0.0008338876
99	0x3a1df165	0.00060250453
100	0x00000000	0.0
101	0x00000000	0.0
102	0x38059433	3.1847692e-05
103	0x39c39969	0.00037307598
104	0x00000000	0.0
105	0x38a84c29	8.02505e-05
106	0x3a8b1f0b	0.001061411
107	0xb7e3be9f	-2.7149274e-05
108	0x3916312d	0.00014323434
109	0x39704e68	0.00022917392
110	0x3a416d9a	0.00073786976
111	0x39dc6e86	0.00042044016
112	0x00000000	0.0
113	0x00000000	0.0
114	0x39156161	0.00014246024
115	0x3a6e4d1f	0.00090904714
116	0x00000000	0.0
117	0x38c7a325	9.5194475e-05
118	0x3a4a3631	0.00077137636
119	0x38f0a468	0.00011474715
120	0x38197890	3.6590325e-05
121	0x399d7c39	0.00030037927
122	0x3a61fd3d	0.00086208043
123	0xbabc3fc9	-0.0014362271
124	0x00000000	0.0
125	0x00000000	0.0
126	0x390c1608	0.00013359648
127	0x3a7d3fdf	0.00096607016
128	0x00000000	0.0
129	0xb9e87792	-0.00044339575
130	0x399378d0	0.00028128037
131	0x3753ba0f	1.26199e-05
132	0x39f9b4fe	0.0004762783
133	0x3a4f8753	0.0007916588
134	0x3b1d90cb	0.0024042602
135	0xb8137a3d	-3.5161374e-05
136	0x00000000	0.0
137	0x00000000	0.0
138	0x39d89b4a	0.0004131443
139	0x3b470afd	0.003037154
140	0x00000000	0.0
141	0x390eecba	0.00013630363
142	0x3b30d50f	0.0026982462
143	0x39980aa3	0.00028999624
144	0xb8811320	-6.154762e-05
145	0x3812098a	3.4817996e-05
146	0x3976c29b	0.00023532884
147	0xb9a5d632	-0.0003163084
148	0x00000000	0.0
149	0x00000000	0.0
150	0x38f81390	0.00011829205
151	0x3a3e2919	0.0007254049
152	0x00000000	0.0
153	0xb96abdc6	-0.00022386675
154	0x38c75341	9.504567e-05
155	0x38d52fec	0.000101655576
156	0x38ed1469	0.00011304842
157	0x376ecedb	1.4234068e-05
158	0x39a31bd2	0.0003111051
159	0x3a289f5e	0.0006432439
160	0x00000000	0.0
161	0x00000000	0.0
162	0x37a7fc3e	2.002541e-05
163	0x3913b632	0.00014086885
164	0x00000000	0.0
165	0x36ddeedf	6.6141215e-06
166	0x398b1a5b	0.00026531782
167	0x3865a6da	5.4753247e-05
168	0xba0e4f40	-0.0005428679
169	0xba1948f9	-0.00058473606
170	0xbb029957	-0.0019927823
171	0xb9ba292f	-0.0003550737
172	0x00000000	0.0
173	0x00000000	0.0
174	0x37103c6e	8.597139e-06
175	0xbab33168	-0.001367134
176	0x00000000	0.0
177	0xb98693e3	-0.00025668656
178	0xbb266dc7	-0.0025395022
179	0x38b1d1e5	8.4791136e-05
180	0x386c7d6a	5.6383586e-05
181	0x393db5ab	0.00018092121
182	0xb7394a15	-1.1044108e-05
183	0x3a6c894e	0.00090231455
184	0x00000000	0.0
185	0x00000000	0.0
186	0x38446b64	4.6830057e-05
187	0x397befe3	0.0002402659
188	0x00000000	0.0
189	0x37470c5e	1.1864204e-05
190	0xb9b1c6cf	-0.00033908195
191	0x38ebbd42	0.00011240925
192	0x3af1bc1c	0.0018442902
193	0x3ac9a35c	0.0015383768
194	0x3bd97409	0.006636147
195	0x3b68528a	0.0035449588
196	0x00000000	0.0
197	0x00000000	0.0
198	0x3a167947	0.00057401176
199	0x3bcfd21a	0.0063421847
200	0x00000000	0.0
201	0x3a27fc05	0.0006408098
202	0x3c09b960	0.008406013
203	0x39b36feb	0.00034224926
204	0x3a8946c4	0.001047336
205	0x3a814ce4	0.0009864834
206	0x3b5c676a	0.0033630976
207	0x39e4bdfb	0.00043629095
208	0x00000000	0.0
209	0x00000000	0.0
210	0x3933cea0	0.00017147744
211	0x3b1e1596	0.0024121753
212	0x00000000	0.0
213	0xb8ed4acc	-0.00011314973
214	0x3b522442	0.0032065068
215	0x3939eb5c	0.00017730653
216	0xb98967f0	-0.00026208116
217	0xb92fb56d	-0.00016756887
218	0xba629656	-0.00086436176
219	0xba0b2b46	-0.00053088774
220	0x00000000	0.0
221	0x00000000	0.0
222	0x381168bb	3.4668232e-05
223	0xba3cf680	-0.0007208362
224	0x00000000	0.0
225	0xb9920637	-0.0002785192
226	0xbae075a7	-0.0017124907
227	0x38c2d144	9.2896196e-05
228	0x39fb169f	0.00047891305
229	0x39b93e9a	0.00035332592
230	0x3ae6bc9a	0.0017603815
231	0x3a297a02	0.0006465019
232	0x00000000	0.0
233	0x00000000	0.0
234	0x39004c3a	0.00012235428
235	0x3ab4e5b3	0.0013801366
236	0x00000000	0.0
237	0x3949fd42	0.000192632
238	0x3b03e9cf	0.0020128374
239	0x38c45927	9.362614e-05
240	0xb8b111cb	-8.443332e-05
241	0x380c0f00	3.339257e-05
242	0xb9393d32	-0.00017665772
243	0xb8e1a630	-0.00010759791
244	0x00000000	0.0
245	0x00000000	0.0
246	0xb7f2a6fe	-2.892641e-05
247	0xb89a0719	-7.344614e-05
248	0x00000000	0.0
249	0x38a59075	7.89472e-05
250	0xb71ac5c8	-9.225165e-06
251	0xb8847768	-6.3164916e-05
252	0x3a01c530	0.00049503427
253	0x3a59a09c	0.0008301826
254	0x3b1364bb	0.002249046
255	0x3ae8453c	0.0017720829

exp_avg_sq f4 [24, 12]
0	0x371f78ef	9.505296e-06
1	0x3740ecb6	1.1499205e-05
2	0x39230c0b	0.00015549378
3	0x38662d76	5.4878612e-05
4	0x00000000	0.0
5	0x00000000	0.0
6	0x362b458a	2.5521463e-06
7	0x3963017a	0.00021648957
8	0x00000000	0.0
9	0x3537192e	6.8209454e-07
10	0x3934dce0	0.0001724842
11	0x3651dd67	3.12723e-06
12	0x36d5b418	6.3688603e-06
13	0x36a0a3ee	4.7874555e-06
14	0x3864879b	5.448573e-05
15	0x37227a88	9.6844815e-06
16	0x00000000	0.0
17	0x00000000	0.0
18	0x341a124c	1.4349024e-07
19	0x377970fe	1.4867865e-05
20	0x00000000	0.0
21	0x34ef0af5	4.452519e-07
22	0x38315cce	4.228652e-05
23	0x341579b7	1.3920986e-07
24	0x37ff7033	3.0450616e-05
25	0x37efdc56	2.8593622e-05
26	0x39cec633	0.00039439052
27	0x38db84e6	0.00010467488
28	0x00000000	0.0
29	0x00000000	0.0
30	0x3667a326	3.4516647e-06
31	0x39870668	0.0002575398
32	0x00000000	0.0
33	0x3431ddb6	1.6565068e-07
34	0x39bc47d7	0.0003591168
35	0x363e0343	2.8314105e-06
36	0x382ebae2	4.165888e-05
37	0x38430446	4.6495603e-05
38	0x3a1eb7ec	0.0006054628
39	0x398124b8	0.00024632155
40	0x00000000	0.0
41	0x00000000	0.0
42	0x371b3b87	9.25258e-06
43	0x3a29fb20	0.0006484259
44	0x00000000	0.0
45	0x35df0abd	1.661792e-06
46	0x3a365903	0.0006956013
47	0x37223893	9.669125e-06
48	0x37acbeb7	2.0592806e-05
49	0x372556ee	9.855006e-06
50	0x395cb3f2	0.0002104787
51	0x37d152f9	2.4953379e-05
52	0x00000000	0.0
53	0x00000000	0.0
54	0x3431f894	1.6574842e-07
55	0x37b86a83	2.1984108e-05
56	0x00000000	0.0
57	0x34abd21e	3.2004112e-07
58	0x395e7f2a	0.00021218942
59	0x35001d33	4.7726206e-07
60	0x37be2378	2.2666281e-05
61	0x387b547b	5.9921742e-05
62	0x39d11212	0.0003987705
63	0x39305475	0.0001681613
64	0x00000000	0.0
65	0x00000000	0.0
66	0x37a4f3ce	1.9663854e-05
67	0x3a6b4398	0.0008974611
68	0x00000000	0.0
69	0x35af9cb3	1.3084122e-06
70	0x394a1b82	0.00019274469
71	0x3805ac70	3.1870266e-05
72	0x37476f82	1.1887287e-05
73	0x377ddd8a	1.5131556e-05
74	0x39439f94	0.00018656097
75	0x3911e97a	0.00013915254
76	0x00000000	0.0
77	0x00000000	0.0
78	0x3793564f	1.7563956e-05
79	0x3a38a023	0.0007042905
80	0x00000000	0.0
81	0x378147d1	1.541144e-05
82	0x399cf632	0.00029938068
83	0x37bae7ae	2.2280812e-05
84	0x360c3018	2.088962e-06
85	0x36aa809f	5.0813683e-06
86	0x3801b101	3.0920844e-05
87	0x378355a6	1.56563e-05
88	0x00000000	0.0
89	0x00000000	0.0
90	0x361d9144	2.3479379e-06
91	0x38edc68d	0.000113380236
92	0x00000000	0.0
93	0x343bab2b	1.7478003e-07
94	0x37c28e3b	2.3192833e-05
95	0x36aa902a	5.0831777e-06
96	0x36dc70a4	6.569624e-06
97	0x367fdbd1	3.812591e-06
98	0x38a3dca0	7.81354e-05
99	0x378a8a6b	1.6515338e-05
100	0x00000000	0.0
101	0x00000000	0.0
102	0x344e0362	1.9186476e-07
103	0x381a0e66	3.672987e-05
104	0x00000000	0.0
105	0x34e6c2a1	4.298245e-07
106	0x38dffa1e	0.000106800566
107	0x33d30fce	9.828328e-08
108	0x36b84de1	5.4926936e-06
109	0x36dfb690	6.667171e-06
110	0x389e619c	7.552208e-05
111	0x3728d1d0	1.0062431e-05
112	0x00000000	0.0
113	0x00000000	0.0
114	0x34a65bab	3.0986607e-07
115	0x37d6eb16	2.5620258e-05
116	0x00000000	0.0
117	0x34903733	2.6862253e-07
118	0x38966183	7.17072e-05
119	0x3446c236	1.851084e-07
120	0x387fb0db	6.0961447e-05
121	0x37aac7cd	2.0358619e-05
122	0x39a5f852	0.00031656265
123	0x392583e6	0.00015784762
124	0x00000000	0.0
125	0x00000000	0.0
126	0x3710431e	8.598696e-06
127	0x398c6deb	0.00026784776
128	0x00000000	0.0
129	0x35c9e686	1.5042758e-06
130	0x39974d44	0.00028858532
131	0x376fdee4	1.4297406e-05
132	0x3706ec1a	8.041994e-06
133	0x371c9498	9.332922e-06
134	0x38c09804	9.1835886e-05
135	0x38225638	3.8704107e-05
136	0x00000000	0.0
137	0x00000000	0.0
138	0x372e14bd	1.0376037e-05
139	0x39af738f	0.000334647
140	0x00000000	0.0
141	0x35e9d62b	1.7422184e-06
142	0x38cfd2e2	9.909809e-05
143	0x37851c00	1.5867874e-05
144	0x374979f4	1.2008928e-05
145	0x37a10447	1.9194687e-05
146	0x391f6ba0	0.00015203515
147	0x38856a7f	6.361771e-05
148	0x00000000	0.0
149	0x00000000	0.0
150	0x35fad0a7	1.8687177e-06
151	0x3950a0bb	0.00019896303
152	0x00000000	0.0
153	0x370dc588	8.450246e-06
154	0x397a84cc	0.00023891329
155	0x35ceddd8	1.5412761e-06
156	0x37a27a6d	1.9368914e-05
157	0x382048dc	3.821483e-05
158	0x39b0ba8d	0.00033708327
159	0x389a97de	7.37158e-05
160	0x00000000	0.0
161	0x00000000	0.0
162	0x37371d2d	1.0914443e-05
163	0x3a004527	0.0004893117
164	0x00000000	0.0
165	0x3572c758	9.044211e-07
166	0x39476f37	0.0001901955
167	0x3765efe3	1.3705317e-05
168	0x389a42ae	7.355712e-05
169	0x37844846	1.5769281e-05
170	0x39eb6427	0.00044897312
171	0x39130d81	0.00014024043
172	0x00000000	0.0
173	0x00000000	0.0
174	0x38463672	4.7257585e-05
175	0x3a3760db	0.00069953286
176	0x00000000	0.0
177	0x3794bd3a	1.773109e-05
178	0x3a9ffdab	0.0012206336
179	0x38a56631	7.886848e-05
180	0x3687b4a6	4.0443438e-06
181	0x374cef11	1.22150095e-05
182	0x39110a4e	0.00013832116
183	0x38a85a60	8.027698e-05
184	0x00000000	0.0
185	0x00000000	0.0
186	0x37a1117c	1.9200837e-05
187	0x3a64c5ed	0.0008727003
188	0x00000000	0.0
189	0x354fe5a5	7.7447686e-07
190	0x391a9063	0.00014740373
191	0x37d59800	2.546236e-05
192	0x38a50988	7.8695884e-05
193	0x3837a1f4	4.378143e-05
194	0x3a5d7321	0.00084476365
195	0x39dfd1f6	0.00042690308
196	0x00000000	0.0
197	0x00000000	0.0
198	0x35f7a930	1.8452174e-06
199	0x3a21a019	0.0006165519
200	0x00000000	0.0
201	0x37168546	8.971727e-06
202	0x3ad9123f	0.0016561224
203	0x35f0c2f3	1.7938131e-06
204	0x37a7b22f	1.9990925e-05
205	0x37d6be3a	2.559937e-05
206	0x3a04ac6b	0.00050610927
207	0x3923f79d	0.00015637134
208	0x00000000	0.0
209	0x00000000	0.0
210	0x375d3a7e	1.3186245e-05
211	0x3a8785de	0.0010339578
212	0x00000000	0.0
213	0x3820fe30	3.8383703e-05
214	0x3aba5458	0.001421581
215	0x370b93a3	8.31942e-06
216	0x371b07c4	9.240528e-06
217	0x37713747	1.437759e-05
218	0x391a980b	0.00014743225
219	0x3815d437	3.572201e-05
220	0x00000000	0.0
221	0x00000000	0.0
222	0x370db214	8.445717e-06
223	0x399d51c1	0.00030006285
224	0x00000000	0.0
225	0x36958562	4.456074e-06
226	0x390aca1a	0.00013235994
227	0x373b3a31	1.1159617e-05
228	0x36d05ace	6.209454e-06
229	0x36e4df61	6.8209342e-06
230	0x38c5dc34	9.434708e-05
231	0x37ccd9f6	2.4420191e-05
232	0x00000000	0.0
233	0x00000000	0.0
234	0x3732f2ae	1.066613e-05
235	0x39034803	0.0001251996
236	0x00000000	0.0
237	0x37af799e	2.0918258e-05
238	0x3a04343c	0.0005043184
239	0x37c0d733	2.2988394e-05
240	0x36c00039	5.722072e-06
241	0x36573eaf	3.2073983e-06
242	0x384df04c	4.9099603e-05
243	0x38128f73	3.494271e-05
244	0x00000000	0.0
245	0x00000000	0.0
246	0x350a770a	5.158223e-07
247	0x3819380d	3.6530244e-05
248	0x00000000	0.0
249	0x354e5c2f	7.6875125e-07
250	0x3898b751	7.28207e-05
251	0x3518f1dd	5.697637e-07
252	0x39e079bb	0.00042815306
253	0x397d1ec4	0.00024139421
254	0x3b8ab564	0.004233049
255	0x3aadd6b3	0.0013262838

exp_avg f4 [12]
0	0x3a397289	0.0007074257
1	0x3c02395e	0.007948248
2	0x3ba84ffb	0.0051364875
3	0xbbb6c9d1	-0.0055782576
4	0x00000000	0.0
5	0x00000000	0.0
6	0x3ba48f61	0.005021975
7	0xbbe7c0e0	-0.007072553
8	0x00000000	0.0
9	0x39862886	0.00025588664
10	0x3ad2aaad	0.0016072594
11	0x3b183c24	0.0023229206

exp_avg_sq f4 [12]
0	0x3c8f4315	0.017488042
1	0x3ad37d5a	0.001613538
2	0x3af2444c	0.0018483489
3	0x39658fea	0.00021892754
4	0x00000000	0.0
5	0x00000000	0.0
6	0x39955fbf	0.0002849083
7	0x3b07ed9a	0.0020740987
8	0x00000000	0.0
9	0x3a8d11e7	0.0010762782
10	0x3a11ba13	0.0005559038
11	0x3b657683	0.0035013265
