Model/epoch50/Model_4/model4.ckpt (torch_old, 286080 bytes, 464 tensors)

exp_avg f4 [72]
00000000: f023 a93b 606f 3b3b 9864 a93b 30cb 843b
00000010: 2ace 6a3a 542a e03a 15df 963b b178 023c
00000020: 7dc2 a7bb ed76 d53b 2660 dbb7 c851 41ba
00000030: 4b1b 84bb c678 f439 273a 8c3a b219 d9b8
00000040: f98d 6fb8 996e 903b 6885 dd3a db20 a137
00000050: 9eee 653b 8c2d ae3b 4659 223a 598e 4a3b
00000060: dea2 deb8 9a39 5cb8 9128 453a 562d ad3b
00000070: 9fca 803b 91a0 723b 49e0 9c3b 1a14 98bb
00000080: 142b 193b d462 dc3b 7259 f93b 41ae b63a
00000090: 1afa 933a cbb1 0cbb 3dff b93a b878 2bbb
000000a0: 0273 3cbb 5a04 1b3a b4ac c13b 0464 1e3b
000000b0: 32b0 b83b dd27 1b3c 058a 5dbb 0af9 9a3b
000000c0: b93d 933a c023 6639 545e bc3a 1c0b 32bb
000000d0: a818 3f3a 11c3 703a 523c 6bbb 4a9e d6ba
000000e0: 730e 99b9 b8f5 f23a e7f1 d5b9 5bd9 d73a
000000f0: c9dc 31b9 8437 30bb 541b 903b 9f06 3cbb
00000100: cf29 aeba 3dba daba 8d83 24bb 079c 6b39
00000110: 5f21 36bb c8bc 91bb 5665 aabb cd07 01bc
0.005161755 0.002860032 0.0051694624 0.004052542 0.00089571124 0.0017102459 0.00460423 0.007963345
-0.0051196204 0.006514421 -2.6151607e-05 -0.0007374552 -0.004031574 0.0004662929 0.0010698483 -0.000103521525
-5.7114263e-05 0.0044077155 0.001690072 1.9207995e-05 0.0035084854 0.005315488 0.00061931123 0.00309076
-0.00010616121 -5.2505733e-05 0.00075209985 0.0052849455 0.0039304043 0.0037021975 0.004787479 -0.004641068
0.0023371624 0.0067256484 0.0076095397 0.001393743 0.0011289746 -0.0021468278 0.0014190447 -0.0026164483
-0.0028755073 0.0005913429 0.0059104804 0.00241685 0.0056362385 0.009469953 -0.003380419 0.004729395
0.0011233605 0.00021947827 0.0014371374 -0.0027167266 0.0007289746 0.00091843406 -0.0035894108 -0.0016374078
-0.000291932 0.0018536365 -0.00040806757 0.0016467975 -0.00016962284 -0.0026888559 0.004397789 -0.002869047
-0.0013287606 -0.0016687583 -0.0025102824 0.00022469471 -0.0027790887 -0.0044475533 -0.0052000685 -0.007875395

exp_avg_sq f4 [72]
00000000: f5f0 563a 45ce f439 5828 ed39 208b a23a
00000010: d2de cb38 6ad4 a539 1dbc 133b d788 5b3b
00000020: 7d27 4739 badb 343c a270 953b bc0f 093a
00000030: 5b33 913a 6e06 f739 498a 8539 93b3 f03a
00000040: d26e ae3a 1bc2 8f3a e449 4538 b9b9 bf38
00000050: 2d5f 7a3a 7972 413b 9903 9439 7433 983a
00000060: 874b ab3a 0654 053a 8095 9c39 f1ce da39
00000070: 8200 203a 7679 9139 20b0 f839 063a 583a
00000080: d978 1a39 1ac5 bd3b 8d63 9d3b 5276 3838
00000090: bca4 2039 19b5 9339 ca25 4d38 c9d3 3f3c
000000a0: 7148 ad3b ad80 333b c569 5b3a 57e2 7e38
000000b0: 9acd 813b c3ca 053a 9ae7 593a 0896 de39
000000c0: 9780 a938 d0a2 fb37 428a 7b37 7d7e a439
000000d0: b4a3 2837 1b25 c038 4518 9f38 ebfc 7437
000000e0: 19d5 6839 9be1 dd38 e24f 7837 c43b 6539
000000f0: f919 933a 507d b53a 2218 873a a668 d139
00000100: 1310 1c38 8883 e539 43a7 8639 c43e 8939
00000110: c050 b03a 10ed 213b f07e 6039 4a0f 513b
0.00081993575 0.0004669299 0.0004523422 0.0012401082 9.721298e-05 0.00031629513 0.0022542544 0.003349831
0.0001899283 0.011038715 0.004560546 0.000522848 0.0011077927 0.00047116302 0.00025470767 0.0018364064
0.0013308174 0.0010967882 4.7037276e-05 9.142183e-05 0.00095509255 0.0029517694 0.0002823144 0.0011612014
0.0013068774 0.0005086068 0.00029866025 0.00041734384 0.00061035913 0.0002774705 0.0004743347 0.0008248392
0.00014731604 0.0057913186 0.004803127 4.3979213e-05 0.00015320157 0.00028172953 4.8911003e-05 0.011708208
0.0052881767 0.002738993 0.0008369948 6.0769114e-05 0.003961277 0.0005103761 0.00083124044 0.00042454922
8.0825e-05 2.9997347e-05 1.49929565e-05 0.0003137476 1.0051695e-05 9.162185e-05 7.5862314e-05 1.460242e-05
0.00022204629 0.000105801235 1.4800551e-05 0.00021861406 0.001122295 0.001384655 0.0010306875 0.00039941556
3.720827e-05 0.00043776282 0.0002568309 0.0002617744 0.00134518 0.002470795 0.00021409593 0.0031899982

exp_avg f4 [24]
00000000: 1a20 583c 862f da3b 090e f43b 5c71 bc3b
00000010: 758a 23bb 1b2b 8b3b caf9 aa3b efdf 133c
00000020: b690 1b3a 20a4 533c 6fc3 223b f7d9 803c
00000030: 1757 d239 5e95 a0bb 74c7 643c e041 313c
00000040: 4630 363b 5d28 8cba a0d6 b4bb 51a9 4a3b
00000050: a4c2 c93a 583c c0bb 98f5 a5bb 708c 8fbc
0.013191247 0.0066584973 0.007447962 0.005750818 -0.0024954353 0.004247082 0.0052177655 0.009025558
0.00059343444 0.012917548 0.0024835726 0.015728934 0.00040119208 -0.0049006185 0.013963569 0.0108189285
0.002779977 -0.0010693182 -0.0055187494 0.0030923674 0.001539309 -0.0058665685 -0.0050646774 -0.01752302

exp_avg_sq f4 [24]
00000000: 3e6c 383b 8a9c 803b 6e02 1a3c 06a8 c23c
00000010: 5323 883a 0a3d 3d3b 23d4 3f3a 2933 333c
00000020: 1dd3 b93b 1922 663b 4de2 173a 38d8 b83c
00000030: 9f0b 3e39 2473 5a3d 2f2f f93b c997 123a
00000040: 7f73 8a39 5048 4739 9d28 6e39 8cc9 f039
00000050: da3d df3a 0ef0 0d3b c837 b13a 8afd 833b
0.002814069 0.003924911 0.009399993 0.02376176 0.0010386504 0.0028875493 0.00073176826 0.0109374905
0.0056709186 0.0035115539 0.00057939143 0.022564039 0.00018124141 0.053332463 0.0076045017 0.0005592076
0.00026407462 0.00019005057 0.00022712578 0.0004592653 0.0017031983 0.0021657976 0.0013520652 0.004028027

exp_avg f4 [12, 12]
00000000: df94 f9b4 9802 5db8 240b 3dba 35d5 12bb
00000010: d3e0 84bb 0383 acbb 11d3 5cbb bcac f6b9
00000020: f038 51b7 b693 fbb7 7ecb ebb7 f6d4 73b6
00000030: 3e88 7337 36aa 0839 c96e 9b39 5d02 053a
00000040: 5fcd 553a c335 b33a e15e 8d3a 1b70 4a39
00000050: c24d b036 a883 3f36 53d0 1d36 6dab 34b6
00000060: 0000 0000 0000 0000 0000 0000 0000 0000
00000070: 0000 0000 0000 0000 0000 0000 0000 0000
00000080: 0000 0000 0000 0000 0000 0000 0000 0000
00000090: 5e9e aa38 fe2b 313a ecab db3a 0378 133b
000000a0: c531 c03a 5f92 2c3b e675 493b 8286 b23a
000000b0: 4215 e739 a969 fc38 91b4 ba37 2d2c 5e35
000000c0: 0cf2 e2ac 0563 90b2 a967 94b6 59be 15b9
000000d0: 6b54 4cba 39ed 5dba f6e8 bcb9 584a 8bb9
000000e0: 4acd edb8 de7e b0b7 5e8d 2ab6 5f6f 8fb6
000000f0: 10ac 3a37 7943 c538 5033 4039 61ab 3439
00000100: fcaf d139 047b 493a ae22 363a 1ead 5239
00000110: b466 f234 105e 8037 ca1d ae37 cb28 ae36
00000120: e4ba 18b8 367d 30ba 5016 ffba 89b2 3aba
00000130: d96a e3b7 157c d7b3 6c1a 1cae bcfc aba6
00000140: c29f 8f9d 7d44 b592 b15b 2c86 2200 0080
00000150: ecdc 8cb7 79e5 e0b8 e716 9db9 2677 41ba
00000160: 8e24 66ba 1cdc 85b9 34c9 2e38 cd65 5bb9
00000170: 6b5d 12b9 dd51 44b8 7126 95b6 134b a636
00000180: 253b d432 6f63 d635 0b67 58b7 0fee 06b9
00000190: 95cf 81b8 1830 12b6 e790 1cb0 4f90 212d
000001a0: 1080 af26 e380 591e 73ed 3614 b05d 5b08
000001b0: 0000 0000 0000 0000 0000 0000 0000 0000
000001c0: 0000 0000 0000 0000 0000 0000 0000 0000
000001d0: 0000 0000 0000 0000 0000 0000 0000 0000
000001e0: 39a5 fc37 dd86 4139 10be e138 5240 8037
000001f0: 6162 8c39 c6f2 903a 2af5 893a c25e a339
00000200: 56b1 c637 6a4c c934 144a 1633 0fa8 83b4
00000210: 66b5 8b95 35ff b69f 4c52 36a8 d3e9 0baf
00000220: 4cf0 28b4 66c5 a6b7 d95a 91b9 a7de 03ba
00000230: b384 29b9 139b 1db7 b457 6034 841a 3c31
-4.6488182e-07 -5.269292e-05 -0.0007211438 -0.0022404913 -0.0040551214 -0.0052646413 -0.0033695141 -0.00047049474
-1.2470628e-05 -2.9990315e-05 -2.8108941e-05 -3.6333781e-06 1.451565e-05 0.00013033379 0.00029646445 0.00050738995
0.0008155908 0.0013672638 0.0010785722 0.00019305984 5.254261e-06 2.8537852e-06 2.3516084e-06 -2.6921873e-06
0.0 0.0 0.0 0.0 0.0 0.0 0.0 0.0
0.0 0.0 0.0 0.0 8.13573e-05 0.00067585695 0.0016759611 0.0022501952
0.001466327 0.002633236 0.003074044 0.0013620409 0.00044075592 0.00012035977 2.225701e-05 8.276573e-07
-6.450179e-12 -1.6808835e-08 -4.4228113e-06 -0.00014280657 -0.00077945617 -0.000846583 -0.00036031724 -0.00026567536
-0.00011339279 -2.1039912e-05 -2.541426e-06 -4.2746974e-06 1.1126525e-05 9.40626e-05 0.00018329662 0.00017229981
0.00039994705 0.0007685872 0.00069479167 0.00020091652 4.515074e-07 1.530259e-05 2.0756288e-05 5.190353e-06
-3.641368e-05 -0.0006732525 -0.0019461606 -0.0007121941 -2.7110264e-05 -1.0034288e-07 -3.549376e-11 -1.1934012e-15
-3.801697e-21 -1.143959e-27 -3.241697e-35 -4.8e-44 -1.6792175e-05 -0.00010723895 -0.00029962437 -0.000738012
-0.0008779251 -0.0002553173 4.1672218e-05 -0.00020923391 -0.00013958446 -4.6806283e-05 -4.445021e-06 4.9559253e-06
2.4706944e-08 1.5973181e-06 -1.2898595e-05 -0.0001286792 -6.1898645e-05 -2.178369e-06 -5.695839e-10 9.183833e-12
1.2177776e-15 1.15145375e-20 9.2354804e-27 6.6013044e-34 0.0 0.0 0.0 0.0
0.0 0.0 0.0 0.0 0.0 0.0 0.0 0.0
3.0117679e-05 0.00018456155 0.00010764238 1.528874e-05 0.0002677618 0.001105868 0.0010525335 0.00031160383
2.3686018e-05 3.7494766e-07 3.499197e-08 -2.452293e-07 -5.642785e-26 -7.75022e-20 -1.0120875e-14 -1.2725047e-10
-1.5733639e-07 -1.9880663e-05 -0.00027724242 -0.0005030431 -0.0001616653 -9.394035e-06 2.0893532e-07 2.7372673e-09

exp_avg_sq f4 [12, 12]
00000000: 5ca6 852e 2ce5 ee34 e5ee 5e38 4bf9 e539
00000010: d6eb b23a dfc3 0a3b 2e4f 4f3a 9489 8437
00000020: 1b63 2034 9903 d034 96a7 4134 8748 7c33
00000030: 7d76 7531 b110 8434 a73e 9c35 9b54 9f36
00000040: 6750 5e37 90a6 8937 71f1 0c37 2d4a 9d34
00000050: 4f9f 6d2f b338 1c30 648a 8231 a789 9231
00000060: 0000 0000 0000 0000 0000 0000 0000 0000
00000070: 0000 0000 0000 0000 0000 0000 0000 0000
00000080: 0000 0000 0000 0000 0000 0000 0000 0000
00000090: fc63 9834 8c5c b937 f2df ee38 462b 2439
000000a0: f9fa 9738 6a17 8f39 2e2d e639 6ea7 0839
000000b0: e682 a437 4faa 1136 d3b4 a534 e7bb c633
000000c0: cd7f 921f 464c 382a 4261 be31 ca35 6836
000000d0: 34cf 9138 89a5 9f38 a38d 1b38 23c3 1038
000000e0: 3dad e236 97a6 cb34 90d7 6d31 adf7 8731
000000f0: 5b02 6a32 4642 a635 eb2d ea36 5139 4037
00000100: 185d 1138 c038 a638 3be1 8e38 48d9 8b37
00000110: ccf1 9c35 3c4e 3933 b76b b231 7853 a92f
00000120: 2f11 7533 faee 9337 4b2c 3839 4b9a f437
00000130: c223 5833 beb7 5f2b 10be 0320 1cf8 2e11
00000140: 384d 1000 0000 0000 0000 0000 0000 0000
00000150: 9c85 e731 3677 4b35 1ce9 e836 3b66 9d37
00000160: bbb3 6838 1ded ea38 4619 9038 8922 0c37
00000170: ee18 1535 a3d4 1034 164f 4532 0282 cc30
00000180: 36c7 1b29 27c6 a730 81e2 2235 d0d0 b436
00000190: 5b37 8d35 a668 7831 81c4 302a 6c63 ab1f
000001a0: 97ff d011 266f 9900 0000 0000 0000 0000
000001b0: 0000 0000 0000 0000 0000 0000 0000 0000
000001c0: 0000 0000 0000 0000 0000 0000 0000 0000
000001d0: 0000 0000 0000 0000 0000 0000 0000 0000
000001e0: 91fd 5733 8a61 0436 5935 3635 73a0 3932
000001f0: 9feb 5636 9deb 8438 5f2b 8338 65f8 e036
00000200: a769 4e33 1701 c42d d7e1 2c2d b87d 012e
00000210: 0000 0000 3448 b102 fe93 b713 fbff 6021
00000220: 62fc a82b 2daa a532 f2c5 6f36 40f9 2237
00000230: 03b3 8135 0b40 1c34 f945 a730 2f71 572a
6.077691e-11 4.44977e-07 5.3151412e-05 0.0004386402 0.0013650607 0.0021173877 0.0007908222 1.5799691e-05
1.4937216e-07 3.8745637e-07 1.8035493e-07 5.8739285e-08 3.5719545e-09 2.459906e-07 1.164114e-06 4.7484186e-06
1.3250951e-05 1.6409234e-05 8.400865e-06 2.92975e-07 2.1611622e-10 5.6833044e-10 3.799231e-09 4.2648085e-09
0.0 0.0 0.0 0.0 0.0 0.0 0.0 0.0
0.0 0.0 0.0 0.0 2.8384954e-07 2.2096814e-05 0.000113904374 0.0001565638
7.2469884e-05 0.0002729253 0.0004390268 0.00013032343 1.9611278e-05 2.1705816e-06 3.0865212e-07 9.254273e-08
6.2044834e-20 1.6368946e-13 5.5407847e-09 3.4602003e-06 6.9527334e-05 7.612544e-05 3.708679e-05 3.451401e-05
6.7554924e-06 3.7932907e-07 3.4610572e-09 3.9571746e-09 1.3621128e-08 1.2387252e-06 6.979089e-06 1.1457437e-05
3.4657394e-05 7.926067e-05 6.81304e-05 1.667127e-05 1.1693278e-06 4.3144823e-08 5.1927276e-09 3.080023e-10
5.7059136e-08 1.7635048e-05 0.00017564108 2.9158915e-05 5.032394e-08 7.948051e-13 1.1159018e-19 1.3802634e-28
1.497069e-39 0.0 0.0 0.0 6.7381745e-09 7.579687e-07 6.9412763e-06 1.8763463e-05
5.5480497e-05 0.00011202155 6.8711626e-05 8.352691e-06 5.5543103e-07 1.3488402e-07 1.1484891e-08 1.4879904e-09
3.4589702e-14 1.2207167e-09 6.067931e-07 5.388727e-06 1.0521429e-06 3.6148236e-09 1.5700116e-13 7.2585797e-20
3.2974133e-28 1.4090703e-38 0.0 0.0 0.0 0.0 0.0 0.0
0.0 0.0 0.0 0.0 0.0 0.0 0.0 0.0
5.0289206e-08 1.9726308e-06 6.7877914e-07 1.0804899e-08 3.2025634e-06 6.338137e-05 6.254645e-05 6.704637e-06
4.8059203e-08 2.2283104e-11 9.8272146e-12 2.9442865e-11 0.0 2.6049255e-37 4.6341626e-27 7.623294e-19
1.2007168e-12 1.9285915e-08 3.5728995e-06 9.7139855e-06 9.663348e-07 1.4551931e-07 1.2170737e-09 1.9135104e-13

exp_avg f4 [24, 12]
00000000: 0ac8 2b3a 0fc3 ad38 0000 0000 9716 73b9
00000010: 9aa4 06b7 3ed7 4538 a1ce 7835 2acb 0638
00000020: 0770 8538 0000 0000 27c6 abb8 f868 3eb8
00000030: 61a5 01ba 27e6 a3b9 0000 0000 bd62 9eba
00000040: 9950 39b9 c288 a5ba 1e24 0ab7 e14b 0aba
00000050: becf f2b7 0000 0000 c472 abb9 fa81 b7b8
00000060: 5246 82b9 e908 e1b7 0000 0000 beca 03b9
00000070: a142 64b8 4957 80b9 a8ba 2136 32c5 fdb8
00000080: 17ca 8cb6 0000 0000 ba81 83b8 3bfb dbb7
00000090: 5557 69ba 23ef dbb9 0000 0000 9b3d b9ba
000000a0: 41ff 5eb9 72fc cdba 53c2 b2b6 2439 32ba
000000b0: 21bb 8cb8 0000 0000 9ba1 d1b9 0cc5 beb8
000000c0: 728f adba 1ccd 41ba 0000 0000 d047 15bb
000000d0: 29a6 a5b9 eaba 23bb 55f7 93b7 024e 8aba
000000e0: 67f8 bdb8 0000 0000 6bd4 1dba 90d8 0db9
000000f0: a2c4 bfb9 98a3 04b9 0000 0000 e1b4 bab9
00000100: 4f4c 16b8 c556 d4b9 5732 bcb6 9f4c 50b9
00000110: 70c4 6bb6 0000 0000 5df2 fcb8 2b16 1b37
00000120: b8fe 1a3b 64f9 5f3a 0000 0000 88e8 083b
00000130: a2f8 5739 a6cc 283b ee45 e337 7512 9b3a
00000140: 3936 d037 0000 0000 b784 5c3a b7e5 43b8
00000150: 7b7c 3e3a c459 a639 0000 0000 abe9 873a
00000160: 1273 2739 f841 9c3a 0dc6 a636 8188 083a
00000170: 27ef 4338 0000 0000 0830 a239 35b6 8b38
00000180: 7934 56b9 29f5 60b8 0000 0000 3862 0839
00000190: 8fef 1538 8d57 9d38 e949 8ab6 87aa da37
000001a0: 3c9e ccb7 0000 0000 c85d 8838 7f56 1f38
000001b0: 5bee 933a c8d4 073a 0000 0000 f617 c23a
000001c0: c125 8839 f8f9 e53a f879 5537 cf99 3c3a
000001d0: 28b1 0e39 0000 0000 9c89 8939 8238 ec38
000001e0: 7213 bdba 1f17 08ba 0000 0000 d61c d2ba
000001f0: 0825 aab9 ae5a 02bb 1515 59b7 f7a0 5eba
00000200: 4bea 1fb9 0000 0000 38be a7b9 cea9 0db9
00000210: 0897 dcba bfe6 33ba 0000 0000 ec15 04bb
00000220: c062 a8b9 efa7 22bb bb75 78b7 0a87 8bba
00000230: 5e98 cfb8 0000 0000 eb7b 13ba 4c1b f2b8
00000240: c351 cfb9 4fa8 e1b9 0000 0000 33a4 20bb
00000250: 7fd4 b2b9 d64a 18bb 7c7a 92b6 6390 80ba
00000260: 51b7 d437 0000 0000 6260 51ba c49d 45b9
00000270: 184b 3a39 80a5 e538 0000 0000 d10f 0d3a
00000280: 3e04 8438 bc0c 0a3a 5d83 7e36 126e 7439
00000290: ea19 14b7 0000 0000 4374 3a39 a5c6 cd37
000002a0: acce 2bba da5c 94b9 0000 0000 137c 48ba
000002b0: 3bf2 7ab8 2393 64ba 7aec 67b6 a227 ccb9
000002c0: 11d1 a6b7 0000 0000 edae 9eb9 b584 3e37
000002d0: ef77 f7b7 0bc5 0db8 0000 0000 9d4f 64b8
000002e0: dc7a ce37 59b2 85b8 7326 0236 6048 23b8
000002f0: aaba 0238 0000 0000 1ddf d9b8 18ca 7637
00000300: d10d 39ba 6b1d acb9 0000 0000 b57e 6dba
00000310: 5e87 dfb8 1556 7eba 939a b2b7 e6eb e0b9
00000320: 3c95 34b8 0000 0000 6371 64b9 ec22 4fb7
00000330: 80c4 23bc 6a84 79bb 0000 0000 b4ca 27bc
00000340: 4b25 d5ba 6049 53bc 051c 9ab8 3db8 b6bb
00000350: e1ca 33ba 0000 0000 2d81 3bbb 2344 fcb9
00000360: a371 7fba d5f7 79b9 0000 0000 4bd7 6ab9
00000370: e558 54b8 3836 14ba b656 9db6 8a63 87b9
00000380: 69db 74b8 0000 0000 3dcb 6eb8 7527 f337
00000390: e8d0 2bbb 2fb6 85ba 0000 0000 9a5f 2dbb
000003a0: d6f3 d7b9 1441 5dbb 7999 94b7 8766 bfba
000003b0: 39ce 3db9 0000 0000 d37c 45ba 1cd9 04b9
000003c0: 2226 9239 bb4a 9fb8 0000 0000 1d09 1cba
000003d0: eb78 ad36 4301 b0b9 fe30 b6b6 dbb9 1db9
000003e0: e7e6 b738 0000 0000 b966 a2b9 f256 0d37
000003f0: 36d8 183a 2d79 c439 0000 0000 9f0a ef3a
0.00065529405 8.285615e-05 0.0 -0.00023182701 -8.025347e-06 4.716892e-05 9.2687884e-07 3.21373e-05
6.362801e-05 0.0 -8.190824e-05 -4.539729e-05 -0.0004945603 -0.0003126126 0.0 -0.001208387
-0.00017673 -0.0012629258 -8.23385e-06 -0.0005275589 -2.8945386e-05 0.0 -0.0003270117 -8.75033e-05
-0.00024847925 -2.682624e-05 0.0 -0.00012568661 -5.442149e-05 -0.00024479095 2.4099518e-06 -0.000121007106
-4.1958515e-06 0.0 -6.27073e-05 -2.6223823e-05 -0.0008901258 -0.00041949106 0.0 -0.001413274
-0.0002126666 -0.0015715493 -5.3274357e-06 -0.0006798676 -6.710576e-05 0.0 -0.00039983992 -9.096609e-05
-0.0013241603 -0.00073929294 0.0 -0.00227784 -0.0003159505 -0.0024983236 -1.7638939e-05 -0.0010551813
-9.058491e-05 0.0 -0.00060207275 -0.00013527484 -0.00036576862 -0.00012649444 0.0 -0.0003561145
-3.5833855e-05 -0.0004050044 -5.608697e-06 -0.0001986497 -3.513207e-06 0.0 -0.0001206144 9.243881e-06
0.002365036 0.0008543937 0.0 0.0020890553 0.00020596621 0.0025756746 2.7093072e-05 0.0011831062
2.4820782e-05 0.0 0.000841211 -4.670556e-05 0.0007266474 0.00031728868 0.0 0.0010369321
0.00015969228 0.0011921516 4.9702417e-06 0.0005208329 4.671435e-05 0.0 0.00030934834 6.661975e-05
-0.00020428178 -5.3634085e-05 0.0 0.0001300656 3.5747475e-05 7.502651e-05 -4.1213248e-06 2.6067033e-05
-2.4392379e-05 0.0 6.5024535e-05 3.798911e-05 0.0011286245 0.0005181548 0.0 0.0014808166
0.0002596807 0.001754581 1.2724187e-05 0.000719455 0.00013608171 0.0 0.00026233203 0.00011263882
-0.0014425351 -0.00051914336 0.0 -0.0016030322 -0.00032452517 -0.0019890475 -1.29391165e-05 -0.00084926136
-0.00015250703 0.0 -0.00031994446 -0.00013510065 -0.0016829679 -0.0006862692 0.0 -0.0020154668
-0.00032117032 -0.0024819335 -1.4809363e-05 -0.0010645103 -9.89891e-05 0.0 -0.000562607 -0.00011544544
-0.00039543034 -0.00043040744 0.0 -0.0024511933 -0.00034109128 -0.0023237965 -4.365398e-06 -0.0009808656
2.5357733e-05 0.0 -0.00079870794 -0.00018846156 0.00017766317 0.00010950398 0.0 0.000538108
6.295041e-05 0.000526618 3.7925413e-06 0.00023310658 -8.827521e-06 0.0 0.00017781653 2.4530405e-05
-0.0006553929 -0.0002829794 0.0 -0.0007647883 -5.983024e-05 -0.0008719435 -3.455933e-06 -0.0003893944
-1.9886096e-05 0.0 -0.00030266438 1.1355781e-05 -2.9500543e-05 -3.380053e-05 0.0 -5.443358e-05
2.4614325e-05 -6.375154e-05 1.939389e-06 -3.8929633e-05 3.116826e-05 0.0 -0.000103889244 1.4709796e-05
-0.0007059249 -0.00032828315 0.0 -0.00090597133 -0.00010658683 -0.0009702158 -2.1291233e-05 -0.00042900367
-4.305433e-05 0.0 -0.00021786014 -1.2346292e-05 -0.00999558 -0.003807331 0.0 -0.010241199
-0.0016261725 -0.012895912 -7.348511e-05 -0.005576162 -0.00068585394 0.0 -0.002861093 -0.0004811595
-0.0009744411 -0.00023838815 0.0 -0.00022396182 -5.062753e-05 -0.0005653831 -4.689059e-06 -0.0002582337
-5.8378475e-05 0.0 -5.6932902e-05 2.8986231e-05 -0.0026217047 -0.001020139 0.0 -0.0026454688
-0.00041189668 -0.0033760713 -1.7714441e-05 -0.0014602699 -0.00018101269 0.0 -0.0007533554 -0.0001266938
0.000278757 -7.5956304e-05 0.0 -0.0005952286 5.1698785e-06 -0.00033570276 -5.429726e-06 -0.00015041923
8.769129e-05 0.0 -0.00030975582 8.424498e-06 0.0005830558 0.00037474316 0.0 0.0018237418

exp_avg_sq f4 [24, 12]
00000000: 4d69 9f37 7bb7 2b36 0000 0000 b634 2138
00000010: 03ac cf35 8d9a 4c38 a2ce 0f30 2db3 1937
00000020: 212e ab33 0000 0000 445b 0436 e0a5 ff34
00000030: 234c 8e37 b5fc 7136 0000 0000 bb3e 1738
00000040: 78db 7035 c136 4138 6fd3 0f31 69c1 0b37
00000050: 2cb3 f833 0000 0000 fb8f ea35 8f6c 1534
00000060: 7fa1 a736 971e 8a34 0000 0000 a673 3535
00000070: fc61 c833 2ead 3f36 8eb1 ef2f 0d25 3535
00000080: 0c20 0733 0000 0000 a781 a733 87dc 6f32
00000090: 2438 1e38 f390 de36 0000 0000 c46c 6d38
000000a0: 50d8 ba35 eceb 9c38 96e2 8f30 aedb 6e37
000000b0: 3e5b 8134 0000 0000 e3a3 8936 fc25 f133
000000c0: d070 6739 acc6 3c38 0000 0000 efc5 a239
000000d0: 5453 0937 a67f eb39 9bba 3f32 5763 b038
000000e0: 7960 dd35 0000 0000 07db 9237 f5d4 6435
000000f0: 5b72 ae37 7685 3436 0000 0000 24a9 a737
00000100: 7fd6 0235 ed4f 0638 8d8a 2231 15d0 e036
00000110: 83c9 f032 0000 0000 0481 de35 1231 ac32
00000120: 6091 753a 3b7d f238 0000 0000 bb9d e839
00000130: 8fff 0a37 d6c3 613a c11e 1f33 fe30 3539
00000140: 1831 5a36 0000 0000 14be 4a38 e8f1 c334
00000150: 8e0b c137 3a2c 8136 0000 0000 9052 2d38
00000160: 80c2 b835 9356 6b38 8f4a e82f 1137 3837
00000170: 316c b833 0000 0000 592b 4e36 e64c 6a34
00000180: ced5 0a37 1b2a 4a35 0000 0000 0da7 9735
00000190: 050b f132 71d9 8436 b2b5 9230 5b75 7935
000001a0: c579 e932 0000 0000 42fb 5f33 1cda 5b32
000001b0: 9dad d637 9b9e dc36 0000 0000 826d a338
000001c0: 3fde 5a36 61f5 d038 841f 2331 3f01 9537
000001d0: bdf1 a134 0000 0000 2d69 fb35 9e9f 8735
000001e0: 2bb5 e139 ee85 8b38 0000 0000 395c 5d3a
000001f0: 20c2 3638 5b6a aa3a 5a4e 3532 5f8e 8039
00000200: c6ab 1b36 0000 0000 fd51 0f38 eadc 3637
00000210: a05f 9b38 6cd0 3a37 0000 0000 9289 9038
00000220: d3eb f835 541d ed38 e6d6 de31 7334 b737
00000230: 7334 b334 0000 0000 9e59 8236 18a1 2134
00000240: fd86 a337 71b9 4036 0000 0000 efff b938
00000250: b124 e435 98cf 8738 4a7e 5530 6635 2137
00000260: 0ab3 eb33 0000 0000 d1f9 1337 10a5 bc34
00000270: f492 9737 86fa 0236 0000 0000 74f9 e037
00000280: d532 8135 3cff 2538 63ea 0b31 f3d6 0337
00000290: 7e5a f432 0000 0000 5c60 0536 35c5 0834
000002a0: 7a53 a137 02b9 6236 0000 0000 eeb4 4638
000002b0: e38e 7b35 df58 5a38 c362 8d30 1964 2537
000002c0: 3d2d fb33 0000 0000 6432 c236 0601 e433
000002d0: 467f c738 6a44 3037 0000 0000 bd6a 4d38
000002e0: 8455 f935 1978 d838 5f0b fc30 17b0 b137
000002f0: 128e be34 0000 0000 a291 8d36 7782 d533
00000300: a042 5738 44c7 2437 0000 0000 ac10 4938
00000310: 340a 4035 fbdf 9938 e30b 6932 d1e7 6937
00000320: 6201 cb34 0000 0000 93d6 0a36 ec8c 5732
00000330: d5ff cd3b 731d 7a3a 0000 0000 e7dd f43b
00000340: 0cea 8439 3740 443c 4d6e 8e34 183f 193b
00000350: 865c f037 0000 0000 fbbb e839 0063 0038
00000360: d3e6 9f37 231e a335 0000 0000 caf3 ab35
00000370: f14c 5f33 2805 c136 d74b c82f 1478 b035
00000380: 1653 8d33 0000 0000 df10 d933 7510 6833
00000390: e9a8 6a39 212d 1038 0000 0000 2b02 4539
000003a0: 0afd 9e36 31da a339 94a9 2032 59d1 8238
000003b0: f13b 9635 0000 0000 17f9 6637 c2c9 9c34
000003c0: 70a7 2939 8042 d437 0000 0000 5baf 4039
000003d0: 657f 9136 429f 9039 9a24 dd31 6974 5e38
000003e0: e490 0a35 0000 0000 6f67 8b37 9b4c 7b34
000003f0: c303 e037 aa62 9036 0000 0000 b413 d838
1.9003312e-05 2.5587785e-06 0.0 3.8434482e-05 1.5472764e-06 4.8781327e-05 5.231674e-10 9.161228e-06
7.971199e-08 0.0 1.9722656e-06 4.761814e-07 1.6963173e-05 3.6058893e-06 0.0 3.6059628e-05
8.9726336e-07 4.606578e-05 2.0929425e-09 8.330077e-06 1.1580991e-07 0.0 1.7476262e-06 1.39162e-07
4.9957885e-06 2.572676e-07 0.0 6.7596045e-07 9.331049e-08 2.8562022e-06 4.3600007e-10 6.748167e-07
3.1461283e-08 0.0 7.800127e-08 1.3961773e-08 3.772242e-05 6.63299e-06 0.0 5.66065e-05
1.3921035e-06 7.4826035e-05 1.0469019e-09 1.4237054e-05 2.409451e-07 0.0 4.101997e-06 1.1229346e-07
0.00022071903 4.500772e-05 0.0 0.0003104652 8.185238e-06 0.00044917798 1.1160092e-08 8.4108375e-05
1.649386e-06 0.0 1.7506549e-05 8.524651e-07 2.0795667e-05 2.6899775e-06 0.0 1.9986714e-05
4.8740907e-07 3.2022526e-05 2.365286e-09 6.699944e-06 2.8031314e-08 0.0 1.6577837e-06 2.004575e-08
0.0009367671 0.00011562785 0.0 0.00044368007 8.284943e-06 0.00086122507 3.7048043e-08 0.00017279756
3.2513108e-06 0.0 4.8337577e-05 3.649759e-07 2.3012773e-05 3.8496482e-06 0.0 4.1323307e-05
1.3765675e-06 5.6108995e-05 4.225353e-10 1.0980076e-05 8.5878476e-08 0.0 3.0721624e-06 2.1820924e-07
8.275221e-06 7.5312136e-07 0.0 1.1298995e-06 2.8061104e-08 3.95922e-06 1.0674539e-09 9.2930503e-07
2.7180144e-08 0.0 5.214975e-08 1.279707e-08 2.5591633e-05 6.574975e-06 0.0 7.792843e-05
3.2613896e-06 9.963918e-05 2.3737536e-09 1.7762764e-05 3.0164475e-07 0.0 1.8731567e-06 1.0104739e-06
0.00043050325 6.652983e-05 0.0 0.0008444223 4.3572974e-05 0.0013001667 1.0553402e-08 0.00024520137
2.3196785e-06 0.0 3.4170214e-05 1.0899481e-05 7.4087875e-05 1.1134991e-05 0.0 6.8920795e-05
1.8546074e-06 0.000113065034 6.4854815e-09 2.1839724e-05 3.337951e-07 0.0 3.8847347e-06 1.5052899e-07
1.9493973e-05 2.871817e-06 0.0 8.869159e-05 1.6998002e-06 6.475969e-05 7.7668416e-10 9.608781e-06
1.0975607e-07 0.0 8.820048e-06 3.5137828e-07 1.8069033e-05 1.9517333e-06 0.0 2.6819042e-05
9.626043e-07 3.957677e-05 2.0360396e-09 7.858255e-06 2.844649e-08 0.0 1.9874633e-06 1.273773e-07
1.9231567e-05 3.3784313e-06 0.0 4.7375383e-05 9.3712714e-07 5.2058018e-05 1.028717e-09 9.858072e-06
1.1696327e-07 0.0 5.787517e-06 1.06172635e-07 9.512766e-05 1.0506346e-05 0.0 4.8975216e-05
1.8576834e-06 0.000103220525 1.8338645e-09 2.1182042e-05 3.5493628e-07 0.0 4.2190813e-06 9.942317e-08
5.1322044e-05 9.821557e-06 0.0 4.793766e-05 7.154042e-07 7.337328e-05 1.3565088e-08 1.3941856e-05
3.7812703e-07 0.0 2.06885e-06 1.2546689e-08 0.006286601 0.00095411314 0.0 0.007472742
0.0002535138 0.011978201 2.6529815e-07 0.0023383554 2.8653314e-05 0.0 0.00044390545 3.060978e-05
1.9061763e-05 1.2153217e-06 0.0 1.2811445e-06 5.199121e-08 5.7524485e-06 3.6433676e-10 1.3147969e-06
6.5809374e-08 0.0 1.0107919e-07 5.4031677e-08 0.00022378903 3.4374305e-05 0.0 0.00018788192
4.7382246e-06 0.00031252348 9.351783e-09 6.237877e-05 1.1193316e-06 0.0 1.3767064e-05 2.9204062e-07
0.00016179471 2.5303336e-05 0.0 0.00018375872 4.3361674e-06 0.00027584477 6.4361076e-09 5.303734e-05
5.161985e-07 0.0 1.6618256e-05 2.3404066e-07 2.6704633e-05 4.3030204e-06 0.0 0.000103033526

exp_avg f4 [12]
00000000: 4bcd 23bc 424a 313b 0000 0000 e752 0b3c
00000010: 2017 ceba 1324 d03a a5ef 08bb 6a63 d4ba
00000020: eda8 03b9 0000 0000 13db f93a 8cb4 1cba
-0.009997676 0.0027052318 0.0 0.008503652 -0.0015723445 0.0015879892 -0.0020894792 -0.0016203944
-0.00012556063 0.0 0.0019062482 -0.00059778313

exp_avg_sq f4 [12]
00000000: b045 033c 2f35 9a38 0000 0000 d1e8 513b
00000010: 08b8 e739 3f04 f539 06b6 5739 a0c4 003a
00000020: a4d1 dc36 0000 0000 d5e5 5139 54c1 4a37
0.00801222 7.3531985e-05 0.0 0.0032029639 0.00044196867 0.00046733205 0.00020571807 0.0004912112
6.5809163e-06 0.0 0.00020017412 1.2085151e-05

exp_avg f4 [24]
00000000: 489c 1539 3f01 2cba 1051 0db9 f8f1 61ba
00000010: 310b b7ba 416e 91b9 8975 e43a ecb5 2d3a
00000020: d8fe efb7 559e 7f3a e5ba 90ba afe8 bbba
00000030: 0448 8fba 8c51 9139 9925 10ba 1327 66b8
00000040: bbe8 1fba 37e0 fbbb f15f f0b9 932d 04bb
00000050: 9d3e 2cb9 1cf3 713a 6005 18bb b065 5e39
0.00014267967 -0.0006561465 -0.00013477006 -0.0008619125 -0.0013965127 -0.000277387 0.0017430048 0.0006626535
-2.8609691e-05 0.00097510713 -0.0011042027 -0.0014336313 -0.0010931497 0.00027717312 -0.00054987665 -5.4872664e-05
-0.0006100048 -0.0076866406 -0.0004584785 -0.0020168766 -0.00016426524 0.00092296465 -0.0023196563 0.00021209451

exp_avg_sq f4 [24]
00000000: 3317 5c37 0209 6b37 c3f4 9b35 9ac5 d237
00000010: 8be0 1e39 0604 4a37 55e8 ca39 f579 9037
00000020: b945 1836 0d33 d837 e356 b939 6781 2d38
00000030: b1aa 8137 808b 5137 37f7 8937 80dc 2938
00000040: f7d4 f137 24f5 813b 057a 7d36 111c f738
00000050: bc93 d038 1a3e ef37 875d 7938 197c bf35
1.3118423e-05 1.4009189e-05 1.1619635e-06 2.5125966e-05 0.00015151703 1.2041075e-05 0.00038701543 1.7222928e-05
2.269035e-06 2.5772979e-05 0.00035350685 4.136693e-05 1.5457483e-05 1.2489851e-05 1.6446791e-05 4.0498096e-05
2.8828608e-05 0.0039659906 3.7770963e-06 0.000117831056 9.9457306e-05 2.8519938e-05 5.945333e-05 1.4266726e-06

exp_avg f4 [12, 12]
00000000: 6d25 3ab8 6aeb d4b9 0b01 9fba 2291 aeba
00000010: 2555 eaba 5af8 53bb 202a 8cba 0dfb 23b8
00000020: a662 ad37 e79f 2a39 1f97 4e39 dde7 3039
00000030: fbf1 04b1 173c f6b5 12fc 4bb9 a3fa 2bbb
00000040: 9c24 bebb 1835 97bb 323e a3bb cacb aaba
00000050: d3a4 23b8 134a 05b4 df4f 31ae ba98 baa6
00000060: efd4 8cb8 2471 3cba 4bcf ffba 9768 e3ba
00000070: 6c09 48ba 5785 04bb b05f 38bb 047a e8ba
00000080: dbe9 9db9 11c1 5939 311f 3939 e6be ac38
00000090: 12bd 6138 d718 e639 bb9f f339 4dfc 0cba
000000a0: 4265 e0ba bd9a c5ba 196c 41b9 5a2d 0138
000000b0: e15a 3bb9 238e fab9 c773 b9b9 1b34 f8b8
000000c0: 0000 0000 0000 0000 0000 0000 0000 0000
000000d0: 0000 0000 0000 0000 0000 0000 0000 0000
000000e0: 0000 0000 0000 0000 0000 0000 0000 0000
000000f0: 0000 0000 0000 0000 0000 0000 0000 0000
00000100: 0000 0000 0000 0000 0000 0000 0000 0000
00000110: 0000 0000 0000 0000 0000 0000 0000 0000
00000120: fcab 77b8 5aa2 acb9 92bd 0aba 0bdd 40ba
00000130: f1c0 d8b8 1c87 813a 03e5 3f3b 5002 993a
00000140: 403d 7838 1866 b0b8 7ac2 8fb9 6213 89b9
00000150: 7cfc 3738 9ce5 353a 984f 233b 1377 133b
00000160: 72d5 3b3b 0ccd 6f3b 19ee 0d3b 5b5b ed3a
00000170: ec90 a639 98c2 47b9 33ba cab8 529a 79b7
00000180: 2481 160e 9bc1 7a19 cde2 1c23 563e 142b
00000190: 1cce 5531 068a f035 aaba dd38 ab62 413a
000001a0: 77fb 8b3a 5228 593a 36a5 cd39 10b6 0e39
000001b0: 724a 0838 e918 423a 938a 353b 91d4 9f3a
000001c0: 5bb4 a138 e3ef 9735 f0ab 4231 e4ee 4e34
000001d0: df8d 9237 606e 3d39 864a a539 a5cf 4139
000001e0: 22f0 50b8 ec61 49b9 4c3e b2b7 859f ccba
000001f0: 204f 0abb 7fa0 cdba cab3 81ba 8181 45b9
00000200: 7237 07ba d475 15ba 6124 dcb8 22af 77b7
00000210: 0343 e6b8 f3c6 19ba b87a e1b9 64e8 06ba
00000220: 94e3 66b8 f53d beb9 9016 c6ba e402 aaba
00000230: 73d8 d2b9 0a32 90b8 052d 77b9 b91f 90b9
-4.438071e-05 -0.00040611188 -0.0012131048 -0.00133184 -0.0017878158 -0.0032344074 -0.0010693707 -3.9096038e-05
2.0669144e-05 0.00016272032 0.00019701988 0.00016871044 -1.9346078e-09 -1.8345917e-06 -0.00019453492 -0.002624192
-0.005802704 -0.0046144836 -0.0049817795 -0.0013030705 -3.9015733e-05 -1.2413538e-07 -4.031608e-11 -1.2947739e-15
-6.715382e-05 -0.000718849 -0.0019516734 -0.0017349896 -0.00076307985 -0.0020221078 -0.0028133206 -0.0017736559
-0.0003011961 0.00020766656 0.00017654595 8.237157e-05 5.3820266e-05 0.00043887526 0.0004646758 -0.0005378172
-0.0017120021 -0.0015076023 -0.00018446184 3.0798234e-05 -0.00017867565 -0.00047789616 -0.0003537221 -0.00011835267
0.0 0.0 0.0 0.0 0.0 0.0 0.0 0.0
0.0 0.0 0.0 0.0 0.0 0.0 0.0 0.0
0.0 0.0 0.0 0.0 0.0 0.0 0.0 0.0
-5.9049562e-05 -0.00032927358 -0.00052925304 -0.0007357157 -0.00010335621 0.0009882185 0.0029280789 0.0011673663
5.918485e-05 -8.4113504e-05 -0.00027419982 -0.00026145118 4.3865744e-05 0.00069388165 0.0024919268 0.0022501394
0.002866116 0.0036590723 0.002165681 0.0018108891 0.00031769963 -0.0001905061 -9.666793e-05 -1.4877487e-05
1.8551106e-30 1.2963795e-23 8.504804e-18 5.266667e-13 3.111274e-09 1.7921564e-06 0.0001057287 0.00073770684
0.0010679801 0.0008283901 0.0003922374 0.00013609999 3.249426e-05 0.00074042246 0.0027701005 0.0012194087
7.710672e-05 1.1320193e-06 2.832845e-09 1.9272153e-07 1.747062e-05 0.00018065562 0.00031526777 0.00018483268
-4.9814706e-05 -0.00019205333 -2.1248263e-05 -0.0015611505 -0.002110429 -0.001568809 -0.00098955 -0.00018835628
-0.00051581033 -0.00057014567 -0.000104971936 -1.47631235e-05 -0.000109797365 -0.00058661326 -0.00043006777 -0.0005146323
-5.5048222e-05 -0.00036285786 -0.0015112925 -0.0012970832 -0.00040215589 -6.8757756e-05 -0.00023572527 -0.00027489456

exp_avg_sq f4 [12, 12]
00000000: 60d8 6633 9e69 c735 93f5 fc36 90b5 6e39
00000010: 52fc 1e3a 17f9 d039 beb3 b637 2c1b a932
00000020: f66c 4833 fd2f 8a36 1512 3f37 efcf b836
00000030: 26d3 6f24 72d3 3f2e 2428 c934 35b7 5238
00000040: d6bc 8f39 7014 2d39 d847 0e39 37bb 1c37
00000050: ab86 2e32 5fd5 162a c3db af1e 9c88 0010
00000060: b106 e634 27e2 0a38 d4eb 3539 a1e1 7e39
00000070: ddcf 753a 647a 243b 9da6 2c3b 39cb 5e3a
00000080: 2210 e838 383b 7937 f5c2 9536 5f7c ee35
00000090: 786f 5134 208a 5b37 4da0 6738 301d da37
000000a0: af2a e137 a750 d237 ddd6 a536 7a60 c538
000000b0: 1cc8 e238 b29b c037 53d6 9636 d33a 3c35
000000c0: 0000 0000 0000 0000 0000 0000 0000 0000
000000d0: 0000 0000 0000 0000 0000 0000 0000 0000
000000e0: 0000 0000 0000 0000 0000 0000 0000 0000
000000f0: 0000 0000 0000 0000 0000 0000 0000 0000
00000100: 0000 0000 0000 0000 0000 0000 0000 0000
00000110: 0000 0000 0000 0000 0000 0000 0000 0000
00000120: 204f 2e35 ee07 b537 c997 a738 a260 0f39
00000130: 6fe5 8a37 89d0 3539 0949 fc3a 46fb bf39
00000140: 679c a335 35d3 7e35 f146 d436 b744 8036
00000150: 8a80 1c33 afcc 4d37 67cd 8b39 6f7f 273a
00000160: a70b d43a e43f 4d3b d741 4a3a eb1f 3b39
00000170: 61c8 8b37 99c6 1f36 892d f635 939d 5635
00000180: 5075 5413 23c7 791f 3cb5 2428 6733 732d
00000190: 45c9 482f f21a a52f 1871 9b35 8e7a 9238
000001a0: 5331 0339 2b6d 1238 2e8d 0337 bf9f d535
000001b0: ae49 9133 a5c5 1a36 71b9 4938 d16d 9237
000001c0: 49fc a935 5aca 5630 f71d 9627 79b7 1e2b
000001d0: e456 b231 f11c 1c35 e550 9e35 f3d6 6734
000001e0: 2f8c 7933 c68b d935 a6a9 8d38 cf8f 3239
000001f0: 00d8 453a 3cfa d53a a612 bf39 b3ea e836
00000200: e47f 5b37 ca2d 8637 4ccd 5e35 51fa fb31
00000210: 338e fe34 2b0d ee36 b4f2 d736 ae23 0a38
00000220: 521a 2837 2110 b837 d7c4 183a 270c 3c3a
00000230: 06ff c238 723e 6f35 80f0 8735 c09d 9a35
5.374784e-08 1.4857394e-06 7.538774e-06 0.00022765086 0.00060648203 0.00039858438 2.177979e-05 1.9686546e-08
4.6665228e-08 4.118307e-06 1.1388697e-05 5.507834e-06 5.2003714e-17 4.3616173e-11 3.7468374e-07 5.0238526e-05
0.0002741578 0.00016506179 0.00013568939 9.341914e-06 1.0158753e-08 1.3396704e-13 1.8619737e-20 2.534879e-29
4.2845707e-07 3.3112385e-05 0.00017349358 0.00024307381 0.00093769823 0.0025097365 0.0026344426 0.00084989105
0.00011065627 1.48553445e-05 4.463242e-06 1.7768579e-06 1.9505194e-07 1.3085577e-05 5.5223984e-05 2.6001217e-05
2.6841966e-05 2.5071507e-05 4.9423966e-06 9.411662e-05 0.00010813793 2.2960685e-05 4.495299e-06 7.012106e-07
0.0 0.0 0.0 0.0 0.0 0.0 0.0 0.0
0.0 0.0 0.0 0.0 0.0 0.0 0.0 0.0
0.0 0.0 0.0 0.0 0.0 0.0 0.0 0.0
6.4935193e-07 2.1580574e-05 7.991453e-05 0.00013673541 1.655772e-05 0.0001733919 0.001924784 0.00036617572
1.2189965e-06 9.492972e-07 6.326351e-06 3.8226967e-06 3.6438486e-08 1.2266609e-05 0.00026665183 0.00063895335
0.0016177789 0.00313186 0.00077154994 0.000178456 1.66634e-05 2.3808445e-06 1.8341681e-06 7.9950513e-07
2.6816001e-27 5.2892523e-20 9.143128e-15 1.3824364e-11 1.82614e-10 3.003247e-10 1.1581315e-06 6.98465e-05
0.00012511508 3.4910783e-05 7.841079e-06 1.5916229e-06 6.765491e-08 2.3062832e-06 4.809484e-05 1.7455694e-05
1.2664906e-06 7.8140305e-10 4.166585e-15 5.6387496e-13 5.19036e-09 5.8156644e-07 1.1795461e-06 2.159175e-07
5.8102327e-08 1.6208439e-06 6.7550034e-05 0.00017028976 0.000754714 0.0016325186 0.00036444253 6.9414614e-06
1.3083194e-05 1.5995367e-05 8.300019e-07 7.333519e-09 4.741465e-07 7.0944857e-06 6.4357537e-06 3.2934993e-05
1.00197085e-05 2.194202e-05 0.0005827671 0.00071734417 9.298143e-05 8.912531e-07 1.0128279e-06 1.1519805e-06

exp_avg f4 [24, 12]
00000000: 4af6 9239 7901 da38 b013 c93a e356 1d3a
00000010: 0000 0000 0000 0000 8040 2339 7918 c13a
00000020: 3bdc 9d38 a45a 1f39 34a7 933a 9678 8739
00000030: ffbd 7c39 4509 1439 42a0 393a 2c52 4736
00000040: 0000 0000 0000 0000 b5ed 4536 0b95 5339
00000050: 7f30 aeb8 acbf a8b8 f962 153a 8dbf 3236
00000060: 6a3c 913a c41f 253a be75 813b 6158 d73a
00000070: 0000 0000 0000 0000 e7fd 6b39 b2cc 133b
00000080: aebe 3fb7 b972 3039 d852 393b 1cb8 ac39
00000090: 6217 02ba 824b 7db9 d7b1 1abb 1b82 e8b9
000000a0: 0000 0000 0000 0000 7751 41b9 e5e1 ffba
000000b0: ac19 2939 4e10 6138 328c d0ba 8722 91b9
000000c0: 4a34 31ba 556e abb9 4fff 22bb 635d 8dba
000000d0: 0000 0000 0000 0000 c9de 3ab9 d85d d9ba
000000e0: 836e 9eb8 4827 92b9 091a fbba 8bba 62b9
000000f0: bfca 2839 8fa1 6139 b7aa 9fb8 af2a 27b8
00000100: 0000 0000 0000 0000 d579 03b8 575b 76b9
00000110: 0851 8bb8 493a 1fb9 6f3f bdb9 a68e 0cb7
00000120: 656f cdba b24c 75ba 5c1e fabb b87b 4ebb
00000130: 0000 0000 0000 0000 b597 1aba eddc f6bb
00000140: ae40 8eb9 1e7f 3aba 70c9 b0bb d065 abba
00000150: f202 e7b8 68dd ccb8 eb4d 29b9 f12a 5db9
00000160: 0000 0000 0000 0000 95ca 3b38 a304 4239
00000170: cdd3 33b6 7148 9eb8 6c10 68b9 2f98 8d38
00000180: e774 833a 5b92 2e3a 2474 733b de93 db3a
00000190: 0000 0000 0000 0000 78c1 5539 4aff 1b3b
000001a0: 998f 1e37 47bd 4639 db4b 263b 4553 a739
000001b0: 98d7 6cb9 3e71 b3b8 7712 0bba 22f5 9ab9
000001c0: 0000 0000 0000 0000 bceb 70b6 da2a 3638
000001d0: b46e b4b8 c5c1 78b7 068a 9ab9 05a6 1c38
000001e0: e298 08bb 4e40 bdba 4124 b7bb 5809 62bb
000001f0: 0000 0000 0000 0000 8587 22b8 cac7 76ba
00000200: 574c 63b9 190a 2e39 e739 27bb e079 7938
00000210: 1fbd 2d39 6e11 cd39 51e1 8a3a 4f68 8cba
00000220: 0000 0000 0000 0000 8dd7 9937 433e 5e3a
00000230: 5a1f c6b9 02a5 5fb9 f2bb 883a 0315 d437
00000240: fde5 9ab9 e7c7 98b9 9df7 7cba a6ed 8639
00000250: 0000 0000 0000 0000 fd6f 01b8 6176 ffb9
00000260: 6373 3f39 f3e6 7639 da45 27ba 394d e2b8
00000270: a18d 2fba 9088 f3b9 7ef5 0dbb e0e9 2aba
00000280: 0000 0000 0000 0000 9172 ebb8 c51d b6ba
00000290: c0e1 5238 3f3d 8e38 b62a a6ba 0bd7 82b9
000002a0: c0e2 b539 005f cbb8 9185 893a 200c aa3a
000002b0: 0000 0000 0000 0000 0a7e e3b8 5183 d139
000002c0: 47f7 8839 3b9d 383a cd2a e33a ba8d 90b9
000002d0: da6e b33a daf3 6e3a 2c3c ad3b 8f24 013b
000002e0: 0000 0000 0000 0000 eaf6 8039 bc7a 763b
000002f0: 11ba a138 fcc1 9b39 9d8b 763b a727 063a
00000300: 1c8a 4fba 2dd8 1fba 69da 10bb 1ce7 d0ba
00000310: 0000 0000 0000 0000 dc6d b0b7 c075 87ba
00000320: eb7e f6b7 6520 98b9 64fa dfba 00ca 1e39
00000330: c116 8cba 5c61 08ba 65f3 a8bb ea55 26bb
00000340: 0000 0000 0000 0000 d04b bbb9 de68 c8bb
00000350: dd7d a8b8 7e93 27ba e11e 84bb f409 95ba
00000360: 1d47 2b38 80c6 a738 c0f8 fe39 1dcb 2c3a
00000370: 0000 0000 0000 0000 bf4d a638 4e22 713a
00000380: a2b9 b238 461b ab39 99aa f839 f9d5 1938
00000390: 7125 5337 01c2 ab38 115b 63ba de09 64ba
000003a0: 0000 0000 0000 0000 a8b8 40b9 29b8 f0ba
000003b0: 5e91 a1b9 be15 08ba 8853 7aba 527e b5b9
000003c0: deb3 7039 d75e 6139 5fe0 8f3a 8daa 043a
000003d0: 0000 0000 0000 0000 5c43 8538 9d72 9f3a
000003e0: 5684 9c38 7bb1 9038 3f3b 2b3a f780 8539
000003f0: b2a4 7aba add3 1aba 1229 2dbb b49c caba
0.0002803079 0.00010395324 0.001534095 0.0006002022 0.0 0.0 0.0001556892 0.0014732025
7.5273645e-05 0.00015197188 0.001126504 0.0002583905 0.00024103372 0.00014117833 0.000708107 2.970114e-06
0.0 0.0 2.9493651e-06 0.00020178051 -8.306e-05 -8.046566e-05 0.0005698647 2.6635564e-06
0.0011080627 0.0006298984 0.0039508035 0.0016429537 0.0 0.0 0.00022505932 0.0022552428
-1.1428883e-05 0.00016827405 0.0028278138 0.0003294357 -0.0004962591 -0.00024156089 -0.0023604536 -0.00044347424
0.0 0.0 -0.00018436262 -0.0019522278 0.0001612666 5.3659365e-05 -0.0015910922 -0.0002768228
-0.0006759806 -0.00032697865 -0.0024871414 -0.0010785278 0.0 0.0 -0.00017821336 -0.0016583754
-7.5546115e-05 -0.00027876557 -0.0019157539 -0.00021622532 0.00016097257 0.00021517857 -7.613509e-05 -3.9855655e-05
0.0 0.0 -3.13463e-05 -0.00023494415 -6.64313e-05 -0.00015185135 -0.0003609615 -8.377863e-06
-0.0015673457 -0.0009357437 -0.0076330137 -0.0031506848 0.0 0.0 -0.000589724 -0.0075336606
-0.0002713254 -0.0007114279 -0.005395107 -0.0013076607 -0.00011015487 -9.768718e-05 -0.00016146123 -0.000210922
0.0 0.0 4.4772944e-05 0.00018503009 -2.6796363e-06 -7.54752e-05 -0.00022131362 6.75175e-05
0.0010029346 0.0006659382 0.0037148083 0.0016752442 0.0 0.0 0.00020385336 0.0023803287
9.450968e-06 0.00018953263 0.0025374803 0.00031914763 -0.00022587029 -8.556478e-05 -0.00053051807 -0.00029555807
0.0 0.0 -3.5900002e-06 4.343209e-05 -8.603689e-05 -1.4827067e-05 -0.00029476004 3.7347916e-05
-0.0020843078 -0.001443872 -0.0055890386 -0.0034490433 0.0 0.0 -3.8750022e-05 -0.0009413926
-0.00021676846 0.00016597695 -0.002551669 5.947973e-05 0.00016569019 0.00039113633 0.0010595714 -0.0010712239
0.0 0.0 1.8339395e-05 0.00084779056 -0.00037788862 -0.00021328407 0.0010431989 2.5282154e-05
-0.00029544524 -0.00029140638 -0.00096499344 0.00025735534 0.0 0.0 -3.0860294e-05 -0.0004872559
0.00018258164 0.00023546423 -0.0006380953 -0.000107909036 -0.00066968246 -0.0004645032 -0.0021661217 -0.00065198354
0.0 0.0 -0.00011227013 -0.001389437 5.0278148e-05 6.7824956e-05 -0.0012677524 -0.00024955752
0.00034691952 -9.6974894e-05 0.0010492076 0.0012973584 0.0 0.0 -0.0001084768 0.00039961425
0.00026124177 0.0007042472 0.0017331481 -0.00027571415 0.0013689653 0.0009115316 0.005286714 0.0019705629
0.0 0.0 0.00024598028 0.0037609776 7.711736e-05 0.00029708433 0.0037619837 0.0005117603
-0.0007917003 -0.00060975814 -0.002210284 -0.0015938017 0.0 0.0 -2.1031992e-05 -0.0010334775
-2.9384586e-05 -0.00029015835 -0.0017088172 0.00015143305 -0.0010687934 -0.0005202496 -0.005155968 -0.0025380799
0.0 0.0 -0.00035723904 -0.006116017 -8.034308e-05 -0.00063925225 -0.0040320014 -0.0011370764
4.0835806e-05 8.000154e-05 0.00048631988 0.00065915455 0.0 0.0 7.929978e-05 0.0009198532
8.522278e-05 0.00032635982 0.0004742935 3.667732e-05 1.2585298e-05 8.1900514e-05 -0.0008672933 -0.000869898
0.0 0.0 -0.00018379337 -0.0018365431 -0.0003081662 -0.0005191228 -0.000954919 -0.00034617126
0.0002295519 0.00021493003 0.0010976902 0.00050608144 0.0 0.0 6.354481e-05 0.0012164895
7.463309e-05 6.8995134e-05 0.00065319607 0.00025463823 -0.00095612847 -0.0005906176 -0.0026422185 -0.0015458078

exp_avg_sq f4 [24, 12]
00000000: 918a 7d36 1782 9035 f4ac b638 74ad af37
00000010: 0000 0000 0000 0000 0cd0 a834 2145 9d38
00000020: c2b9 fc33 ee1c 9834 a7cc 5538 17ad 5736
00000030: 7cc0 9a37 6df9 1837 2f17 7f39 420b 2b38
00000040: 0000 0000 0000 0000 32f3 8035 10f2 e938
00000050: 4e5b 1f34 f388 1935 df0f dd38 47d3 3136
00000060: 3a12 4838 0748 9e37 d372 1d3a 32d6 fa38
00000070: 0000 0000 0000 0000 29e6 da35 96fe 7c39
00000080: 9297 7933 bd1f eb34 ee6b 8539 549f de36
00000090: 3e79 f738 6c36 b838 b73a 4f3b 410c 563a
000000a0: 0000 0000 0000 0000 b67c aa37 0eb1 733b
000000b0: a22d ec36 804f a236 0c5d 823a 5f07 2639
000000c0: ae86 cb36 78b2 ad35 9838 4f38 fbcd 4237
000000d0: 0000 0000 0000 0000 876b d534 edcb 4438
000000e0: 603b 2735 ad60 8735 54b4 9138 ef58 a136
000000f0: 8230 2737 9023 a036 0158 1639 1c52 b838
00000100: 0000 0000 0000 0000 8af6 1135 03bd 0c39
00000110: e7db a435 ff80 1035 63c0 0f38 291b 1237
00000120: 8aa7 0538 65f0 4737 6758 f239 a32d 0039
00000130: 0000 0000 0000 0000 f5f9 fa35 cf53 8139
00000140: 09a6 6335 1bc4 9e36 0406 8639 ec66 ee36
00000150: 4e1f a835 548a 3535 cbd0 0f38 39cc 4737
00000160: 0000 0000 0000 0000 d0c9 fc34 5330 7338
00000170: 49d4 0735 9d05 8633 259a 2537 e2f1 8936
00000180: 8787 3838 c2e0 bd37 bac7 1e3a 5664 0439
00000190: 0000 0000 0000 0000 c90d 3a36 efa7 b639
000001a0: b3bd 0734 3f1c 4d35 eaf3 7439 be0f 4637
000001b0: 998e ec35 d68c 2c35 32e5 fe37 f8c4 2d38
000001c0: 0000 0000 0000 0000 97bb 0f35 fadf 9a38
000001d0: e475 a335 1317 e734 d13b f336 ba42 cf36
000001e0: 0243 e237 6ef2 4a37 51fa ac3a d836 b739
000001f0: 0000 0000 0000 0000 0404 9637 0bc5 5c3b
00000200: 6dbd 2d37 f003 b937 55d6 263a 093a 3039
00000210: c1a1 9e39 8a14 4939 68fb c53b 5dc7 b43a
00000220: 0000 0000 0000 0000 f2d9 2438 ff8d ad3b
00000230: 94d2 8737 95f1 2e37 9d27 f53a 44b3 6239
00000240: 6da2 9136 5d04 3436 6325 9c38 74e9 e637
00000250: 0000 0000 0000 0000 90d0 1635 3552 4638
00000260: 1c2f 3436 c0e9 0a36 c5e2 1238 0e0a 6836
00000270: 0017 1938 bf3b 9c37 6b6c 283a f827 0f39
00000280: 0000 0000 0000 0000 5e2b 3536 e562 d739
00000290: 75d3 5335 ffdb 7734 5355 4239 70ed 8e37
000002a0: 968a 0939 249d be37 119a aa3a 0741 4a39
000002b0: 0000 0000 0000 0000 897e e836 a333 033a
000002c0: 9487 fa36 58b8 9437 82f5 bb3a 8409 8838
000002d0: 9852 0238 115d 6737 2449 ae39 92ec 6838
000002e0: 0000 0000 0000 0000 6f65 bf34 736f e338
000002f0: 82e3 9c33 e266 0536 5a97 4b39 7929 b035
00000300: f3d3 0c38 82fe 8336 d15d 5439 775e 0139
00000310: 0000 0000 0000 0000 db82 d434 f20a b038
00000320: a792 c735 682f 2437 ff3a 7439 18f8 5636
00000330: 7a97 a937 ce5b 2f37 cd94 a339 6bf0 ad38
00000340: 0000 0000 0000 0000 86a8 9235 415b dd39
00000350: 496a ae35 8804 8b36 9aac 0b39 65ce a737
00000360: cbe2 9936 dc45 2f36 28dc b938 007e d037
00000370: 0000 0000 0000 0000 0e11 ad34 1de5 8e38
00000380: 5c7b af35 f8e3 8836 10b8 e337 3dcf ae36
00000390: 70ed b337 cb72 6737 1209 8339 c1ad e038
000003a0: 0000 0000 0000 0000 4a0d 5b36 367e f738
000003b0: 8d37 4336 d44d 0736 b1fc 4138 313c 1237
000003c0: 223b c637 f37d 1a37 a3da 8e39 19c5 9338
000003d0: 0000 0000 0000 0000 ff3d ad35 7c47 e538
000003e0: 1fba 4334 bfc6 0f36 2369 1939 d321 1536
000003f0: 219d d939 1b90 0939 bb65 8b3b 8876 283a
3.7780594e-06 1.0766697e-06 8.710651e-05 2.0942396e-05 0.0 0.0 3.1443813e-07 7.49922e-05
1.17684536e-07 2.8333255e-07 5.0973755e-05 3.2138248e-06 1.8447863e-05 9.11798e-06 0.00024327332 4.078006e-05
0.0 0.0 9.607522e-07 0.000111553934 1.4841245e-07 5.719623e-07 0.000105410574 2.6498035e-06
4.770069e-05 1.8868608e-05 0.0006006185 0.00011960826 0.0 0.0 1.6309251e-06 0.00024127433
5.8112683e-08 4.3795254e-07 0.0002544815 6.634664e-06 0.00011800461 8.7839406e-05 0.003162069 0.0008165278
0.0 0.0 2.0323652e-05 0.003718439 7.0386604e-06 4.8372312e-06 0.0009945943 0.0001583374
6.06555e-06 1.2941446e-06 4.9405353e-05 1.161126e-05 0.0 0.0 3.9752578e-07 4.6919962e-05
6.229875e-07 1.008642e-06 6.9477275e-05 4.808527e-06 9.96527e-06 4.7725116e-06 0.00014337899 8.789098e-05
0.0 0.0 5.437547e-07 0.00013421853 1.2282952e-06 5.3831894e-07 3.427303e-05 8.708602e-06
3.1865704e-05 1.19172955e-05 0.00046223702 0.00012224032 0.0 0.0 1.8699199e-06 0.0002466724
8.48057e-07 4.7315966e-06 0.00025562954 7.1049344e-06 1.2526086e-06 6.762905e-07 3.428831e-05 1.1908874e-05
0.0 0.0 4.7085496e-07 5.798072e-05 5.0600335e-07 6.240882e-08 9.870656e-06 4.111077e-06
4.399524e-05 2.2635217e-05 0.0006056983 0.00012625879 0.0 0.0 2.7724184e-06 0.00034838865
1.2641867e-07 7.6409555e-07 0.00023360518 1.1805385e-05 1.7624872e-06 6.4279936e-07 3.0385887e-05 4.1429856e-05
0.0 0.0 5.354463e-07 7.385011e-05 1.2178757e-06 4.3043892e-07 7.248928e-06 6.1768487e-06
2.6972502e-05 1.2096583e-05 0.0013197159 0.00034945342 0.0 0.0 1.7883263e-05 0.0033686783
1.0355708e-05 2.2055552e-05 0.00063643354 0.00016806288 0.00030256624 0.00019176505 0.006041933 0.0013792325
0.0 0.0 3.9303624e-05 0.0052964683 1.6191312e-05 1.0427456e-05 0.0018703822 0.00021619821
4.3402456e-06 2.682463e-06 7.4456235e-05 2.7526847e-05 0.0 0.0 5.6182853e-07 4.728344e-05
2.6849511e-06 2.0699663e-06 3.5020308e-05 3.4576547e-06 3.6499463e-05 1.862447e-05 0.0006424847 0.00013652432
0.0 0.0 2.6996345e-06 0.00041081678 7.8911336e-07 2.3083702e-07 0.00018533067 1.7038285e-05
0.00013116965 2.272294e-05 0.0013015886 0.00019288446 0.0 0.0 6.9288694e-06 0.0005004948
7.466364e-06 1.7728817e-05 0.0014340135 6.486758e-05 3.1071337e-05 1.3790342e-05 0.0003324236 5.5533434e-05
0.0 0.0 3.5650325e-07 0.000108449625 7.3056995e-08 1.987843e-06 0.00019415971 1.3125092e-06
3.3575994e-05 3.933733e-06 0.00020252845 0.0001233759 0.0 0.0 3.9583287e-07 8.394373e-05
1.4869337e-06 9.786199e-06 0.00023291631 3.2032895e-06 2.0216907e-05 1.0452188e-05 0.00031200648 8.294064e-05
0.0 0.0 1.0926894e-06 0.00042220394 1.2994943e-06 4.1430503e-06 0.00013320372 2.0004061e-05
4.5861575e-06 2.6117696e-06 8.862495e-05 2.4854206e-05 0.0 0.0 3.223617e-07 6.813763e-05
1.3074418e-06 4.079655e-06 2.714622e-05 5.20973e-06 2.1449028e-05 1.37954e-05 0.00024993025 0.000107135165
0.0 0.0 3.2641278e-06 0.000118013864 2.90896e-06 2.016187e-06 4.6250123e-05 8.7162925e-06
2.3630975e-05 9.20844e-06 0.00027247248 7.0462185e-05 0.0 0.0 1.2907548e-06 0.00010932886
1.82285e-07 2.1424346e-06 0.00014630384 2.2222418e-06 0.00041506535 0.00013119022 0.0042540706 0.0006426354

exp_avg f4 [12]
00000000: c763 a5bb c241 45bc dfff ebbb d5ad 24bb
00000010: 0000 0000 0000 0000 5a1e ba3a 15db 203c
00000020: ee81 053b f425 623b 8236 a3bb c0c8 75bb
-0.005047295 -0.012039604 -0.007202133 -0.0025128026 0.0 0.0 0.0014199719 0.009817858
0.0020371634 0.0034507485 -0.004980863 -0.003750369

exp_avg_sq f4 [12]
00000000: 9b4b a93a e0b2 583a acaa 8a3c afd3 6f3a
00000010: 0000 0000 0000 0000 c321 a73a 1d47 563c
00000020: d7d0 ba39 51b1 4738 457a b03b eba0 cf3a
0.0012916209 0.00082664005 0.016927086 0.000914867 0.0 0.0 0.0012751151 0.013078478
0.00035632282 4.7610436e-05 0.0053856694 0.0015840804

exp_avg f4 [24]
00000000: 563e 8d3a 50d2 c239 6953 103b 0adb c8ba
00000010: aa50 b6ba 5023 a4b7 89d8 aebb 03dc 2138
00000020: 29be 0c3b 6eac 76b9 3826 27bb ecca 6d3a
00000030: 6cce 36ba 1a46 b9ba 9b9c 4e38 8800 5b3b
00000040: e8d6 68ba c045 79bb 180b 8139 dc4b 53ba
00000050: b054 703a c698 60ba 89e0 3dbb abf0 c339
0.0010776024 0.00037159258 0.0022022373 -0.0015324068 -0.0013909538 -1.9566767e-05 -0.0053358716 3.8590293e-05
0.002147565 -0.00023524623 -0.0025504958 0.000907107 -0.0006973508 -0.0014135272 4.9260078e-05 0.0033417065
-0.0008882121 -0.003803596 0.00024613063 -0.0008060315 0.0009167893 -0.0008567687 -0.0028972945 0.0003737261

exp_avg_sq f4 [24]
00000000: 2117 4138 cbd3 bd38 6b06 5f39 a212 033b
00000010: 460b b037 f69e ad38 d5b2 3739 9c52 0838
00000020: f461 7f39 f3a9 d937 52a3 a03a 31ea 583b
00000030: 9f8b 2f38 e0c9 a839 05d7 a439 7297 dc38
00000040: 3080 1338 44a3 3039 afd9 9438 4be0 f938
00000050: 3e8e a238 cb7d 833a a669 c438 a567 2d37
4.6036326e-05 9.051672e-05 0.00021269328 0.002000012 2.0986085e-05 8.2788916e-05 0.0001751886 3.2501863e-05
0.00024355185 2.5947555e-05 0.0012255704 0.0033098573 4.1853284e-05 0.00032193866 0.0003144072 0.000105186264
3.5166915e-05 0.00016845489 7.097737e-05 0.00011915023 7.7512566e-05 0.0010031996 9.365687e-05 1.0335735e-05
